checkpoints/checkpoint_colors-3_312570_epoch300_seed0000111.pth.tar (torch_old, 111563 bytes, 18 tensors)

graph_layers.0.fc.0.weight f4 [64, 8]
0	0x3c9d7cf8	0.019224629
1	0x3ed25cb3	0.4108635
2	0x80000c83	-4.488e-42
3	0x80000eea	-5.35e-42
4	0x3d4a387a	0.049370266
5	0xbccdb1c4	-0.02510918
6	0x3e5af481	0.21382333
7	0x80000f20	-5.426e-42
8	0x3d675d31	0.05648536
9	0x3e8b5dad	0.27219906
10	0xbe9b0d76	-0.30283707
11	0x00002f0c	1.6877e-41
12	0x3dcde139	0.100527234
13	0xbe48acd7	-0.19597183
14	0xbc7a3e63	-0.015273663
15	0x80001057	-5.862e-42
16	0x80000e76	-5.188e-42
17	0x80000c85	-4.491e-42
18	0x80000354	-1.194e-42
19	0x000009b6	3.484e-42
20	0x00000b79	4.116e-42
21	0x00000c82	4.487e-42
22	0x00000e89	5.214e-42
23	0x80000f53	-5.497e-42
24	0x3ec5e4c0	0.38651085
25	0xbed9cb36	-0.4253785
26	0x3cd6d6ea	0.026225526
27	0x80000ced	-4.637e-42
28	0xbe9d6c31	-0.30746606
29	0xbe1b1c58	-0.15147531
30	0xbe99e9b1	-0.30061105
31	0x800006c5	-2.428e-42
32	0xbe2ff3a8	-0.17182791
33	0x3e4e594e	0.20151255
34	0xbdf4195e	-0.11918901
35	0x00000f51	5.494e-42
36	0x3dd76b73	0.10518541
37	0xbe6f3e29	-0.23363556
38	0xbd88deb9	-0.06683106
39	0x00000b75	4.11e-42
40	0xbd167e47	-0.03674152
41	0xbeb607d6	-0.35552853
42	0xbda4171f	-0.080122225
43	0x80000c42	-4.397e-42
44	0x3dd8c9f9	0.10585398
45	0xbd9a2bb2	-0.075278655
46	0x3cc23119	0.023705052
47	0x80000f87	-5.57e-42
48	0x3e9fede9	0.312362
49	0xbe83e828	-0.2576306
50	0xbda382c6	-0.079839274
51	0x00000d2a	4.722e-42
52	0x3e8bc993	0.27302226
53	0xbec123bf	-0.37722585
54	0xbeb15f6f	-0.34643123
55	0x00000ce6	4.627e-42
56	0xbe049662	-0.12947991
57	0xbd7709fc	-0.060312256
58	0x3e49944d	0.19685479
59	0x0000107b	5.912e-42
60	0xbe8eb86c	-0.27875078
61	0xbeaa7c13	-0.33297786
62	0xbca1b277	-0.019738419
63	0x00000e0c	5.039e-42
64	0x3e81ea70	0.25374174
65	0xbe56ba02	-0.20969394
66	0xbd692a04	-0.056924835
67	0x00000d8d	4.861e-42
68	0x3db64f48	0.089018404
69	0xbe1485c9	-0.1450416
70	0xbdff25ec	-0.12458405
71	0x00000f05	5.388e-42
72	0xbc73b878	-0.014875524
73	0x3ee2dfbd	0.44311324
74	0xbebf0a9c	-0.37312782
75	0x00000eea	5.35e-42
76	0x3d94dcd7	0.07268684
77	0xbe5b0eb7	-0.21392332
78	0xbe0549b7	-0.13016401
79	0x80001084	-5.925e-42
80	0x3e84b609	0.25920132
81	0xbe42e81d	-0.19033857
82	0x3e1ad699	0.15120925
83	0x0000082e	2.934e-42
84	0x3dc44fa9	0.095855065
85	0x3e41a143	0.18909173
86	0xbdb012fc	-0.08597371
87	0x80000c37	-4.382e-42
88	0xbe3c85a8	-0.18410361
89	0x3ec38dea	0.3819421
90	0xbe045884	-0.12924391
91	0x00000ebe	5.289e-42
92	0xbd3af2b8	-0.04564163
93	0x3e8d3782	0.27581412
94	0xbdd68de2	-0.10476281
95	0x80000d81	-4.844e-42
96	0xbc892627	-0.016741825
97	0xbe290cd0	-0.16508794
98	0x3d86c92d	0.0658134
99	0x80000e2e	-5.087e-42
100	0xbe40a1ab	-0.18811671
101	0xbe48b4e6	-0.19600257
102	0xbd2ac364	-0.041690245
103	0x00003045	1.7316e-41
104	0x3e1adafa	0.15122595
105	0x3ee4d547	0.44693968
106	0x3e40a76c	0.18813866
107	0x00000fda	5.686e-42
108	0xbecb658d	-0.39725915
109	0x3e46bf15	0.1940883
110	0xbd565c0b	-0.052333873
111	0x00000deb	4.993e-42
112	0x3e7619b9	0.2403325
113	0xbe8cccd7	-0.2750003
114	0x3e653d9c	0.22386783
115	0x80000c7d	-4.48e-42
116	0x3d153d6c	0.03643553
117	0xbd15ffe0	-0.036620975
118	0x3e93086b	0.2871736
119	0x00000cda	4.61e-42
120	0xbe5d1264	-0.21589047
121	0x3e8e8344	0.27834523
122	0x3de73b67	0.11290627
123	0x00000f44	5.476e-42
124	0x3d887ae4	0.066640645
125	0xbe710e3c	-0.23540586
126	0xbe93817f	-0.28809735
127	0x80001015	-5.769e-42
128	0x3e951fc4	0.29125798
129	0x3d8aa2d1	0.06769336
130	0xbe82eb9a	-0.25570375
131	0x00000a54	3.705e-42
132	0x3d7ce652	0.061743088
133	0xbc305aad	-0.010763806
134	0xbe839100	-0.25696564
135	0x80000e6f	-5.178e-42
136	0x3ed0ca14	0.40779173
137	0x3e85ad58	0.26108813
138	0xbe4216e5	-0.18954046
139	0x80000d34	-4.736e-42
140	0xbe8b7473	-0.2723728
141	0x3cc2e2df	0.023789821
142	0x3d16572e	0.036704235
143	0x00000d34	4.736e-42
144	0x3e674413	0.22584562
145	0x3d8f7518	0.07004756
146	0xbe5fbd32	-0.21849516
147	0x80000d2d	-4.727e-42
148	0xbdac3642	-0.08408786
149	0xbe4542eb	-0.19263808
150	0x3dccacd6	0.09993903
151	0x800010a2	-5.967e-42
152	0x3cfc408a	0.030792493
153	0xbee58552	-0.44828278
154	0x3df7b3d2	0.12094845
155	0x00000eba	5.283e-42
156	0xbe35625f	-0.17713307
157	0xbe43dd9d	-0.19127508
158	0xbe088eed	-0.13335772
159	0x0000019a	5.75e-43
160	0x3e1a124e	0.15046045
161	0x3eaac68c	0.33354604
162	0xbd91294a	-0.070879534
163	0x80000e83	-5.206e-42
164	0xbd41feb0	-0.04736203
165	0xbd960432	-0.07325019
166	0x3e23047d	0.15919681
167	0x00000e2f	5.088e-42
168	0x3ee2737f	0.44228742
169	0xbd5643c1	-0.05231071
170	0x3e8e654b	0.27811655
171	0x00000f68	5.527e-42
172	0x3ea0ab8c	0.3138088
173	0xbe05f205	-0.13080604
174	0x3e3b9280	0.18317604
175	0x80000faf	-5.626e-42
176	0x00000339	1.156e-42
177	0xae0db4f2	-3.22204e-11
178	0x35cf7b1c	1.5458531e-06
179	0x80000e2a	-5.081e-42
180	0x1a537763	4.3730217e-23
181	0x1f1ef9d4	3.3664454e-20
182	0x3514f562	5.5491375e-07
183	0x8000066b	-2.302e-42
184	0xbe8ec7da	-0.2788685
185	0x3e8b616f	0.27222773
186	0xbe2f6fdb	-0.17132513
187	0x00000ec2	5.294e-42
188	0xbdaece47	-0.08535438
189	0xbd836590	-0.06415856
190	0xbeb30336	-0.34963387
191	0x00000ea8	5.258e-42
192	0xbecbcccf	-0.39804694
193	0x3e71d43c	0.23616117
194	0xbe1471f8	-0.144966
195	0x00000b0d	3.964e-42
196	0x3dccfad5	0.1000878
197	0x3dc1172d	0.094282486
198	0xbe710508	-0.23537076
199	0x80000e19	-5.057e-42
200	0xbe46d9b8	-0.1941899
201	0x3e84602d	0.25854626
202	0x3e53629a	0.20643082
203	0x00000be6	4.268e-42
204	0xbed5079c	-0.41607368
205	0x3df57bfd	0.119865395
206	0x3d9bee8f	0.07613861
207	0x80000f97	-5.593e-42
208	0x3e4579a9	0.19284691
209	0x3eac9402	0.3370667
210	0xbe8892f4	-0.26674616
211	0x000006f7	2.499e-42
212	0xbdb89cca	-0.0901428
213	0x3d9ed87d	0.077561356
214	0xbe4922b4	-0.19642144
215	0x00000307	1.086e-42
216	0x39c8323b	0.00038184397
217	0x3d5c0253	0.053713154
218	0xbe88aad4	-0.26692832
219	0x800032b8	-1.8194e-41
220	0xbe999560	-0.29996777
221	0xbe176159	-0.14783229
222	0x3e16005a	0.14648572
223	0x00000c6a	4.453e-42
224	0xbea6e176	-0.32593888
225	0x3d3329b4	0.043740943
226	0x3def0401	0.116706856
227	0x80001b5d	-9.816e-42
228	0x3d255f6a	0.040374197
229	0xbe57c43f	-0.21070956
230	0xbe079d72	-0.13243654
231	0x80000d69	-4.81e-42
232	0xbe2daf39	-0.16961373
233	0x3da5729a	0.08078499
234	0x3dc7ab17	0.0974943
235	0x00000bd0	4.238e-42
236	0x3dac10c5	0.08401636
237	0xbddf75be	-0.109111294
238	0x3e951cf7	0.2912366
239	0x00000f57	5.503e-42
240	0x3e9afbf4	0.3027035
241	0xbd9b72c0	-0.07590246
242	0x3dccf42c	0.100075096
243	0x00000a5c	3.716e-42
244	0xbe479dbd	-0.19493766
245	0x3d7bc168	0.061463743
246	0xbe8b5e9b	-0.27220616
247	0x80000f4d	-5.489e-42
248	0x3efbc5d3	0.49174365
249	0x3e1b6f51	0.15179183
250	0x3eec5231	0.46156457
251	0x00000e59	5.147e-42
252	0xbe1f8058	-0.15576303
253	0xbd3de6dc	-0.046362743
254	0x3dfa5c76	0.12224667
255	0x80000e0c	-5.039e-42

graph_layers.0.fc.0.bias f4 [64]
0	0xbd36f93f	-0.044671293
1	0x3ec7d8d5	0.39032617
2	0x80000ecf	-5.312e-42
3	0xbba5fdd2	-0.005065658
4	0xba87c653	-0.0010358788
5	0x3e888e52	0.26671082
6	0x3df94747	0.12171798
7	0x3e66c9ac	0.22537869
8	0x3c826d73	0.01592133
9	0x3e5787a0	0.2104783
10	0x3ed9e1db	0.42555127
11	0x3eab0126	0.33399314
12	0x3e614d67	0.22002183
13	0xbd45dd5b	-0.048306804
14	0x3e5f6549	0.21815981
15	0xbd82202e	-0.06353794
16	0x3e8b2414	0.27175963
17	0x3be45270	0.006967835
18	0x3e83f28d	0.2577099
19	0x3decf355	0.115698494
20	0x3c4ec6ae	0.012620611
21	0x3ee8179d	0.45330516
22	0xb6d81e51	-6.440831e-06
23	0x3eaf976f	0.34295222
24	0x3e3cacd1	0.18425299
25	0x3e875a13	0.2643591
26	0x3d479bdb	0.04873262
27	0x3deaebf2	0.11470784
28	0x3e36a10f	0.17834876
29	0x3e369100	0.1782875
30	0x3e74e4e2	0.23915437
31	0xbc493bdd	-0.012282339
32	0x3e847f14	0.25878203
33	0x3bbd65a8	0.0057799406
34	0x3e57247c	0.21010011
35	0x3e1d730e	0.15375921
36	0x3ea11968	0.31464696
37	0x3dab2da6	0.08358316
38	0xbe216d28	-0.15764296
39	0x3eab255b	0.33426937
40	0xbe78a68b	-0.24282281
41	0x3e96edd8	0.29478335
42	0xbe21fc74	-0.1581896
43	0xbe1a3325	-0.15058573
44	0x3e7fa504	0.24965292
45	0x80000ecc	-5.308e-42
46	0x3e6586f4	0.22414762
47	0xbe58b8ea	-0.21164289
48	0x3da5dbb7	0.08098548
49	0xbdc0a5ac	-0.094065994
50	0x3d2ae608	0.04172328
51	0x3ec45999	0.38349608
52	0x3e670799	0.22561492
53	0x80000de3	-4.982e-42
54	0x3e978f1f	0.2960138
55	0x3ec8933e	0.39174837
56	0x3eb1688f	0.34650084
57	0x3e6eb42b	0.23310916
58	0xbe31848f	-0.17335723
59	0x3d82af7d	0.06381128
60	0x3e86b063	0.26306447
61	0x3d82c6c0	0.06385565
62	0xbde92099	-0.11383171
63	0xbd5c4467	-0.05377617

graph_layers.1.proj.weight f4 [1, 4]
0	0xbebae550	-0.36503077
1	0x4077f493	3.8743026
2	0xbe9acd22	-0.3023463
3	0x22e766d7	6.272156e-18

graph_layers.2.fc.0.weight f4 [64, 128]
0	0xbdb66fa5	-0.08908013
1	0xbdafcc1e	-0.08583854
2	0x80000a7f	-3.765e-42
3	0xbd8867ad	-0.066603996
4	0xbd2b6335	-0.041842658
5	0x3d46953a	0.048482157
6	0xbd27cee0	-0.040968776
7	0xbb2dc6d5	-0.0026516218
8	0x3c06bbc1	0.008223475
9	0xbd822190	-0.06354058
10	0xbdd26dd9	-0.10274858
11	0xbdac5d53	-0.08416238
12	0xbd61cad5	-0.055125076
13	0xbe5dc81c	-0.21658367
14	0xbbef64d1	-0.0073057194
15	0xbe1fcaa4	-0.15604645
16	0xbdebb699	-0.11509437
17	0xbddea07d	-0.108704545
18	0xbce56c1a	-0.028005648
19	0x3dd59690	0.10429108
20	0xbd8f28f1	-0.06990231
21	0xbe1c3daf	-0.15257905
22	0x00000695	2.361e-42
23	0xbdee6324	-0.11640003
24	0xbe26442b	-0.16236942
25	0xbdadcc8d	-0.084862806
26	0xbdcfa621	-0.101391084
27	0xbd84cda3	-0.064845346
28	0xbdccb65e	-0.09995721
29	0xbd4a0d0c	-0.04932885
30	0xbdd0effa	-0.10202022
31	0x3cfafca5	0.030638048
32	0xbd10a60d	-0.03531461
33	0x3d06c925	0.03290667
34	0xbdeb8423	-0.114998125
35	0x3a8166ac	0.0009872518
36	0x3c9dbaa4	0.019254036
37	0xbd7e8e85	-0.062147636
38	0xbc95eb75	-0.018300751
39	0xbdb8dc51	-0.09026397
40	0x3bfeaf2f	0.0077723484
41	0xbdeb2049	-0.11480767
42	0x3c3b344d	0.011426044
43	0xbb28f2ad	-0.0025779412
44	0xbe0d2d5e	-0.13786837
45	0x00000bcb	4.23e-42
46	0xbdb16e6f	-0.08663642
47	0xbbb7a119	-0.005603921
48	0x3d122660	0.03568113
49	0x3d40c062	0.04705847
50	0x3d6fe9a9	0.058572445
51	0xbe05288d	-0.1300375
52	0x3bf00fec	0.007326117
53	0x80000b06	-3.954e-42
54	0xbe13f4fe	-0.14448926
55	0xbd2a06c5	-0.041510362
56	0xbc1a48c0	-0.009416759
57	0xbdb22bb1	-0.0869974
58	0xbda19b86	-0.07890992
59	0xbd051028	-0.03248611
60	0xbd8f1480	-0.06986332
61	0xbd983639	-0.07432217
62	0x3d132002	0.035919197
63	0xbbfbf7a1	-0.007689432
64	0xbc24d3f0	-0.010060295
65	0x3c90c005	0.017669687
66	0x80002f6f	-1.7016e-41
67	0x3d65a2df	0.05606353
68	0xbc0dbdb4	-0.008651186
69	0x3bf26571	0.0073973467
70	0xbac15ad7	-0.0014751804
71	0xbb5d329a	-0.0033752085
72	0x3c82fc1c	0.015989356
73	0x3d6c9ed5	0.05776866
74	0x3ddc8125	0.1076682
75	0x3d9a432d	0.07532344
76	0x3c7c6d66	0.015406942
77	0xbd8d6673	-0.06904306
78	0xbc8da023	-0.017288273
79	0x3cbaec14	0.022817649
80	0x3bec14cf	0.007204629
81	0xbbbf1e85	-0.0058324956
82	0xbd3c1ef3	-0.045927953
83	0x3c63f867	0.013914204
84	0xbd14db66	-0.036342047
85	0x3db3dd55	0.0878245
86	0x0000371a	1.9767e-41
87	0x3c8bbe1b	0.017058423
88	0xbc6c47d0	-0.014421418
89	0x3d19f51b	0.037587266
90	0xbd466e3e	-0.04844498
91	0xbc919156	-0.017769497
92	0x3d2cb481	0.04216433
93	0x3b886ad9	0.004163128
94	0x3d6c4c9f	0.05769026
95	0x3d461233	0.0483572
96	0x3db96853	0.090531014
97	0x3d05acf6	0.03263565
98	0x3ca88b45	0.020574221
99	0xbd0ede13	-0.034879755
100	0x3dd18f3a	0.102323964
101	0x3db575f3	0.08860388
102	0x3b1464cd	0.002264309
103	0xbbcefb6d	-0.0063165934
104	0x3c9263d7	0.017869873
105	0x3d826fdd	0.063689925
106	0x3d54ea1c	0.051981077
107	0xbc1484f4	-0.009064902
108	0xbd14942c	-0.03627412
109	0x80000d30	-4.731e-42
110	0xbbfffac6	-0.007811877
111	0xbbcfbc36	-0.006339575
112	0x3ce86b21	0.028371396
113	0x3d8e7f33	0.06957855
114	0x3d79174f	0.060813244
115	0x3c5c300b	0.013439189
116	0xbd0428a8	-0.032265335
117	0x000004b7	1.691e-42
118	0x3d011833	0.03151722
119	0xbca06412	-0.019578967
120	0x3d9d6cdc	0.07686779
121	0x3d52000e	0.051269583
122	0x3d63a40c	0.05557637
123	0x3b1f0aad	0.0024267838
124	0x3c8350ff	0.016029833
125	0xbbc4c07b	-0.006004391
126	0x3bec909d	0.0072193877
127	0x3de0d12f	0.109773986
128	0x3e93997f	0.28828046
129	0x3e35fd24	0.17772347
130	0x80000d91	-4.867e-42
131	0xbe664b42	-0.22489646
132	0x3e44a49a	0.19203416
133	0xbe1222bc	-0.14271063
134	0xbe598edc	-0.21245903
135	0x3e0fa1ea	0.14026609
136	0xbe2591e8	-0.1616894
137	0x3d26f17d	0.040757645
138	0xbd0e0958	-0.03467688
139	0x3e829efb	0.25511917
140	0x3dbee08c	0.09320173
141	0x3e9dafd1	0.307982
142	0xbdf2798f	-0.11839592
143	0x3e15b0a7	0.14618169
144	0x3e2338b7	0.15939604
145	0x3e7f5fed	0.24938937
146	0x3de4b8f7	0.11168092
147	0xbe6149f0	-0.22000861
148	0x3e63a852	0.22232178
149	0x3d93c6ee	0.07215677
150	0x90bd1407	-7.457821e-29
151	0x3e63b485	0.22236831
152	0x3e9185c9	0.28422382
153	0x3e034031	0.12817456
154	0x3e6106ae	0.21975204
155	0x3e587405	0.21138008
156	0x3e6973e7	0.2279812
157	0x3dac4365	0.08411292
158	0x3d140a9a	0.036142923
159	0xbeb34ea3	-0.35020933
160	0x3db11147	0.086458735
161	0x3e4b1179	0.19830884
162	0x3e277264	0.1635223
163	0x3da0da63	0.07854154
164	0xbe464d10	-0.19365335
165	0x3e5bd9fc	0.21469873
166	0xbb8ab5f7	-0.0042331177
167	0x3e70ed9c	0.23528141
168	0x3e437f47	0.19091521
169	0x3e3bc153	0.18335466
170	0xbcbcb255	-0.023034254
171	0x3dbe4352	0.09290184
172	0x3d2ce327	0.042208817
173	0x000002db	1.024e-42
174	0x3d2b6fb1	0.041854564
175	0x3d77d0b8	0.060501784
176	0xbdc76413	-0.097358845
177	0xbe4ea64f	-0.20180629
178	0xbe5cafc1	-0.2155142
179	0x3e3fc78a	0.18728462
180	0x3e4c9adb	0.19980948
181	0x000009bd	3.493e-42
182	0x3e5cf380	0.21577263
183	0x3d9e56af	0.07731377
184	0x3e23eaa6	0.1600748
185	0x3d74d9a9	0.05977789
186	0x3da291fd	0.07938001
187	0x3b4e3e36	0.0031470186
188	0x3dfdef0e	0.12399112
189	0x3e24f1e4	0.16107899
190	0xbd76e8cb	-0.060280602
191	0xbda06e1b	-0.07833501
192	0x3d3a530c	0.045489356
193	0x3d7b7efe	0.061400406
194	0x80000a96	-3.798e-42
195	0x3e098248	0.13428605
196	0xbda76f32	-0.08175506
197	0xbd2b902c	-0.04188554
198	0x3e077dde	0.13231608
199	0x3c9ab0d9	0.018883156
200	0x3d1d90d1	0.038468186
201	0xbd78b17e	-0.060716145
202	0xbca16ffd	-0.01970672
203	0xbbe18190	-0.0068819
204	0xbd5f3518	-0.054493994
205	0xbd438a2a	-0.047739185
206	0xbd7f7c46	-0.062374376
207	0xbd3a0a84	-0.045420185
208	0xbd4ced94	-0.05003126
209	0x3d40fb5f	0.047114726
210	0x3cede072	0.029037688
211	0xbd3d3c86	-0.046200298
212	0x3ab8fa6b	0.0014112716
213	0xbb952f64	-0.0045527685
214	0x00000a4d	3.695e-42
215	0xbcbfb9f1	-0.023404093
216	0xbc94979d	-0.018138701
217	0xbe027a90	-0.12742066
218	0x3d21a4be	0.03946375
219	0xbd255f55	-0.04037412
220	0x3d8076d3	0.06272664
221	0xbdb2891b	-0.08717557
222	0x3d00aeab	0.031416576
223	0xbd5119e9	-0.0510501
224	0x3b59a672	0.0033210781
225	0xbd1565c4	-0.036474004
226	0x3d2aaeda	0.041670658
227	0x3b8721d1	0.0041239043
228	0x3ecad404	0.3961488
229	0xbc203e1f	-0.009780436
230	0xbddfb64a	-0.10923441
231	0x3d140dbd	0.036145914
232	0xbd0e5e61	-0.034757975
233	0x3d64b81b	0.05583964
234	0x3a960964	0.001144689
235	0x3d1ed788	0.038779765
236	0x3c269859	0.010168158
237	0x00000983	3.412e-42
238	0xbd4b6858	-0.049660057
239	0x3db4050f	0.08790027
240	0xbd6146cd	-0.05499916
241	0xbcbbaabe	-0.022908565
242	0x3dcf217d	0.10113809
243	0x3d11f134	0.03563042
244	0xbd4cb10f	-0.049973544
245	0x800008b6	-3.125e-42
246	0xbdcf869f	-0.10133099
247	0xbd791694	-0.060812548
248	0xbd1d3d03	-0.038388263
249	0xbb7b7df5	-0.0038374637
250	0x3e012655	0.12612279
251	0x3d3b36e6	0.045706652
252	0xbb8b6bef	-0.00425481
253	0xbaa16198	-0.001231241
254	0xbe2cde91	-0.16881777
255	0xbc06b9a1	-0.008222968

graph_layers.2.fc.0.bias f4 [64]
0	0x3e095011	0.13409449
1	0xbe89dc34	-0.26925814
2	0xb4ee1aab	-4.4350358e-07
3	0x3dd4475c	0.10365173
4	0xad62cfb5	-1.2892733e-11
5	0x3defebf9	0.1171493
6	0x3e06595b	0.13120024
7	0x3ddfbb16	0.10924356
8	0x3b9716fb	0.004610894
9	0x3e962a8c	0.29329336
10	0x3e244e22	0.1604543
11	0xbd6aae76	-0.057295285
12	0x3e0b80cb	0.1362335
13	0x3e007823	0.12545829
14	0xbd390254	-0.045168236
15	0x3e426265	0.18982847
16	0x3df52c4b	0.11971339
17	0x3dec9b48	0.11553055
18	0xbdbb6810	-0.09150708
19	0x3ea602da	0.3242405
20	0x3e0f53df	0.13996838
21	0xad320ad0	-1.0120529e-11
22	0x3e0f1912	0.13974407
23	0x3dc0c0b9	0.09411759
24	0x3d629b69	0.055323992
25	0x3e272e23	0.16326194
26	0x3e1733d5	0.14765866
27	0xbd1cde87	-0.038298156
28	0x3e2f00e9	0.17090191
29	0x3ae7cdd4	0.0017685243
30	0xbdde4885	-0.10853676
31	0xbd4d5756	-0.05013212
32	0xbd67249e	-0.056431405
33	0x3ddf4033	0.10900917
34	0x80003915	-2.0477e-41
35	0x3e0288f7	0.1274756
36	0x3dbe2d38	0.092859685
37	0x3e15db56	0.14634451
38	0x80000fa2	-5.608e-42
39	0x3c1ee948	0.009699173
40	0xa30b1ce8	-7.541326e-18
41	0x3e1c4728	0.15261519
42	0x3e108aa1	0.14115383
43	0x3ac00abc	0.0014651637
44	0x3dcc9c58	0.09990758
45	0x3e2f54ac	0.17122144
46	0x3da969da	0.08272143
47	0xba15dbea	-0.00057166687
48	0x3dd0dd2e	0.10198437
49	0x3e04365e	0.12911364
50	0xae2d5967	-3.941505e-11
51	0x9f47b464	-4.2289105e-20
52	0xbd45ba79	-0.048273537
53	0x3ddc8daf	0.107692115
54	0x80000aa6	-3.82e-42
55	0xad691583	-1.3249293e-11
56	0x3e9a2b73	0.30111274
57	0x8000153a	-7.615e-42
58	0x3ea92462	0.3303557
59	0x3e194042	0.14965919
60	0x80000f19	-5.416e-42
61	0x80000838	-2.948e-42
62	0xbdc2804b	-0.09497126
63	0x3d990b3e	0.074728474

fc.0.weight f4 [1, 64]
0	0xbe02755e	-0.12740085
1	0xbf4cfe28	-0.8007531
2	0x08a6da06	1.0042019e-33
3	0x3e023d5e	0.12718722
4	0x2a825936	2.3154541e-13
5	0x3e1c4b25	0.1526304
6	0x3e3983ff	0.18116759
7	0xbdda6e22	-0.106655374
8	0xbddd54ea	-0.10807212
9	0x3e997e10	0.2997899
10	0x3df5e92f	0.12007367
11	0xbe7e4007	-0.24829112
12	0x3e489418	0.19587743
13	0xbe557447	-0.20845138
14	0xbe8f228d	-0.27956048
15	0x3dbf6c03	0.093467735
16	0x3e170de7	0.14751397
17	0x3de1b276	0.11020367
18	0xbe92cd3e	-0.28672212
19	0x3f0823ad	0.53179437
20	0xbe0d6f07	-0.13811885
21	0x00001bc0	9.955e-42
22	0x3e4958d0	0.19662786
23	0xbe1732a2	-0.14765409
24	0xbe0c9266	-0.13727722
25	0x3e2edf26	0.17077312
26	0x3e18711c	0.14886898
27	0xbe2cea8c	-0.16886348
28	0x3df0e36d	0.11762128
29	0xbd182cdc	-0.037152156
30	0xbe8a4f81	-0.27013782
31	0xbe356153	-0.17712907
32	0xbe251d1f	-0.1612439
33	0x3ddd7b10	0.10814488
34	0x000018df	8.922e-42
35	0xbe5320e2	-0.20618013
36	0xbdcdaea2	-0.10043074
37	0x3e4347eb	0.19070403
38	0xb522e52b	-6.0683186e-07
39	0xbd62bd72	-0.05535645
40	0x00000e6e	5.176e-42
41	0x3dd23382	0.102637306
42	0x3e2f729e	0.17133567
43	0xbdeb627f	-0.11493396
44	0xbd8de487	-0.06928354
45	0x3dfbed92	0.12301172
46	0x3e3b0321	0.18262912
47	0x80000a86	-3.775e-42
48	0x3e2304d4	0.1591981
49	0xbe14bef8	-0.14525974
50	0x3c9475fd	0.018122667
51	0x00000cff	4.662e-42
52	0xbe92d394	-0.28677046
53	0xbe10d06a	-0.14142004
54	0x3090ce6e	1.053605e-09
55	0x000010aa	5.978e-42
56	0xbeffc4c0	-0.49954796
57	0x80000498	-1.648e-42
58	0xbf0cb6e7	-0.54966587
59	0xbe026a69	-0.12735905
60	0x8000099c	-3.447e-42
61	0x00000f95	5.59e-42
62	0xbe8c98db	-0.2746037
63	0xbe0716e8	-0.13192332

exp_avg f4 [64, 8]
0	0x360103d7	1.9224733e-06
1	0xbafdd0b3	-0.0019364565
2	0x80000000	-0.0
3	0x80000000	-0.0
4	0x3942cdc9	0.00018577943
5	0x3a84b01a	0.0010123283
6	0x39af0606	0.0003338309
7	0x80000000	-0.0
8	0xba76434b	-0.00093941827
9	0xba1cfa35	-0.00059882115
10	0xba4fe9dc	-0.0007931271
11	0x00000000	0.0
12	0x3a4e5679	0.0007871162
13	0x395eb8fc	0.00021240482
14	0x3a64fd88	0.0008735289
15	0x80000000	-0.0
16	0x80000000	-0.0
17	0x80000000	-0.0
18	0x80000000	-0.0
19	0x00000000	0.0
20	0x00000000	0.0
21	0x00000000	0.0
22	0x00000000	0.0
23	0x80000000	-0.0
24	0x399a9036	0.00029480614
25	0xb7f5cd06	-2.9301747e-05
26	0x3893c944	7.046995e-05
27	0x80000000	-0.0
28	0xb8ab0048	-8.153968e-05
29	0xb79c5230	-1.863492e-05
30	0xb9178a7a	-0.00014452069
31	0x80000000	-0.0
32	0xb7902421	-1.7182962e-05
33	0xbb080462	-0.0020754565
34	0xb747fbc6	-1.1919945e-05
35	0x00000000	0.0
36	0x3947f8dc	0.00019070826
37	0x3a8a6888	0.0010559717
38	0x39b991d8	0.00035394612
39	0x00000000	0.0
40	0x3b1696c7	0.0022978054
41	0xb9022bb8	-0.00012414053
42	0x3afaadd4	0.0019125291
43	0x80000000	-0.0
44	0xbaf543b4	-0.0018712194
45	0x38d25ff1	0.00010031451
46	0xbaffb129	-0.0019507754
47	0x80000000	-0.0
48	0x3a29dfeb	0.0006480205
49	0x3a5bc0fb	0.00083829433
50	0x39db16d3	0.0004178794
51	0x00000000	0.0
52	0xb9d11817	-0.00039881535
53	0xba26e0b9	-0.0006365884
54	0xba503866	-0.00079429743
55	0x00000000	0.0
56	0xb9a2c468	-0.00031045382
57	0x39d61400	0.00040832162
58	0xb9805f5d	-0.00024485114
59	0x00000000	0.0
60	0x39516604	0.00019969797
61	0xb9b4ad6b	-0.00034461482
62	0x39213595	0.00015374117
63	0x00000000	0.0
64	0x3aab1292	0.0013051799
65	0xb699a334	-4.5787547e-06
66	0x39aa66bc	0.0003250147
67	0x00000000	0.0
68	0xba3d4b76	-0.00072210224
69	0xb806b0e2	-3.2112825e-05
70	0xba57e4ee	-0.00082357123
71	0x00000000	0.0
72	0xba873679	-0.0010315917
73	0xba618817	-0.0008603348
74	0xb7dc2fff	-2.6248394e-05
75	0x00000000	0.0
76	0x3a1a79a4	0.00058927597
77	0x39bebf1e	0.00036382017
78	0x3a167e97	0.0005740909
79	0x80000000	-0.0
80	0x39d4be34	0.00040577503
81	0x3b54489d	0.0032391914
82	0x395c8ed0	0.00021034037
83	0x00000000	0.0
84	0xb9f33c52	-0.00046393514
85	0xbb08f0d9	-0.002089551
86	0xba77fbb6	-0.000945981
87	0x80000000	-0.0
88	0xbadf8ae8	-0.0017054947
89	0xbaf5fda5	-0.0018767609
90	0xbabfe2b8	-0.0014639711
91	0x00000000	0.0
92	0x3ac98a9d	0.0015376393
93	0x3a83f05a	0.0010066137
94	0x3ae44ea9	0.0017418462
95	0x80000000	-0.0
96	0x3a07aff1	0.00051760586
97	0x3b0c749e	0.0021431814
98	0x39db2d92	0.00041804888
99	0x80000000	-0.0
100	0xba3157e8	-0.0006765113
101	0xbabb51b8	-0.0014291322
102	0xba709a27	-0.0009178244
103	0x00000000	0.0
104	0xbafb0e32	-0.0019154011
105	0xbb02df2f	-0.0019969454
106	0xbad604b5	-0.0016328307
107	0x00000000	0.0
108	0x3ad06dbf	0.0015901848
109	0x3a6fd36c	0.0009148631
110	0x3afaf738	0.0019147163
111	0x00000000	0.0
112	0x3af0d27d	0.0018373277
113	0xb7d1a1ab	-2.4990024e-05
114	0x3ac0c640	0.0014707521
115	0x80000000	-0.0
116	0xbabe3e2b	-0.0014514377
117	0xb705a35a	-7.965451e-06
118	0xbac53fee	-0.001504896
119	0x00000000	0.0
120	0xb85c71a4	-5.2557923e-05
121	0xbacd3362	-0.0015655572
122	0xbaa41db3	-0.0012521058
123	0x00000000	0.0
124	0x3a09111c	0.0005228685
125	0x3a345a16	0.0006879879
126	0x3a631f48	0.0008664024
127	0x80000000	-0.0
128	0x38aed078	8.335797e-05
129	0x3ac976e1	0.0015370512
130	0xb7f61c41	-2.9338642e-05
131	0x00000000	0.0
132	0xb9583cb8	-0.00020621985
133	0xba8d5c17	-0.0010784891
134	0xb9dfc941	-0.0004268382
135	0x80000000	-0.0
136	0x38ffe246	0.00012201494
137	0x3b0348aa	0.0020032325
138	0x3767f1ab	1.3824941e-05
139	0x80000000	-0.0
140	0xb9a9dd4a	-0.00032399065
141	0xbab6e823	-0.001395468
142	0xba0d5287	-0.00053910207
143	0x00000000	0.0
144	0xb87a073e	-5.961139e-05
145	0x3a36529b	0.0006955058
146	0xb8cd951e	-9.802937e-05
147	0x80000000	-0.0
148	0xb7c3c333	-2.3336708e-05
149	0xba0bb458	-0.00053293025
150	0xb8e44772	-0.00010885195
151	0x80000000	-0.0
152	0x3b183f03	0.0023230917
153	0xb83b7f7e	-4.470301e-05
154	0x3af748d6	0.0018866311
155	0x00000000	0.0
156	0xbaf537b4	-0.0018708617
157	0xb7a25628	-1.9352025e-05
158	0xbb01abbe	-0.0019786204
159	0x00000000	0.0
160	0xba7afc20	-0.0009574313
161	0xba4ef1ee	-0.00078943267
162	0xb687d062	-4.0475725e-06
163	0x80000000	-0.0
164	0x3a084ae6	0.0005199149
165	0x3989d09a	0.00026286097
166	0x39ffea87	0.00048812127
167	0x00000000	0.0
168	0x3a4a5f4c	0.0007719889
169	0x3b4775ea	0.0030435272
170	0x3a1b9128	0.0005934411
171	0x00000000	0.0
172	0xba67d226	-0.0008843265
173	0xbb02e1b8	-0.0019970965
174	0xbaa51a31	-0.0012596307
175	0x80000000	-0.0
176	0x00000000	0.0
177	0xa7697646	-3.2399362e-15
178	0x2f2a6850	1.5498469e-10
179	0x80000000	-0.0
180	0x13af6b91	4.428228e-27
181	0x1883a4aa	3.4028975e-24
182	0x2e74c349	5.5652625e-11
183	0x80000000	-0.0
184	0xba9dcb59	-0.0012038752
185	0xba49eed9	-0.00077031326
186	0xba855754	-0.001017312
187	0x00000000	0.0
188	0x3a86ccc0	0.0010284409
189	0x39adfd4a	0.00033185846
190	0x3a8d637a	0.0010787093
191	0x00000000	0.0
192	0xb883a240	-6.276788e-05
193	0xbae56dc5	-0.0017504027
194	0xba97decc	-0.0011586784
195	0x00000000	0.0
196	0x39f02d30	0.00045810034
197	0x3a3e9f04	0.000727162
198	0x3a651843	0.0008739272
199	0x80000000	-0.0
200	0xbaa6b99e	-0.0012720113
201	0xbaa87654	-0.0012852647
202	0xba8cd2dd	-0.0010743994
203	0x00000000	0.0
204	0x3a8cd7f5	0.0010745513
205	0x3a2196b8	0.00061641214
206	0x3aa409a6	0.0012515082
207	0x80000000	-0.0
208	0xba511b71	-0.00079768064
209	0xb982cb61	-0.0002494706
210	0xb79fd0d2	-1.9051517e-05
211	0x00000000	0.0
212	0x39ce339e	0.0003932984
213	0xb78ee0d4	-1.7032413e-05
214	0x39a1d0f0	0.00030863984
215	0x00000000	0.0
216	0xb9fdbd3d	-0.00048396914
217	0xb920f363	-0.00015349458
218	0x37f389b0	2.9031973e-05
219	0x80000000	-0.0
220	0x391e4630	0.00015094201
221	0xb89b9909	-7.419481e-05
222	0x393b1f33	0.00017845332
223	0x00000000	0.0
224	0xb84e0d4d	-4.9126615e-05
225	0xba07efd1	-0.0005185577
226	0xba2dc45c	-0.0006628686
227	0x80000000	-0.0
228	0x397ef412	0.00024314251
229	0x38edede0	0.00011345348
230	0x39c05782	0.00036686292
231	0x80000000	-0.0
232	0xb82c9f2d	-4.115624e-05
233	0xba28dcf0	-0.00064416137
234	0xb9ffd894	-0.00048798753
235	0x00000000	0.0
236	0x395a61d4	0.00020826544
237	0x39914cb8	0.00027713715
238	0x39b0725e	0.00033654546
239	0x00000000	0.0
240	0xb8d50078	-0.00010156719
241	0x3ad5cf78	0.0016312441
242	0xb94d5665	-0.00019582508
243	0x00000000	0.0
244	0x37277a68	9.982476e-06
245	0xba8b9464	-0.0010649082
246	0xb960c82c	-0.00021436875
247	0x80000000	-0.0
248	0x3ac7894e	0.0015223415
249	0x3b993d42	0.004676492
250	0x3a97678e	0.0011551247
251	0x00000000	0.0
252	0xbad094ea	-0.001591352
253	0xbb3b93f0	-0.0028622113
254	0xbb07656c	-0.0020659817
255	0x80000000	-0.0

exp_avg_sq f4 [64, 8]
0	0x375fa7db	1.3330918e-05
1	0x3aaa127b	0.0012975478
2	0x2a152332	1.3246069e-13
3	0x2a4c7766	1.8160264e-13
4	0x38946f84	7.077961e-05
5	0x39d22df3	0.00040088556
6	0x389ed871	7.5743425e-05
7	0x2aa85ee4	2.9908638e-13
8	0x385ab11d	5.21402e-05
9	0x39586335	0.00020636323
10	0x37544d99	1.2654252e-05
11	0x2399822b	1.6643422e-17
12	0x38029a61	3.1138192e-05
13	0x38bff697	9.153521e-05
14	0x380ebc18	3.4030614e-05
15	0x2bbeb888	1.355153e-12
16	0x2b6b535f	8.360447e-13
17	0x29603bbe	4.978981e-14
18	0x2743b248	2.7158333e-15
19	0x2908546b	3.0271287e-14
20	0x28cee58b	2.2970143e-14
21	0x29064d93	2.9821262e-14
22	0x2b2a5a38	6.0521336e-13
23	0x2b15096e	5.294852e-13
24	0x38a2c6b5	7.761774e-05
25	0x36c74fc4	5.939948e-06
26	0x3738d297	1.1016286e-05
27	0x29d512cf	9.462363e-14
28	0x380bc784	3.3325996e-05
29	0x36ad7136	5.1689813e-06
30	0x37f9d123	2.97805e-05
31	0x287ac7a4	1.3921078e-14
32	0x3686a7c7	4.013043e-06
33	0x3ac2df80	0.0014867634
34	0x335de044	5.165954e-08
35	0x2acf1794	3.6786947e-13
36	0x38b55bf8	8.647883e-05
37	0x39c71452	0.00037971378
38	0x38c669db	9.461093e-05
39	0x289a5952	1.7136171e-14
40	0x3a2b9a49	0.00065461226
41	0x3a335089	0.0006840309
42	0x3927657c	0.00015964167
43	0x2a67ca69	2.0587147e-13
44	0x399c7d3f	0.00029847954
45	0x39f16a3a	0.00046046247
46	0x39b1b9c4	0.00033898477
47	0x2aac2234	3.057707e-13
48	0x393ca329	0.00017989859
49	0x3a52c5a8	0.00080403173
50	0x37debdc0	2.6552822e-05
51	0x2b7ec85d	9.051699e-13
52	0x38a4653b	7.838985e-05
53	0x39b2d73c	0.00034111168
54	0x393a4f92	0.00017767985
55	0x2b86f813	9.590127e-13
56	0x36c4bfdf	5.863592e-06
57	0x392b9d12	0.00016366344
58	0x35eb1ef7	1.7517876e-06
59	0x2a6866f5	2.064146e-13
60	0x3724bfbe	9.819805e-06
61	0x382bd63e	4.0969106e-05
62	0x3727ac5e	9.994108e-06
63	0x2acc6df4	3.6313975e-13
64	0x39960835	0.00028616344
65	0x39a28499	0.0003099784
66	0x3808d38c	3.2621945e-05
67	0x2bcd1ebd	1.4574658e-12
68	0x38b26817	8.50709e-05
69	0x3946cc58	0.00018958875
70	0x391d39e4	0.00014994253
71	0x2aa64054	2.953216e-13
72	0x38585b31	5.158334e-05
73	0x398810f8	0.00025952584
74	0x359dab55	1.1747276e-06
75	0x2ab43413	3.2010557e-13
76	0x38125192	3.488508e-05
77	0x389b5ca9	7.408235e-05
78	0x3810bbba	3.450711e-05
79	0x2af6e3f0	4.3856542e-13
80	0x38b9e3e5	8.863936e-05
81	0x3b8e939d	0.004351093
82	0x377367b3	1.4508073e-05
83	0x288ba53c	1.5503759e-14
84	0x39a964d3	0.00032309312
85	0x3a77774f	0.00094400806
86	0x39b6f7dd	0.00034898418
87	0x28a6c0ed	1.851337e-14
88	0x392146a3	0.0001538047
89	0x3aac0e0a	0.0013126743
90	0x385f13d1	5.31858e-05
91	0x2890bf59	1.6070195e-14
92	0x395161b0	0.00019968185
93	0x39b6dfa0	0.0003488036
94	0x395fb92b	0.00021335918
95	0x2a03dd50	1.171192e-13
96	0x3856cb06	5.1210656e-05
97	0x3b0ad5b4	0.0021184506
98	0x371e7792	9.4453735e-06
99	0x28b68db8	2.026752e-14
100	0x3930d3a2	0.00016863507
101	0x3a07e326	0.0005183689
102	0x39391dd2	0.00017654084
103	0x25ae0881	3.018995e-16
104	0x3961806e	0.00021505516
105	0x3ac53459	0.0015045508
106	0x389bc3d0	7.427449e-05
107	0x2b3f6811	6.800125e-13
108	0x398c8566	0.0002680227
109	0x398c95fd	0.0002681463
110	0x3998ab54	0.0002911935
111	0x2b3d95cf	6.735419e-13
112	0x39921022	0.0002785931
113	0x3794bb89	1.7730303e-05
114	0x389ca367	7.469096e-05
115	0x29defe47	9.9028905e-14
116	0x39010181	0.00012302959
117	0x37bc5ef9	2.2455572e-05
118	0x38fa3814	0.00011931374
119	0x2b17b459	5.389626e-13
120	0x34d42280	3.951318e-07
121	0x3a37f658	0.0007017604
122	0x38086351	3.2517422e-05
123	0x2b98df58	1.086224e-12
124	0x385a96bb	5.211563e-05
125	0x394246da	0.00018527676
126	0x38962ffa	7.161494e-05
127	0x2b89f54f	9.802522e-13
128	0x37b058e8	2.1022235e-05
129	0x3aad9506	0.0013243265
130	0x36093838	2.0447314e-06
131	0x29859a5d	5.933164e-14
132	0x38ba2041	8.875179e-05
133	0x39ab4e86	0.00032674166
134	0x38c7b5a1	9.5228905e-05
135	0x2abb1dcd	3.323855e-13
136	0x37da1464	2.599712e-05
137	0x3b106d08	0.0022037644
138	0x33fb8a45	1.17132494e-07
139	0x2b3c940f	6.699649e-13
140	0x391df1eb	0.00015062808
141	0x3a040e13	0.00050374976
142	0x392148bc	0.00015381252
143	0x2bbe2384	1.351017e-12
144	0x36d90f36	6.4688747e-06
145	0x39c27f57	0.0003709744
146	0x33f824c6	1.1555089e-07
147	0x2a7e98c5	2.2612734e-13
148	0x37c1a975	2.3086302e-05
149	0x38ba01af	8.869485e-05
150	0x37c90124	2.3961598e-05
151	0x2b04e27f	4.7210147e-13
152	0x3a0f88ae	0.0005475384
153	0x3780768b	1.531399e-05
154	0x390f6c8c	0.0001367798
155	0x29962007	6.666894e-14
156	0x397b77ff	0.00023981927
157	0x3806d427	3.2145672e-05
158	0x397cd778	0.00024112861
159	0x260355ff	4.55663e-16
160	0x38742401	5.8207665e-05
161	0x398f8cea	0.00027380075
162	0x31f6ea15	7.1861543e-09
163	0x2b4d282d	7.2886386e-13
164	0x3805fbe3	3.194426e-05
165	0x38d7b787	0.000102861835
166	0x37eddcf0	2.8355484e-05
167	0x2b174706	5.374454e-13
168	0x38a43423	7.8298406e-05
169	0x3b86e5eb	0.004116764
170	0x37908b60	1.723104e-05
171	0x2b803e5e	9.112257e-13
172	0x39a3b407	0.00031223914
173	0x3a7dd7b3	0.0009683326
174	0x39b237a5	0.00033992264
175	0x29baca27	8.295127e-14
176	0x29317023	3.9399158e-14
177	0x2d648432	1.2989653e-11
178	0x2e833d3d	5.9680684e-11
179	0x2b1492c7	5.2783857e-13
180	0x2c337302	2.5501272e-12
181	0x2c730d58	3.4539784e-12
182	0x2e4f9fcd	4.7208282e-11
183	0x27addcc3	4.8256496e-15
184	0x3887201f	6.443285e-05
185	0x3982f7f5	0.00024980275
186	0x37b20608	2.1222062e-05
187	0x2aaf5e47	3.1151663e-13
188	0x385a1fe0	5.2004936e-05
189	0x38c23e30	9.262224e-05
190	0x38656225	5.468926e-05
191	0x2abc41e4	3.344123e-13
192	0x34e8cbfd	4.3361788e-07
193	0x3a91e45c	0.0011130678
194	0x37f58fb7	2.9273198e-05
195	0x29b6490c	8.095095e-14
196	0x38adb896	8.283665e-05
197	0x39803a62	0.0002445756
198	0x38ec804f	0.00011277256
199	0x290692e5	2.9881388e-14
200	0x38b2ae10	8.520123e-05
201	0x3a4ca37d	0.0007806344
202	0x381b3397	3.7002927e-05
203	0x2a853284	2.3660598e-13
204	0x390607ec	0.00012782187
205	0x393c9068	0.00017982873
206	0x39018315	0.0001235123
207	0x298ee298	6.3453745e-14
208	0x38010909	3.076441e-05
209	0x390696ac	0.00012835365
210	0x34387f29	1.7182596e-07
211	0x27fd92ea	7.038089e-15
212	0x374b6a4f	1.2124495e-05
213	0x38626c0c	5.3983225e-05
214	0x3750f35f	1.245443e-05
215	0x278078eb	3.5658236e-15
216	0x37bef116	2.276203e-05
217	0x38ba2622	8.876274e-05
218	0x35e3f109	1.6982968e-06
219	0x2641f2ff	6.7289647e-16
220	0x375a5c35	1.3015281e-05
221	0x382f993f	4.1865973e-05
222	0x36f81e47	7.3945007e-06
223	0x29668f80	5.1194726e-14
224	0x368a08cb	4.113744e-06
225	0x3910ba10	0.00013802224
226	0x37460112	1.1801969e-05
227	0x24a9849e	7.351673e-17
228	0x372956b4	1.0093372e-05
229	0x385b9eda	5.236161e-05
230	0x37740db3	1.4546723e-05
231	0x29720e43	5.3747164e-14
232	0x37801441	1.526822e-05
233	0x39967718	0.0002869896
234	0x37498b5f	1.20129835e-05
235	0x2919cb23	3.4149018e-14
236	0x37cc59bb	2.4360479e-05
237	0x38ca5a64	9.648947e-05
238	0x37ce9d0c	2.4630244e-05
239	0x29b567d5	8.056027e-14
240	0x37b7c3dc	2.1906504e-05
241	0x3aa4ca84	0.0012572561
242	0x3635dd8d	2.7100061e-06
243	0x28be3a3a	2.111949e-14
244	0x38ab71e9	8.175133e-05
245	0x399e7276	0.00030221388
246	0x38b6a9aa	8.710039e-05
247	0x2b4e1226	7.321109e-13
248	0x3989fbf7	0.00026318405
249	0x3bf71c15	0.0075411894
250	0x38852f29	6.3507185e-05
251	0x29946f34	6.591811e-14
252	0x3a24e828	0.00062906975
253	0x3b0056f2	0.0019583073
254	0x3a227bdb	0.00061982655
255	0x2be26d2a	1.6088565e-12

exp_avg f4 [64]
0	0xbb01e49c	-0.00198201
1	0xbb166649	-0.002294915
2	0x80000000	-0.0
3	0x39b08b5f	0.00033673175
4	0xbb095834	-0.0020957114
5	0x3b88517a	0.0041601034
6	0x3afb82c7	0.0019188755
7	0xb9033a54	-0.00012514862
8	0x3ad5733b	0.0016284952
9	0xbaf961e3	-0.0019026365
10	0x3b7e020a	0.003875854
11	0xbba47c28	-0.0050196834
12	0x3b4bfa0b	0.003112438
13	0xbbb8706a	-0.005628635
14	0x3b5759a9	0.0032859838
15	0xbb3dab0c	-0.0028941063
16	0x3ad2c0e8	0.0016079219
17	0x3b091728	0.0020918343
18	0x3a11b9d0	0.0005558999
19	0x3b89d484	0.004206242
20	0xbaeabeaf	-0.0017909611
21	0x3b8fc4d1	0.004387476
22	0xb03179f2	-6.456552e-10
23	0xbb40a309	-0.0029394052
24	0xbb3f8b57	-0.002922734
25	0xbb6e0c23	-0.0036323152
26	0xba8e8f5e	-0.0010876467
27	0xba16e912	-0.0005756776
28	0xba9cc8b2	-0.0011961667
29	0xba97905f	-0.0011563412
30	0x3aadae58	0.0013250811
31	0x3bed5022	0.0072422186
32	0x3a34cf2d	0.00068973267
33	0xbb22d395	-0.002484535
34	0xbae535a3	-0.0017487298
35	0xbb053461	-0.002032541
36	0xba8fd910	-0.0010974724
37	0xbaf214a3	-0.0018469285
38	0x3a93f58d	0.001128839
39	0xbb25ed7e	-0.0025318558
40	0xba0bab33	-0.000532794
41	0xb8cd3318	-9.784679e-05
42	0x3a22c2fa	0.00062088633
43	0x3a697a4f	0.000890647
44	0xba35aa9f	-0.00069300266
45	0x80000000	-0.0
46	0x395eb6cf	0.00021239671
47	0xbaa3d2a8	-0.0012498694
48	0x3b838d6a	0.0040146606
49	0x3b22c340	0.0024835616
50	0x3aa16d06	0.0012315817
51	0xbae0a337	-0.0017138486
52	0xbaa4875f	-0.0012552551
53	0x80000000	-0.0
54	0xbabb62e9	-0.0014296445
55	0xb801a7b8	-3.0912197e-05
56	0xba4001f4	-0.000732451
57	0xba6b46db	-0.0008975097
58	0x381045e6	3.4397373e-05
59	0xb9f181c8	-0.00046063797
60	0x3b1e329d	0.0024139055
61	0xbb0fe31a	-0.0021955431
62	0x3b813872	0.0039434964
63	0x3a9fd006	0.0012192733

exp_avg_sq f4 [64]
0	0x3aacf3da	0.0013195232
1	0x39aff385	0.00033560037
2	0x288a7c41	1.5374964e-14
3	0x390c5b69	0.00013385493
4	0x3ac5b8c1	0.0015084968
5	0x3b0dc5b6	0.0021632737
6	0x3aa9e21e	0.0012961065
7	0x39201e79	0.00015270141
8	0x3a5ac86d	0.0008345906
9	0x39be6dc8	0.00036321417
10	0x3b9bcbb1	0.0047545065
11	0x3b050321	0.0020296054
12	0x3b1d2c66	0.0023982762
13	0x3b232a71	0.0024897123
14	0x3a0fc8dc	0.00054849475
15	0x3a5da131	0.00084545003
16	0x3ab9112c	0.0014119498
17	0x3b162103	0.002290786
18	0x39c27bac	0.00037094706
19	0x3a872797	0.0010311481
20	0x39c51435	0.00037589823
21	0x3b97f850	0.0046377555
22	0x2e9301a4	6.6850775e-11
23	0x39f7ce6e	0.00047265313
24	0x3aa49bdb	0.0012558656
25	0x3a9bd13f	0.0011887922
26	0x393fad03	0.00018279631
27	0x38fb650d	0.00011987435
28	0x3937981f	0.0001750891
29	0x39b7af18	0.00035034935
30	0x3aabbcf1	0.0013102574
31	0x3c115f5d	0.008872834
32	0x39f24436	0.00046208658
33	0x3a9401ab	0.0011292001
34	0x39acf416	0.00032988255
35	0x3a44c21c	0.0007505731
36	0x39118b29	0.00013880119
37	0x393cd8af	0.00018009798
38	0x39f91cb1	0.00047514358
39	0x3979eefe	0.00023835522
40	0x38ee413b	0.000113608745
41	0x39221282	0.00015456419
42	0x37a31d33	1.9444711e-05
43	0x39d06071	0.00039744706
44	0x391810e8	0.00014502148
45	0x2b413bf1	6.865056e-13
46	0x39610cfb	0.00021462508
47	0x39cf8285	0.0003957936
48	0x3a690100	0.00088883936
49	0x39eabc8d	0.0004477244
50	0x399f1cdc	0.00030348345
51	0x3a950d58	0.0011371775
52	0x38ecddb4	0.00011294652
53	0x282f91bd	9.746053e-15
54	0x394fb597	0.00019808706
55	0x396235f6	0.00021573142
56	0x38e5fe88	0.00010966981
57	0x38b17f73	8.463757e-05
58	0x39a50026	0.00031471363
59	0x38bcdb57	9.005394e-05
60	0x3aec010f	0.0018005687
61	0x3a0b4701	0.00053130096
62	0x3a3c7330	0.0007188795
63	0x384d5888	4.895826e-05

exp_avg f4 [1, 4]
0	0x3d363107	0.04448035
1	0xbd29a3f3	-0.04141612
2	0xbb33cc50	-0.0027435012
3	0x1c3e8f11	6.3050636e-22

exp_avg_sq f4 [1, 4]
0	0x3dbe4b44	0.092916995
1	0x3de53a42	0.111927524
2	0x3c361283	0.011112812
3	0x2d7ff0ec	1.4548567e-11

exp_avg f4 [64, 128]
0	0x378d9a20	1.688028e-05
1	0x38af92d7	8.372001e-05
2	0x80000000	-0.0
3	0x388e306a	6.7801055e-05
4	0x3725854c	9.865802e-06
5	0x380b76cd	3.3250824e-05
6	0x383e85ea	4.5424247e-05
7	0x388a1ac6	6.58534e-05
8	0x37e804a7	2.7658722e-05
9	0x38774d85	5.8961585e-05
10	0x38ee8778	0.000113739574
11	0x38a7c459	7.999753e-05
12	0x38549e56	5.06922e-05
13	0x3854c7ec	5.073093e-05
14	0x3864bc12	5.453459e-05
15	0x3761037a	1.34118545e-05
16	0x38aadeb6	8.147715e-05
17	0x3878456c	5.919246e-05
18	0x3891b3ac	6.947605e-05
19	0x38770bd7	5.8900416e-05
20	0x38053ba7	3.1765227e-05
21	0x390100d0	0.00012302701
22	0x00000000	0.0
23	0x38a0cc6a	7.6674696e-05
24	0x37c308b4	2.3249864e-05
25	0x38b1f888	8.48631e-05
26	0x38522f07	5.01117e-05
27	0x37c55e9b	2.3528284e-05
28	0x3800a488	3.067081e-05
29	0x37ad0517	2.0625577e-05
30	0x38dde1f4	0.00010580188
31	0x38bfe084	9.149409e-05
32	0x38a25587	7.740693e-05
33	0x37baefe3	2.2284634e-05
34	0x387a874a	5.9730643e-05
35	0x381483a6	3.5408557e-05
36	0x38952f6b	7.113706e-05
37	0x388e7a11	6.793824e-05
38	0x37033a57	7.821792e-06
39	0x386e5f81	5.6832567e-05
40	0x37896204	1.6377315e-05
41	0x380ca9fa	3.3536904e-05
42	0x37a57a1b	1.9726393e-05
43	0x37de1d81	2.6478201e-05
44	0x386ec1a8	5.692398e-05
45	0x00000000	0.0
46	0x38955544	7.1207556e-05
47	0x342621c0	1.5472233e-07
48	0x38411299	4.6032106e-05
49	0x3842cccd	4.644394e-05
50	0x389de080	7.52816e-05
51	0x37be575e	2.2690449e-05
52	0x38d6776a	0.00010226558
53	0x80000000	-0.0
54	0x38ca5ad7	9.649031e-05
55	0x38aabff5	8.1419865e-05
56	0x39049c9a	0.0001264684
57	0x386c3bba	5.632241e-05
58	0x37eb6842	2.8062732e-05
59	0x3686b8ab	4.0150094e-06
60	0x38595fc8	5.1826035e-05
61	0x37ffe748	3.0506068e-05
62	0x382567ef	3.943586e-05
63	0x3849e238	4.8132817e-05
64	0xb5870f44	-1.0062727e-06
65	0xb80a9c2b	-3.3047207e-05
66	0x80000000	-0.0
67	0xb89de3e8	-7.528794e-05
68	0xb568515a	-8.6545117e-07
69	0xb798967b	-1.8189885e-05
70	0xb835d043	-4.334772e-05
71	0xb8672772	-5.5111428e-05
72	0xb7b5d7ce	-2.1677373e-05
73	0xb7406a4e	-1.1468843e-05
74	0xb8a09b85	-7.658362e-05
75	0xb7eaedb9	-2.8005672e-05
76	0xb84e2f0c	-4.9158043e-05
77	0xb8765cd2	-5.8737416e-05
78	0xb81fc8af	-3.8095455e-05
79	0xb738bab4	-1.1010725e-05
80	0xb88209a8	-6.200682e-05
81	0xb84b2dff	-4.844181e-05
82	0xb84034a6	-4.58254e-05
83	0xb84ac3d3	-4.834293e-05
84	0xb766e0a8	-1.3761375e-05
85	0xb889e86d	-6.575962e-05
86	0x00000000	0.0
87	0xb84770a2	-4.7550195e-05
88	0xb73a6e8a	-1.1112201e-05
89	0xb866dc72	-5.504158e-05
90	0xb81e604b	-3.7759815e-05
91	0xb7b85b95	-2.1977155e-05
92	0xb78af1cc	-1.6563477e-05
93	0xb5d72428	-1.6029271e-06
94	0xb8c6724b	-9.4626645e-05
95	0xb8820bb4	-6.201063e-05
96	0xb80ea8ca	-3.4012635e-05
97	0xb6b49c3a	-5.382605e-06
98	0xb7a042e3	-1.9104633e-05
99	0xb787e33a	-1.6199065e-05
100	0xb8848d17	-6.3205305e-05
101	0xb7f0e366	-2.871612e-05
102	0xb50c025c	-5.21575e-07
103	0xb77b9b25	-1.4996888e-05
104	0xb7c6ba46	-2.369018e-05
105	0xb6fba1d4	-7.499222e-06
106	0xb75f26b2	-1.3300845e-05
107	0xb7ecf097	-2.8245426e-05
108	0xb80e6b88	-3.3955585e-05
109	0x80000000	-0.0
110	0xb863973a	-5.4261858e-05
111	0xb69bb129	-4.639984e-06
112	0xb7c316fd	-2.3256516e-05
113	0xb82eb762	-4.165562e-05
114	0xb88a8744	-6.605548e-05
115	0x35b4630c	1.3439872e-06
116	0xb86c9ae8	-5.6411052e-05
117	0x00000000	0.0
118	0xb86530ef	-5.4643428e-05
119	0xb803c7c6	-3.1418887e-05
120	0xb8c4aa7c	-9.3777635e-05
121	0xb81b9244	-3.70911e-05
122	0xb829f0d0	-4.0517014e-05
123	0xb60917fb	-2.042855e-06
124	0xb7c93990	-2.3987872e-05
125	0xb7afc8c8	-2.0955122e-05
126	0xb7ab7ae6	-2.0442018e-05
127	0xb8264cbd	-3.9648952e-05
128	0x3a462990	0.0007559294
129	0x3aec5c95	0.0018032963
130	0x80000000	-0.0
131	0xb7ba2a96	-2.2192758e-05
132	0x3a5f595c	0.00085200905
133	0xb771573e	-1.4385032e-05
134	0x39fb2dfe	0.00047908718
135	0x3a812d8a	0.0009855491
136	0xb78550ea	-1.5892514e-05
137	0x3af55576	0.0018717486
138	0x39878f79	0.00025856102
139	0x3aa786bf	0.0012781246
140	0x3a058a83	0.0005094187
141	0x3a443aea	0.00074855855
142	0xb7468ece	-1.1834969e-05
143	0x3a85e86e	0.0010216364
144	0x3a74ea9b	0.000934282
145	0x3a263847	0.00063407834
146	0x3a84c49a	0.0010129393
147	0xb7b891e0	-2.2002438e-05
148	0x3a5ac936	0.0008346023
149	0x3a74fdcd	0.00093456806
150	0x8a1d560b	-7.575458e-33
151	0x3ae35aaa	0.0017345746
152	0x3a7715fa	0.0009425577
153	0x3a8a66f2	0.0010559245
154	0x3a6d8def	0.0009061982
155	0x3a21d075	0.0006172725
156	0x3a71bb53	0.0009221334
157	0x3a1aec7b	0.0005909872
158	0x39fc2624	0.00048093603
159	0x39a6479d	0.00031715343
160	0x3a9fe092	0.0012197664
161	0x3a665bc8	0.000878748
162	0x3afb67b7	0.001918069
163	0x3a94d4de	0.0011354943
164	0x3842a84e	4.640995e-05
165	0x3aaf5e78	0.0013379594
166	0xb4e357cb	-4.2345923e-07
167	0x3a8ef95b	0.0010908054
168	0x3a395b43	0.0007070789
169	0x3a8bcbe7	0.0010665626
170	0xb5f23bfc	-1.8047863e-06
171	0x3a4f8eec	0.00079177204
172	0x3aaf60be	0.0013380272
173	0x00000000	0.0
174	0x3ab1f077	0.0013575692
175	0x39c8be13	0.0003828859
176	0xb7235c98	-9.737116e-06
177	0xb7a949f2	-2.0180803e-05
178	0xb7b4c124	-2.154761e-05
179	0x3aaa4ca9	0.0012992817
180	0x3acd6ab4	0.0015672059
181	0x00000000	0.0
182	0x3acdb84a	0.0015695181
183	0x3aa7a0c8	0.0012789005
184	0x3a8e0c14	0.001083734
185	0x3aa39385	0.0012479877
186	0x39f1b390	0.00046100887
187	0x3988a2b1	0.00026061156
188	0x3a18c1a8	0.0005827197
189	0x3ac533a6	0.00150453
190	0xb6ca514c	-6.0295333e-06
191	0xb70356a7	-7.828384e-06
192	0xba3ca500	-0.0007196218
193	0xbaded880	-0.0017001778
194	0x80000000	-0.0
195	0x3757eb62	1.2869803e-05
196	0xba50ca51	-0.0007964718
197	0xb686850d	-4.0090003e-06
198	0xb9ce1c9b	-0.00039312695
199	0xba7b7887	-0.000959285
200	0x366777ca	3.4491409e-06
201	0xbae8ec14	-0.0017770552
202	0xb96c7615	-0.00022550703
203	0xba9a37be	-0.001176588
204	0xba031232	-0.0004999965
205	0xba393ebc	-0.0007066538
206	0xb6d1ac7c	-6.248765e-06
207	0xba73dc1d	-0.0009302514
208	0xba5cb3ff	-0.00084191555
209	0xba1e2d03	-0.0006033929
210	0xba81028c	-0.0009842678
211	0xb69b0f70	-4.621157e-06
212	0xba5388ce	-0.0008069397
213	0xba6aca00	-0.0008956492
214	0x00000000	0.0
215	0xbad18fb8	-0.0015988266
216	0xba59c920	-0.0008307863
217	0xba898074	-0.0010490553
218	0xba563f6c	-0.0008172903
219	0xba23a73b	-0.0006242876
220	0xba5c3e25	-0.0008401594
221	0xba1a5d64	-0.000588855
222	0xb9df8474	-0.0004263256
223	0xb9c3c292	-0.00037338265
224	0xba966e63	-0.001147699
225	0xba66f7ff	-0.0008810758
226	0xbaf11899	-0.0018394171
227	0xba969cc7	-0.0011490815
228	0x3739eed8	1.1082469e-05
229	0xba9f4162	-0.0012150223
230	0xb7374814	-1.0924432e-05
231	0xba8370c3	-0.0010028112
232	0xba302119	-0.0006718799
233	0xba841541	-0.0010077135
234	0xb4e3bb38	-4.2418264e-07
235	0xba504adf	-0.0007945727
236	0xbaa77449	-0.0012775745
237	0x00000000	0.0
238	0xbaa6bfc8	-0.001272195
239	0xb9b3c28e	-0.00034286495
240	0xb6b893f2	-5.5008504e-06
241	0xb619fc40	-2.2945605e-06
242	0x3729b138	1.0114447e-05
243	0xbaa0561e	-0.0012232696
244	0xbac784a4	-0.0015222025
245	0x80000000	-0.0
246	0xbac31e52	-0.0014886355
247	0xbaa1d4cc	-0.0012346744
248	0xba829c73	-0.0009964838
249	0xba94f090	-0.0011363197
250	0xb9d3d093	-0.00040400456
251	0xb976b07a	-0.00023526131
252	0xba16431b	-0.00057320454
253	0xbab6a1fb	-0.0013933772
254	0xb78da099	-1.6883294e-05
255	0xb55cc6c6	-8.224564e-07
