checkpoints/checkpoint_colors-3_332172_epoch300_seed0000111.pth.tar (torch_old, 111499 bytes, 18 tensors)

graph_layers.0.fc.0.weight f4 [64, 8]
0	0x3cb1e3a2	0.02171499
1	0x3ecf28fe	0.40460962
2	0x80000c83	-4.488e-42
3	0x80000eea	-5.35e-42
4	0x3d363f22	0.044493802
5	0xbc9e0151	-0.019287737
6	0x3e5e58a9	0.21713509
7	0x80000f20	-5.426e-42
8	0x3d802983	0.06257918
9	0x3e884871	0.26617768
10	0xbe992d35	-0.29917303
11	0x00002f0c	1.6877e-41
12	0x3dcedb5d	0.10100434
13	0xbe4785a5	-0.19484575
14	0xbc2ec191	-0.010666267
15	0x80001057	-5.862e-42
16	0x80000e76	-5.188e-42
17	0x80000c85	-4.491e-42
18	0x80000354	-1.194e-42
19	0x000009b6	3.484e-42
20	0x00000b79	4.116e-42
21	0x00000c82	4.487e-42
22	0x00000e89	5.214e-42
23	0x80000f53	-5.497e-42
24	0x3ee5f9de	0.44917196
25	0xbee4913d	-0.44642058
26	0xbd82de33	-0.063900374
27	0x80000ced	-4.637e-42
28	0xbe917a39	-0.2841356
29	0xbe0a88b9	-0.13528718
30	0xbea8f75d	-0.33001223
31	0x800006c5	-2.428e-42
32	0xbe28b250	-0.16474271
33	0x3e45e948	0.19327271
34	0xbdf09fe3	-0.11749246
35	0x00000f51	5.494e-42
36	0x3dc51a9b	0.09624215
37	0xbe682d04	-0.22673422
38	0xbd808e7e	-0.06277178
39	0x00000b75	4.11e-42
40	0xbd02ce97	-0.0319353
41	0xbeb463cc	-0.3523239
42	0xbdb82005	-0.08990482
43	0x80000c42	-4.397e-42
44	0x3deaa82b	0.11457857
45	0xbd92193d	-0.0713372
46	0x3c8223db	0.015886238
47	0x80000f87	-5.57e-42
48	0x3ea39a60	0.31953716
49	0xbe7c8b30	-0.24662471
50	0xbd8de0ec	-0.06927666
51	0x00000d2a	4.722e-42
52	0x3e847195	0.25867906
53	0xbec37810	-0.38177538
54	0xbeb513f0	-0.35366774
55	0x00000ce6	4.627e-42
56	0xbdf28e84	-0.11843589
57	0xbd89c5c1	-0.06727172
58	0x3e35d90d	0.1775858
59	0x0000107b	5.912e-42
60	0xbe8cc310	-0.2749257
61	0xbeaac9b9	-0.33357027
62	0xbc203973	-0.009779322
63	0x00000e0c	5.039e-42
64	0x3e896aab	0.26839194
65	0xbe56d479	-0.2097949
66	0xbd7d39da	-0.06182275
67	0x00000d8d	4.861e-42
68	0x3dac884c	0.08424434
69	0xbe108407	-0.14112864
70	0xbe09d5a5	-0.13460405
71	0x00000f05	5.388e-42
72	0xbc9a63d0	-0.018846422
73	0x3ee19265	0.44057003
74	0xbeb79120	-0.3585291
75	0x00000eea	5.35e-42
76	0x3db2563b	0.087078534
77	0xbe5a2f40	-0.21307087
78	0xbe0ab90a	-0.1354715
79	0x80001084	-5.925e-42
80	0x3e95d478	0.29263663
81	0xbe47a791	-0.19497515
82	0x3de0eb18	0.109823406
83	0x0000082e	2.934e-42
84	0x3df17544	0.11789945
85	0x3e37267e	0.17885777
86	0xbd954679	-0.07288832
87	0x80000c37	-4.382e-42
88	0xbe35dd9d	-0.1776032
89	0x3ebfcbb6	0.37460107
90	0xbe02919b	-0.12750857
91	0x00000ebe	5.289e-42
92	0xbd533867	-0.05156746
93	0x3e8fc89d	0.28082743
94	0xbdcf6f5f	-0.10128664
95	0x80000d81	-4.844e-42
96	0x3b238a1c	0.0024954146
97	0xbe2cc6c9	-0.16872706
98	0x3d23fdf3	0.040037107
99	0x80000e2e	-5.087e-42
100	0xbe36b70f	-0.17843269
101	0xbe4d4080	-0.20044136
102	0xbd20b1f4	-0.03923221
103	0x00003045	1.7316e-41
104	0x3e2f886f	0.17141889
105	0x3edbe520	0.42948246
106	0x3e36ff83	0.17870907
107	0x00000fda	5.686e-42
108	0xbecc3dc1	-0.39890864
109	0x3e4e043d	0.20118804
110	0xbd476c05	-0.048687
111	0x00000deb	4.993e-42
112	0x3e84521c	0.25843894
113	0xbe8a5844	-0.27020466
114	0x3e47cd77	0.19511972
115	0x80000c7d	-4.48e-42
116	0x3d4a7ed2	0.04943735
117	0xbcee6c79	-0.029104458
118	0x3e8e673c	0.27813137
119	0x00000cda	4.61e-42
120	0xbe825c3e	-0.25461
121	0x3e8b8afe	0.2725448
122	0x3dc16ccb	0.09444579
123	0x00000f44	5.476e-42
124	0x3d071b5b	0.032985073
125	0xbe6cc577	-0.23122202
126	0xbe8c2ac1	-0.2737637
127	0x80001015	-5.769e-42
128	0x3ea4cb86	0.32186526
129	0x3d7bbe83	0.061460983
130	0xbe90a432	-0.2825027
131	0x00000a54	3.705e-42
132	0x3d952b41	0.07283641
133	0xbc715d43	-0.014731708
134	0xbe818c79	-0.25302485
135	0x80000e6f	-5.178e-42
136	0x3edd723b	0.43251213
137	0x3e81db14	0.25362456
138	0xbe044381	-0.12916376
139	0x80000d34	-4.736e-42
140	0xbe87093a	-0.26374227
141	0x3c91c78b	0.017795345
142	0x3d03864d	0.0321105
143	0x00000d34	4.736e-42
144	0x3e865a55	0.26240793
145	0x3d7cc473	0.061710786
146	0xbe4cadc4	-0.19988161
147	0x80000d2d	-4.727e-42
148	0xbd96d89d	-0.073655345
149	0xbe4813c3	-0.19538788
150	0x3dc2959b	0.09501191
151	0x800010a2	-5.967e-42
152	0x3d415312	0.047198363
153	0xbee32d25	-0.4437038
154	0x3dcb2490	0.09919083
155	0x00000eba	5.283e-42
156	0xbe29b59a	-0.16573182
157	0xbe3c9d91	-0.18419482
158	0xbe1a9bc3	-0.15098481
159	0x0000019a	5.75e-43
160	0x3e19e87f	0.15030096
161	0x3ea75a6f	0.32686183
162	0xbd428c06	-0.047496818
163	0x80000e83	-5.206e-42
164	0xbd1ceccc	-0.038311765
165	0xbd8cdd10	-0.06878102
166	0x3e202f32	0.15643004
167	0x00000e2f	5.088e-42
168	0x3eebe984	0.46076596
169	0xbd529c78	-0.05141875
170	0x3e81e4ac	0.25369775
171	0x00000f68	5.527e-42
172	0x3ea386fc	0.31938922
173	0xbe0abb9a	-0.13548127
174	0x3e3b6f41	0.18304159
175	0x80000faf	-5.626e-42
176	0xb262a1fc	-1.3191762e-08
177	0xbc61598b	-0.013754259
178	0xa1d9eb6f	-1.4766811e-18
179	0x80000e2a	-5.081e-42
180	0x3a021615	0.0004962397
181	0x3beef279	0.0072920886
182	0x3a2b7701	0.0006540865
183	0x8000066b	-2.302e-42
184	0xbe8ccbd8	-0.2749927
185	0x3e888cb3	0.26669845
186	0xbe2bf0f3	-0.16791134
187	0x00000ec2	5.294e-42
188	0xbdbb2faf	-0.09139954
189	0xbd810aba	-0.06300874
190	0xbeb177d8	-0.34661746
191	0x00000ea8	5.258e-42
192	0xbed49537	-0.41520092
193	0x3e6a67c8	0.22891152
194	0xbe380637	-0.17971121
195	0x00000b0d	3.964e-42
196	0x3dc208f5	0.09474365
197	0x3dce3eb9	0.10070557
198	0xbe5f61cb	-0.21814649
199	0x80000e19	-5.057e-42
200	0xbe412c50	-0.1886456
201	0x3e7edc72	0.2488878
202	0x3e560bdb	0.2090296
203	0x00000be6	4.268e-42
204	0xbed97cd8	-0.4247806
205	0x3e00950d	0.12556858
206	0x3da9d2ab	0.08292135
207	0x80000f97	-5.593e-42
208	0x3e59800b	0.21240251
209	0x3ea6d935	0.3258759
210	0xbe0fcced	-0.14043017
211	0x000006f7	2.499e-42
212	0xbd839d05	-0.064264335
213	0x3da37de2	0.079829946
214	0xbe54149e	-0.2071099
215	0x00000307	1.086e-42
216	0xbbb29b70	-0.0054506585
217	0x3d22f465	0.039783854
218	0xbe00965d	-0.12557359
219	0x800032b8	-1.8194e-41
220	0xbea43ca8	-0.32077527
221	0xbe136a1d	-0.14395948
222	0x3e19e701	0.15029527
223	0x00000c6a	4.453e-42
224	0xbea9ae99	-0.3314102
225	0x3d1eb432	0.038746066
226	0x3df4857f	0.11939525
227	0x80001b5d	-9.816e-42
228	0xbc8b14a5	-0.016977618
229	0xbe560775	-0.20901282
230	0xbdf4bbde	-0.11949895
231	0x80000d69	-4.81e-42
232	0xbe292205	-0.16516884
233	0x3d9fca61	0.078022726
234	0x3dd9c4a7	0.106332116
235	0x00000bd0	4.238e-42
236	0x3d7c8597	0.06165084
237	0xbddb5f8f	-0.10711586
238	0x3e91c159	0.28467825
239	0x00000f57	5.503e-42
240	0x3eb7ec40	0.35922432
241	0xbdaec1dd	-0.0853307
242	0x3d0fb0dc	0.035080776
243	0x00000a5c	3.716e-42
244	0xbe2bfbc0	-0.16795254
245	0x3d619a82	0.05507899
246	0xbe85130a	-0.25991088
247	0x80000f4d	-5.489e-42
248	0x3f047f3a	0.5175663
249	0x3e1d1da3	0.15343337
250	0x3ed9fa65	0.42573848
251	0x00000e59	5.147e-42
252	0xbe088f31	-0.13335873
253	0xbd76b33c	-0.060229525
254	0x3dfdba12	0.12389006
255	0x80000e0c	-5.039e-42

graph_layers.0.fc.0.bias f4 [64]
0	0xbd4e3542	-0.05034376
1	0x3ec69d40	0.38791847
2	0x80000ecf	-5.312e-42
3	0x3c72e207	0.014824397
4	0xbc03cffa	-0.008045191
5	0x3e8770f2	0.26453358
6	0x3e08a96d	0.13345881
7	0x3e638049	0.22216906
8	0x3cb694c8	0.022287741
9	0x3e552c77	0.20817743
10	0x3ed93c1e	0.42428678
11	0x3eaa90ea	0.33313686
12	0x3e6073e1	0.21919204
13	0xbd472ace	-0.048624806
14	0x3e63f19a	0.22260132
15	0xbd9a4020	-0.07531762
16	0x3e8b3a59	0.27192953
17	0x3c0413f3	0.008061397
18	0x3e84e4c4	0.25955784
19	0x3df8600d	0.12127695
20	0x3be34b5c	0.006936474
21	0x3ee8c081	0.4545937
22	0xbc508d71	-0.012729035
23	0x3eaf3378	0.34218955
24	0x3e2d6389	0.16932501
25	0x3e85be24	0.26121628
26	0x3d4aad1e	0.049481504
27	0x3dee3afb	0.116323434
28	0x3e347a00	0.17624664
29	0x3e3873e7	0.18012963
30	0x3e7441aa	0.23853174
31	0xbc3cd543	-0.011525455
32	0x3e83aea2	0.25719172
33	0x3b2d40a5	0.0026436236
34	0x3e544159	0.20728053
35	0x3e1d39af	0.15354036
36	0x3e9d874f	0.30767295
37	0x3da56731	0.08076323
38	0xbe230ca4	-0.15922791
39	0x3ea5a827	0.32354853
40	0xbe72a8ab	-0.23697154
41	0x3e970a27	0.29499933
42	0xbe42f0f5	-0.1903723
43	0xbe1dd53c	-0.15413374
44	0x3e7e49a6	0.24832782
45	0x80000ecc	-5.308e-42
46	0x3e67400e	0.22583029
47	0xbe5928e8	-0.21207011
48	0x3da7ebaa	0.08199246
49	0xbdb662e6	-0.08905582
50	0x3d5d17b1	0.053977672
51	0x3ec379f1	0.3817897
52	0x3e63aec4	0.22234637
53	0x80000de3	-4.982e-42
54	0x3e962c0b	0.29330477
55	0x3ec737e4	0.3890983
56	0x3eb2851d	0.34867182
57	0x3e66557a	0.22493544
58	0xbe2b6ea8	-0.16741431
59	0x3d92f8a5	0.071763314
60	0x3e86953f	0.2628574
61	0x3d72ffe3	0.059326064
62	0xbde9b573	-0.11411562
63	0xbdb2a5bb	-0.08723017

graph_layers.1.proj.weight f4 [1, 4]
0	0xbf08060a	-0.53134215
1	0x4083e1a1	4.1212926
2	0xbfbbf420	-1.4683876
3	0x22e766d7	6.272156e-18

graph_layers.2.fc.0.weight f4 [64, 128]
0	0xbd893301	-0.06699181
1	0xbdb7c3f8	-0.08972925
2	0x80000a7f	-3.765e-42
3	0xbe028c27	-0.12748776
4	0xbceda794	-0.029010572
5	0x3d1e2d2c	0.038617298
6	0xbd688877	-0.056770768
7	0xbbf4a5b9	-0.0074660447
8	0xbcce25ae	-0.025164451
9	0xbd8239b1	-0.0635866
10	0xbdfbf99f	-0.12303471
11	0xbd8938fa	-0.067003205
12	0xbda0f8f0	-0.07859981
13	0xbe6d7b2d	-0.23191519
14	0xbd43505f	-0.04768407
15	0xbd8786f5	-0.06617538
16	0xbe0f054d	-0.13966866
17	0xbe1e0cf5	-0.1543463
18	0xbd80e68f	-0.062939756
19	0x3d849e19	0.06475467
20	0xbd960780	-0.07325649
21	0xbe267d67	-0.16258775
22	0x0000121d	6.498e-42
23	0xbdcdec0b	-0.10054787
24	0xbda615ae	-0.08109604
25	0xbd9f04c3	-0.0776458
26	0xbe009023	-0.12554984
27	0xbdccdbe3	-0.100028776
28	0xbc947487	-0.01812197
29	0xbcdad275	-0.026711682
30	0xbe0a1d54	-0.1348775
31	0xbcb797dc	-0.02241128
32	0xbca2e2da	-0.019883562
33	0x3c998801	0.01874161
34	0xbdef71a2	-0.116915956
35	0x3b415006	0.002949716
36	0xbd0456a0	-0.032309175
37	0xbd2e4cd0	-0.042553723
38	0x3c9b562b	0.018961987
39	0xbdad6985	-0.08467392
40	0xbd05a79b	-0.032630544
41	0xbd4e8244	-0.0504172
42	0x3cd94971	0.026524277
43	0xbd4a33c9	-0.049365792
44	0xbe1cee55	-0.15325291
45	0x00000bcb	4.23e-42
46	0xbdceac20	-0.10091424
47	0x3bcfecfb	0.006345389
48	0x3a5d4206	0.0008440319
49	0x3d17cd5a	0.037061073
50	0x3d279759	0.04091582
51	0xbdf059a2	-0.11735846
52	0x3a78af10	0.00094865356
53	0x80000b06	-3.954e-42
54	0xbe195609	-0.14974226
55	0xbd4cb58b	-0.04997782
56	0xbc8f2744	-0.017474778
57	0xbd9f6a99	-0.07784004
58	0xbe02cc8c	-0.12773341
59	0xbd0e2909	-0.034707103
60	0xbdb83070	-0.08993614
61	0xbd9a021a	-0.07519932
62	0x3c2d96d2	0.01059504
63	0x3d2919aa	0.04128424
64	0xbbf25071	-0.0073948433
65	0x3cadb949	0.021206515
66	0x80002f6f	-1.7016e-41
67	0x3d45cc4b	0.048290532
68	0xbb9e524e	-0.004831589
69	0x3b449a13	0.0029999062
70	0xbce09f54	-0.027419724
71	0xbad4b3bc	-0.0016227881
72	0x3c1fdab8	0.009756736
73	0x3d7de168	0.061982542
74	0x3db20c58	0.08693761
75	0x3d85717a	0.065157846
76	0x3c8aae9b	0.016928962
77	0xbd7769ae	-0.06040352
78	0x3c5c4bec	0.013445836
79	0xbc6325dd	-0.013864008
80	0xb9203336	-0.00015277867
81	0x3c186f99	0.009303951
82	0xbcfcf721	-0.030879559
83	0x3b97f777	0.0046376544
84	0xbcca35a3	-0.02468378
85	0x3daabc88	0.08336741
86	0x80000b4a	-4.05e-42
87	0x3aff1c27	0.0019463346
88	0xbd3556b3	-0.044272136
89	0x3d3244a4	0.043522492
90	0xbd27cedf	-0.040968772
91	0x3c045654	0.008077223
92	0x3c8ed04d	0.01743331
93	0x3cb21e90	0.021743089
94	0x3d33c0f7	0.043885197
95	0x3d69dd33	0.057095718
96	0x3d9a9f58	0.07549924
97	0x3d4c93c1	0.049945597
98	0x3cdf2657	0.027239962
99	0xbcb15b3c	-0.02164995
100	0x3da82d37	0.08211749
101	0x3d88f539	0.066873975
102	0xbabe25d7	-0.0014507127
103	0xba722658	-0.0009237281
104	0x3ccecd39	0.025244342
105	0x3d5bc145	0.053651113
106	0x3c34e4a8	0.011040844
107	0x3c809f5b	0.015700987
108	0xbcf504b4	-0.02990947
109	0x80000d30	-4.731e-42
110	0xbc61a613	-0.013772505
111	0xbc880cd6	-0.016607683
112	0x3d434eb6	0.047682486
113	0x3cfb38ca	0.030666728
114	0x3cd05e22	0.025435511
115	0x3c99b4ed	0.01876303
116	0xbcc74927	-0.024326874
117	0x000004b7	1.691e-42
118	0x3d013d02	0.031552322
119	0xbc55ea93	-0.013056415
120	0x3d75dd2a	0.06002537
121	0x3cd84a5e	0.026402649
122	0x3d61ce91	0.055128638
123	0x3be12f2b	0.006872078
124	0x3d1a00ef	0.037598547
125	0xbbc98c16	-0.0061507327
126	0x3cc04afe	0.023473259
127	0x3d0c1227	0.034197
128	0x3e8c48ef	0.27399394
129	0x3e2eadc1	0.1705847
130	0x80000d91	-4.867e-42
131	0xbe813543	-0.25235948
132	0x3e3d66ec	0.18496293
133	0xbe0da5fe	-0.13832852
134	0xbe1a54b6	-0.15071377
135	0x3e091af9	0.13389196
136	0xbe219f03	-0.15783314
137	0x3d115d30	0.03548926
138	0xbd4b8915	-0.04969128
139	0x3e78ff6f	0.2431619
140	0x3db7311c	0.08944914
141	0x3e947fd6	0.2900378
142	0xbdeab19e	-0.11459659
143	0x3e14bcbf	0.14525126
144	0x3e1d3ec9	0.15355982
145	0x3e6ffed4	0.23437053
146	0x3dd2037f	0.10254573
147	0xbe5f9b2f	-0.21836542
148	0x3e581d13	0.21104841
149	0x3d7db323	0.061938416
150	0xb5d1e91e	-1.563956e-06
151	0x3e5e135b	0.21687071
152	0x3e8d8246	0.27638453
153	0x3de85e9a	0.11346169
154	0x3e588b83	0.2114697
155	0x3e49a054	0.19690067
156	0x3e65fea7	0.22460423
157	0x3d963c4a	0.07335718
158	0x3ce871a7	0.028374506
159	0xbea3f59e	-0.3202333
160	0x3da84077	0.08215421
161	0x3e41b021	0.18914844
162	0x3e20d9af	0.1570804
163	0x3d8e430c	0.06946382
164	0xbe537943	-0.20651726
165	0x3e55bb8c	0.20872325
166	0xbb42a669	-0.002970124
167	0x3e66b56e	0.22530147
168	0x3e41fbbf	0.1894369
169	0x3e370202	0.1787186
170	0xbc5c056c	-0.013429027
171	0x3dbb16fa	0.09135242
172	0x3d133bcc	0.0359457
173	0x000002db	1.024e-42
174	0x3d15d11b	0.03657637
175	0x3d9b3ee6	0.07580356
176	0xbdbc32dc	-0.09189388
177	0xbe4c2c15	-0.19938691
178	0xbe56c9c6	-0.20975408
179	0x3e380d9a	0.17973939
180	0x3e423821	0.18966724
181	0x000009bd	3.493e-42
182	0x3e52faca	0.20603481
183	0x3d8ba59c	0.06818697
184	0x3e1aaeac	0.15105695
185	0x3d6a80bf	0.057251688
186	0x3d9eeb5d	0.07759736
187	0x3c15f141	0.009151758
188	0x3de6ee2d	0.11275897
189	0x3e2417c5	0.16024692
190	0xbd33fcf5	-0.04394241
191	0xbd48d919	-0.049035165
192	0x3d31db50	0.043422043
193	0x3d70328c	0.058641955
194	0x80000a96	-3.798e-42
195	0x3e0594a4	0.13044983
196	0xbdc2e275	-0.095158495
197	0xbd2c7fd5	-0.042114098
198	0x3dcd99a6	0.10039072
199	0x3ca4c7f4	0.020114876
200	0x3ce59ac2	0.028027896
201	0xbd853cdb	-0.06505748
202	0xbc0b188f	-0.008489742
203	0x3b553a99	0.0032536148
204	0xbd602bb2	-0.05472917
205	0xbc8d50f9	-0.017250525
206	0xbd4a2c79	-0.04935882
207	0xbd624759	-0.055243824
208	0xbd5af17f	-0.053452965
209	0x3d70e764	0.05881442
210	0x3cdfd6fe	0.027324196
211	0xbd1fdf5b	-0.039031368
212	0x3a6b215b	0.0008969509
213	0xbc30deb9	-0.010795289
214	0x327efe5c	1.48425805e-08
215	0xbcb98012	-0.022644076
216	0xbc8411e9	-0.016121821
217	0xbddca4d3	-0.10773625
218	0x3d3224ea	0.043492235
219	0xbcf8968d	-0.030345226
220	0x3d7604ff	0.06006336
221	0xbdb477f1	-0.088119395
222	0x3d269cb1	0.040676776
223	0xbd3140d0	-0.0432747
224	0xbb5847e4	-0.0033001835
225	0xbd0919e9	-0.033471975
226	0x3d1eb85d	0.03875004
227	0x3b96c8c6	0.004601571
228	0x3ec562a4	0.3855182
229	0xbc1fc82f	-0.009752317
230	0xbdc4590e	-0.09587298
231	0x3d05421c	0.03253375
232	0xbd14a141	-0.036286596
233	0x3d45e0c8	0.04831007
234	0x3b0653cd	0.0020496727
235	0x3d1f3fb0	0.038879097
236	0x3b5c77c5	0.0033640724
237	0x00000983	3.412e-42
238	0xbd4cb3d3	-0.04997618
239	0x3d7cd2d2	0.06172449
240	0xbd389a71	-0.04506916
241	0xbc56c8fb	-0.013109441
242	0x3ddad9b9	0.106860586
243	0x3ce9d1ca	0.028542418
244	0xbd341f3e	-0.043975107
245	0x800008b6	-3.125e-42
246	0xbdc3b02a	-0.09555085
247	0xbd84fad0	-0.06493151
248	0xbcd4b040	-0.025962949
249	0xbc45555a	-0.012044275
250	0x3e001e6a	0.12511602
251	0x3cfa4bb4	0.030553676
252	0xbc1069ad	-0.008814258
253	0xbc2569b9	-0.010096007
254	0xbe1b435b	-0.15162413
255	0x3a8adec3	0.0010594953

graph_layers.2.fc.0.bias f4 [64]
0	0x3e01fdb3	0.12694435
1	0xbe7ce926	-0.24698314
2	0x3e8affd1	0.27148297
3	0x3dca974f	0.09892141
4	0xb1c0d97d	-5.612661e-09
5	0x3de8bba2	0.11363913
6	0x3dfafbf7	0.1225509
7	0x3ddb27f8	0.10700983
8	0x3b971715	0.004610906
9	0x3e7555f9	0.23958577
10	0x3e1d0373	0.15333347
11	0xbd41a93b	-0.04728053
12	0x3e089f12	0.1334193
13	0x3df64818	0.120254695
14	0xbd16c7e1	-0.036811713
15	0x3e3cd89d	0.18442006
16	0x3dede111	0.11615194
17	0x3de2261b	0.11042424
18	0xbd8d1c00	-0.06890106
19	0x3e93bcf6	0.28855103
20	0x3e0b0504	0.13576132
21	0xbc445ce0	-0.011985034
22	0x3e0722c0	0.1319685
23	0x3dbd1795	0.092330135
24	0x3d669fcf	0.05630475
25	0x3e242428	0.16029418
26	0x3e13dcf5	0.14439757
27	0xbcf20d20	-0.029547274
28	0x3e2af1d4	0.16693813
29	0x3ae7ce08	0.0017685303
30	0xbda98171	-0.08276642
31	0xbd29d903	-0.041466724
32	0xbd3829dc	-0.044961795
33	0x3dbda8d8	0.0926072
34	0xbb05af94	-0.0020398842
35	0x3dfe73c3	0.124244235
36	0x3db7bfcf	0.089721315
37	0x3e12dd0e	0.14342138
38	0x80000e1d	-5.063e-42
39	0x3c29ee82	0.010371806
40	0xa306d156	-7.308483e-18
41	0x3e167b48	0.14695466
42	0x3e0d6c7f	0.13810919
43	0x3ac00aed	0.0014651694
44	0x3dc6a81c	0.09700033
45	0x3e27c100	0.16382217
46	0x3da09a95	0.07841984
47	0xba15dc67	-0.00057167414
48	0x3dc9b12e	0.098482475
49	0x3e008a7f	0.12552832
50	0x80000cb0	-4.551e-42
51	0x9f565d36	-4.5393365e-20
52	0xbd24b367	-0.040210154
53	0x3dd7c15f	0.105349295
54	0xb28a95a5	-1.6133365e-08
55	0xad61da6a	-1.2838267e-11
56	0x3e91e4ec	0.28494966
57	0x80000e1d	-5.063e-42
58	0x3ea324e7	0.31864092
59	0x3e0edd7a	0.13951674
60	0x80000e53	-5.139e-42
61	0x800007e9	-2.838e-42
62	0xbd8d6c74	-0.069054514
63	0x3d96e282	0.07367422

fc.0.weight f4 [1, 64]
0	0xbdfed4d8	-0.124429405
1	0xbf3efad7	-0.746015
2	0x3f0c732c	0.5486324
3	0x3dfd0e5f	0.12356257
4	0x2e9e8594	7.2087364e-11
5	0x3e18b46e	0.14912578
6	0x3e31f319	0.1737789
7	0xbdd4eebc	-0.103970975
8	0xbddd5505	-0.10807232
9	0x3e85b5c8	0.2611525
10	0x3deb8e89	0.11501796
11	0xbe76b169	-0.24091114
12	0x3e459394	0.19294578
13	0xbe4ce6f8	-0.20009983
14	0xbe8bc167	-0.27295992
15	0x3db7f365	0.08981971
16	0x3e136f52	0.14397934
17	0x3ddaf2bc	0.10690829
18	0xbe8cfc5a	-0.2753628
19	0x3efcb3b1	0.49355844
20	0xbe07cd62	-0.13261941
21	0x3e19f252	0.15033844
22	0x3e41cd86	0.18926057
23	0xbe144e63	-0.14483027
24	0xbe0f8653	-0.14016084
25	0x3e2bda69	0.16782536
26	0x3e1563fe	0.14588925
27	0xbe26a409	-0.16273512
28	0x3dea6212	0.11444487
29	0xbd182cec	-0.037152216
30	0xbe834b37	-0.25643322
31	0xbe2f4f06	-0.17119989
32	0xbe1e6a98	-0.1547035
33	0x3dc47089	0.09591777
34	0x3b527313	0.0032112047
35	0xbe4de687	-0.2010747
36	0xbdc61071	-0.09671105
37	0x3e4016b7	0.18758665
38	0xb41beb7c	-1.4521169e-07
39	0xbd640fcc	-0.055679128
40	0x00000ed4	5.32e-42
41	0x3dca8c11	0.09889997
42	0x3e2c3f11	0.16820933
43	0xbdeb6289	-0.114934035
44	0xbd894ae1	-0.06703735
45	0x3df0324b	0.117283426
46	0x3e37c262	0.17945245
47	0x80000e19	-5.057e-42
48	0x3e1f26c9	0.15542139
49	0xbe0fa2d0	-0.14026952
50	0xb4f35ca0	-4.532967e-07
51	0x00000f9a	5.597e-42
52	0xbe8fd044	-0.28088582
53	0xbe0d85f0	-0.13820624
54	0x3a8722d5	0.0010310063
55	0x00001024	5.79e-42
56	0xbef3faa5	-0.47652164
57	0x80000b88	-4.137e-42
58	0xbf083df8	-0.53219557
59	0xbe02418b	-0.12720315
60	0x0000057e	1.97e-42
61	0xb4e98a2f	-4.3500174e-07
62	0xbe862d12	-0.2620626
63	0xbe053ccc	-0.13011473

exp_avg f4 [64, 8]
0	0x3611ba46	2.171511e-06
1	0xbb120b7a	-0.0022284673
2	0x80000000	-0.0
3	0x80000000	-0.0
4	0x3970d829	0.0002296871
5	0x3a96f0e8	0.0011515887
6	0x39eccac3	0.00045164497
7	0x80000000	-0.0
8	0xbb3d8f08	-0.0028924365
9	0xba2787d0	-0.0006390782
10	0x37bd2978	2.2549866e-05
11	0x00000000	0.0
12	0x3ab877ea	0.0014073823
13	0x398ddb56	0.00027057034
14	0x3a9dd200	0.0012040734
15	0x80000000	-0.0
16	0x80000000	-0.0
17	0x80000000	-0.0
18	0x80000000	-0.0
19	0x00000000	0.0
20	0x00000000	0.0
21	0x00000000	0.0
22	0x00000000	0.0
23	0x80000000	-0.0
24	0x3a620752	0.00086223066
25	0x38648490	5.4482894e-05
26	0xb8ac39da	-8.212375e-05
27	0x80000000	-0.0
28	0xb927d01c	-0.00016003888
29	0xb7b53860	-2.1603133e-05
30	0xb9e5dee8	-0.00043844362
31	0x80000000	-0.0
32	0xb78a3294	-1.6474434e-05
33	0xbb246a4a	-0.0025087767
34	0xb7452318	-1.1750286e-05
35	0x00000000	0.0
36	0x3998c04f	0.0002913498
37	0x3aa41a96	0.001252013
38	0x39ecb5d8	0.00045148912
39	0x00000000	0.0
40	0x3bdd452c	0.0067526307
41	0xb93e9edd	-0.00018178993
42	0xb94d8c08	-0.00019602489
43	0x80000000	-0.0
44	0xbb472d78	-0.0030392092
45	0x3937fe81	0.0001754705
46	0xbb2a772f	-0.002601098
47	0x80000000	-0.0
48	0x3acfea90	0.0015862752
49	0x3ad8a8d7	0.001652981
50	0xb858752a	-5.160753e-05
51	0x00000000	0.0
52	0xba2d7508	-0.0006616865
53	0xba912fbd	-0.0011076849
54	0xba9b2d43	-0.001183905
55	0x00000000	0.0
56	0xba3ba09b	-0.0007157416
57	0x39fe712b	0.00048530972
58	0x37cfb499	2.476042e-05
59	0x00000000	0.0
60	0x39858f87	0.00025474673
61	0xb9b7ddf2	-0.00035069842
62	0x3935182c	0.0001727051
63	0x00000000	0.0
64	0x3b76aa93	0.0037638291
65	0x39d6ccac	0.00040969753
66	0xb8763596	-5.8700876e-05
67	0x00000000	0.0
68	0xbac9c6b4	-0.0015394301
69	0xb9beb001	-0.00036370757
70	0xbadbfeee	-0.0016784349
71	0x00000000	0.0
72	0xbb4d3f91	-0.0031318406
73	0xba908790	-0.0011026729
74	0xb8311f84	-4.222944e-05
75	0x00000000	0.0
76	0x3acfe0e4	0.0015859869
77	0x3a06f52c	0.0005148228
78	0x3ab78207	0.0014000543
79	0x80000000	-0.0
80	0x3a79b802	0.00095260155
81	0x3b9ca498	0.0047803633
82	0xb8bffe37	-9.154941e-05
83	0x00000000	0.0
84	0xba469e85	-0.0007576722
85	0xbb2e744f	-0.0026619618
86	0xbac0d61f	-0.001471225
87	0x80000000	-0.0
88	0xbba6746d	-0.005079797
89	0xbb0eb3e5	-0.0021774706
90	0x38da6ace	0.00010414944
91	0x00000000	0.0
92	0x3b26a4b4	0.002542776
93	0x3a959c05	0.0011414295
94	0x3b18692e	0.0023256051
95	0x80000000	-0.0
96	0x3ac5fc50	0.0015105102
97	0x3b3592bc	0.0027705869
98	0xb82cf775	-4.1238458e-05
99	0x80000000	-0.0
100	0xba8eb52d	-0.0010887735
101	0xbadb8f32	-0.001675105
102	0xba9f43d0	-0.0012150947
103	0x00000000	0.0
104	0xbbba4a67	-0.005685139
105	0xbb0a055d	-0.0021060326
106	0x392c7c6c	0.00016449549
107	0x00000000	0.0
108	0x3b2d5b29	0.002645204
109	0x3a70c2b3	0.0009184286
110	0x3b205696	0.0024465672
111	0x00000000	0.0
112	0x3ba41161	0.0050069545
113	0xb7cc4203	-2.4349434e-05
114	0xb91b32fe	-0.00014800948
115	0x80000000	-0.0
116	0xbb120366	-0.0022279858
117	0xb6fb0fe6	-7.4822337e-06
118	0xbafa029a	-0.0019074262
119	0x00000000	0.0
120	0x37fc2b7e	3.0060994e-05
121	0xbafa73f2	-0.0019108041
122	0x38e150d1	0.00010743889
123	0x00000000	0.0
124	0x39628080	0.0002160091
125	0x3a63d7ee	0.0008691539
126	0x39572d6c	0.00020520919
127	0x80000000	-0.0
128	0x37d5fb4e	2.5508602e-05
129	0x3b113ab8	0.0022160243
130	0xb80cd1d0	-3.3574004e-05
131	0x00000000	0.0
132	0xb99aff49	-0.0002956337
133	0xbab168bb	-0.001353524
134	0xba11625c	-0.0005545968
135	0x80000000	-0.0
136	0x3a03760e	0.0005014845
137	0x3b370d07	0.002793135
138	0xb77065c8	-1.43288125e-05
139	0x80000000	-0.0
140	0xba2ebd21	-0.00066657556
141	0xbae25240	-0.0017266944
142	0xba5717fd	-0.00082051737
143	0x00000000	0.0
144	0xb9b3f0a5	-0.00034320835
145	0x3a8fc9a4	0.0010970128
146	0xb7a1ab8b	-1.9272577e-05
147	0x80000000	-0.0
148	0x375577d0	1.2723685e-05
149	0xba341a28	-0.00068703527
150	0xb8ed5121	-0.00011316152
151	0x80000000	-0.0
152	0x3be830e0	0.0070859045
153	0xb8399ab7	-4.4251527e-05
154	0xb95b1daf	-0.00020896526
155	0x00000000	0.0
156	0xbb548396	-0.0032427064
157	0xb79c4d08	-1.863252e-05
158	0xbb346903	-0.0027528412
159	0x00000000	0.0
160	0xbb391496	-0.002824103
161	0xba63e77e	-0.0008693858
162	0xb69f6aff	-4.7510252e-06
163	0x80000000	-0.0
164	0x3aa1eb71	0.0012353492
165	0x39a3f757	0.00031274065
166	0x3aabfb60	0.001312118
167	0x00000000	0.0
168	0x3af5fbb8	0.0018767035
169	0x3b8791fd	0.004137276
170	0xb82a2880	-4.0568877e-05
171	0x00000000	0.0
172	0xbaae3524	-0.0013290984
173	0xbb20b2f4	-0.0024520727
174	0xbad2ba90	-0.0016077328
175	0x80000000	-0.0
176	0xabba5b6e	-1.3241472e-12
177	0xb5b8a510	-1.3757108e-06
178	0x9b344046	-1.4910019e-22
179	0x80000000	-0.0
180	0x3355535c	4.9668742e-08
181	0x3543d215	7.294887e-07
182	0x338c956c	6.546438e-08
183	0x80000000	-0.0
184	0xbb602ec8	-0.0034207571
185	0xba81de36	-0.0009908143
186	0x387b08f4	5.98514e-05
187	0x00000000	0.0
188	0x3ada17b4	0.0016639144
189	0x39ee13e2	0.0004540971
190	0x3abbe2ca	0.0014334556
191	0x00000000	0.0
192	0x384584f0	4.7092268e-05
193	0xbb0c1c60	-0.0021379218
194	0x36ca97e0	6.0377497e-06
195	0x00000000	0.0
196	0x398a4a58	0.00026376802
197	0x3a6b6ae8	0.0008980469
198	0x39345044	0.00017196039
199	0x80000000	-0.0
200	0xbb6f436f	-0.00365087
201	0xbaba0bb5	-0.0014194163
202	0x38e4ac90	0.000109040295
203	0x00000000	0.0
204	0x3ade8cb0	0.0016979184
205	0x3a2b92b7	0.00065449945
206	0x3adf59ee	0.0017040351
207	0x80000000	-0.0
208	0xbb2727c2	-0.0025505875
209	0xb9028729	-0.00012448117
210	0xb7037034	-7.834333e-06
211	0x00000000	0.0
212	0x3a94090a	0.0011294198
213	0xb871982c	-5.76006e-05
214	0x3a707a4c	0.0009173497
215	0x00000000	0.0
216	0xba5c82fa	-0.0008411851
217	0x38d6bec4	0.00010239848
218	0xb72b34d6	-1.0204696e-05
219	0x80000000	-0.0
220	0x397ab2c9	0.0002390846
221	0xb92da602	-0.00016560408
222	0x398dcdf2	0.00027047057
223	0x00000000	0.0
224	0xb79fca87	-1.9048586e-05
225	0xba3c88a9	-0.0007191995
226	0x38b020ad	8.39842e-05
227	0x80000000	-0.0
228	0x383ff508	4.576615e-05
229	0x397f73db	0.00024361855
230	0x388c2f28	6.684504e-05
231	0x80000000	-0.0
232	0xb6c1dd0d	-5.777582e-06
233	0xba56a808	-0.0008188491
234	0x389c9019	7.4655e-05
235	0x00000000	0.0
236	0x389d5d7c	7.503756e-05
237	0x39c077f4	0.00036710466
238	0x391de9d8	0.000150598
239	0x00000000	0.0
240	0xb9fc56ce	-0.0004812986
241	0x3b29b83c	0.0025897166
242	0xb823cba9	-3.90519e-05
243	0x00000000	0.0
244	0x371fc510	9.523021e-06
245	0xbac1f5f5	-0.0014798032
246	0xb9e9417e	-0.0004449002
247	0x80000000	-0.0
248	0x3b90e130	0.0044213757
249	0x3bea1c66	0.0071444986
250	0xb91cf161	-0.0001496724
251	0x00000000	0.0
252	0xbb33e815	-0.0027451564
253	0xbb866a16	-0.004102002
254	0xbb526308	-0.0032102484
255	0x80000000	-0.0

exp_avg_sq f4 [64, 8]
0	0x37608881	1.3383223e-05
1	0x3ac0f219	0.0014720588
2	0x2a152332	1.3246069e-13
3	0x2a4c7766	1.8160264e-13
4	0x38ae4e10	8.311507e-05
5	0x39e35e2b	0.00043366975
6	0x38b6428f	8.690834e-05
7	0x2aa85ee4	2.9908638e-13
8	0x3875a7e2	5.8568905e-05
9	0x396e8372	0.00022746416
10	0x369fe02a	4.7646654e-06
11	0x2399822b	1.6643422e-17
12	0x38011c0f	3.078213e-05
13	0x38cc6928	9.747065e-05
14	0x38087da1	3.2541928e-05
15	0x2bbeb888	1.355153e-12
16	0x2b6b535f	8.360447e-13
17	0x29603bbe	4.978981e-14
18	0x2743b248	2.7158333e-15
19	0x2908546b	3.0271287e-14
20	0x28cee58b	2.2970143e-14
21	0x29064d93	2.9821262e-14
22	0x2b2a5a38	6.0521336e-13
23	0x2b15096e	5.294852e-13
24	0x38a571c6	7.889005e-05
25	0x36dcd19b	6.580912e-06
26	0x370a9154	8.259278e-06
27	0x29d512cf	9.462363e-14
28	0x3806ee52	3.2170043e-05
29	0x36a8cd7a	5.030711e-06
30	0x37fa54f0	2.9841874e-05
31	0x287ac7a4	1.3921078e-14
32	0x36867e68	4.008227e-06
33	0x3aed0e96	0.0018086012
34	0x33590795	5.0531145e-08
35	0x2acf1794	3.6786947e-13
36	0x38e008df	0.00010682805
37	0x39e82efb	0.00044285491
38	0x38f445be	0.00011647817
39	0x289a5952	1.7136171e-14
40	0x3a39131a	0.00070600363
41	0x3a3391a0	0.0006850008
42	0x38a2bfa1	7.7604556e-05
43	0x2a67ca69	2.0587147e-13
44	0x398f67af	0.00027352336
45	0x39f18605	0.00046066954
46	0x399c7b37	0.0002984644
47	0x2aac2234	3.057707e-13
48	0x393d635d	0.0001806146
49	0x3a9f854c	0.0012170463
50	0x3798e2df	1.8225457e-05
51	0x2b7ec85d	9.051699e-13
52	0x38b26a30	8.5074804e-05
53	0x39edcec6	0.0004535822
54	0x395bbb5b	0.00020955263
55	0x2b86f813	9.590127e-13
56	0x36bcd489	5.627579e-06
57	0x39347f43	0.00017213546
58	0x35052f18	4.961489e-07
59	0x2a6866f5	2.064146e-13
60	0x3739762a	1.10543715e-05
61	0x382a8a4a	4.065995e-05
62	0x373e1b18	1.1331191e-05
63	0x2acc6df4	3.6313975e-13
64	0x399a92b9	0.00029482486
65	0x39a24d75	0.00030956758
66	0x37b7ca1f	2.190942e-05
67	0x2bcd1ebd	1.4574658e-12
68	0x38acedf3	8.2459206e-05
69	0x39480f0a	0.00019079089
70	0x3915414a	0.0001423407
71	0x2aa64054	2.953216e-13
72	0x3876b105	5.8815833e-05
73	0x39c6b64d	0.00037901328
74	0x359e084a	1.177433e-06
75	0x2ab43413	3.2010557e-13
76	0x384514a5	4.6987687e-05
77	0x38cefa66	9.869486e-05
78	0x38480f9f	4.7698264e-05
79	0x2af6e3f0	4.3856542e-13
80	0x38bd34b2	9.0220376e-05
81	0x3beecebc	0.0072878283
82	0x372c375d	1.0264889e-05
83	0x288ba53c	1.5503759e-14
84	0x3a0622d5	0.0005116885
85	0x3ac50fdf	0.0015034637
86	0x3a0f055a	0.00054558145
87	0x28a6c0ed	1.851337e-14
88	0x39323228	0.00016994087
89	0x3abfcb77	0.0014632781
90	0x37b383ce	2.139984e-05
91	0x2890bf59	1.6070195e-14
92	0x394a02fd	0.00019265334
93	0x39c3024b	0.00037195007
94	0x39561db1	0.00020419691
95	0x2a03dd50	1.171192e-13
96	0x38611cc9	5.367099e-05
97	0x3b2d40cb	0.0026436325
98	0x36d0cd2c	6.222768e-06
99	0x28b68db8	2.026752e-14
100	0x39542c22	0.00020234336
101	0x3a222945	0.0006185959
102	0x395dc019	0.00021147764
103	0x25ae0881	3.018995e-16
104	0x39780adb	0.00023655167
105	0x3abaa833	0.0014240801
106	0x37cd98f8	2.4509136e-05
107	0x2b3f6811	6.800125e-13
108	0x3972e58b	0.0002316443
109	0x397abfd3	0.00023913318
110	0x39840b95	0.0002518563
111	0x2b3d95cf	6.735419e-13
112	0x399db7c5	0.00030082293
113	0x37a235bd	1.9336929e-05
114	0x3800d21d	3.071326e-05
115	0x29defe47	9.9028905e-14
116	0x38e06ee3	0.000107018066
117	0x37c684ca	2.3665274e-05
118	0x38cc7bb9	9.750523e-05
119	0x2b17b459	5.389626e-13
120	0x34c0281f	3.579198e-07
121	0x3a6e05b1	0.00090798276
122	0x371167de	8.666857e-06
123	0x2b98df58	1.086224e-12
124	0x3864f3e1	5.4586566e-05
125	0x396d99a1	0.00022659313
126	0x3890292b	6.874123e-05
127	0x2b89f54f	9.802522e-13
128	0x37ae3cea	2.0770782e-05
129	0x3ae6d54a	0.0017611173
130	0x35d3bd91	1.5775896e-06
131	0x29859a5d	5.933164e-14
132	0x38f8cf18	0.00011864136
133	0x39d919cf	0.00041408694
134	0x38ff3fec	0.00012171254
135	0x2abb1dcd	3.323855e-13
136	0x37da0218	2.59886e-05
137	0x3b3d110e	0.0028849277
138	0x33ece4ef	1.1031249e-07
139	0x2b3c940f	6.699649e-13
140	0x394fdf30	0.00019824202
141	0x3a286024	0.00064230175
142	0x39549153	0.00020272033
143	0x2bbe2384	1.351017e-12
144	0x36d7cf37	6.4316223e-06
145	0x3a04d68f	0.0005067372
146	0x3397f221	7.0755284e-08
147	0x2a7e98c5	2.2612734e-13
148	0x3808f5db	3.2653898e-05
149	0x38f0202c	0.00011450084
150	0x38098f75	3.279695e-05
151	0x2b04e27f	4.7210147e-13
152	0x3a1b7f40	0.00059317425
153	0x377d0ad9	1.5082501e-05
154	0x3888f3be	6.530386e-05
155	0x29962007	6.666894e-14
156	0x3964ed1f	0.00021832109
157	0x38036239	3.132431e-05
158	0x395abc38	0.00020860217
159	0x260355ff	4.55663e-16
160	0x38805d4c	6.1208935e-05
161	0x399c8029	0.00029850125
162	0x31aa387b	4.9540723e-09
163	0x2b4d282d	7.2886386e-13
164	0x38123584	3.4858953e-05
165	0x38dfb48d	0.00010667099
166	0x38050df9	3.1722684e-05
167	0x2b174706	5.374454e-13
168	0x38aa1117	8.109415e-05
169	0x3bb53155	0.0055295625
170	0x371a4562	9.19527e-06
171	0x2b803e5e	9.112257e-13
172	0x39cfb785	0.0003961885
173	0x3aa30a8e	0.0012439059
174	0x39df5d4e	0.00042603392
175	0x29baca27	8.295127e-14
176	0x2df75aa3	2.81209e-11
177	0x321eccd2	9.243381e-09
178	0x2c972865	4.296163e-12
179	0x2b1492c7	5.2783857e-13
180	0x30060be2	4.87658e-10
181	0x3139080f	2.6925624e-09
182	0x301661a3	5.470843e-10
183	0x27addcc3	4.8256496e-15
184	0x38959377	7.132341e-05
185	0x39a93003	0.00032269963
186	0x36e866e5	6.9261173e-06
187	0x2aaf5e47	3.1151663e-13
188	0x385534aa	5.0832205e-05
189	0x38e31ca7	0.000108295404
190	0x385cf8d8	5.268384e-05
191	0x2abc41e4	3.344123e-13
192	0x35564463	7.982073e-07
193	0x3ab0042b	0.0013428977
194	0x37255996	9.855625e-06
195	0x29b6490c	8.095095e-14
196	0x38bd2a3b	9.020088e-05
197	0x3991777e	0.00027745584
198	0x38ec195a	0.00011258079
199	0x290692e5	2.9881388e-14
200	0x38bcb23a	8.997736e-05
201	0x3a467023	0.000756981
202	0x3774e3fb	1.4596614e-05
203	0x2a853284	2.3660598e-13
204	0x38eb667e	0.00011224764
205	0x39322bc6	0.0001699171
206	0x38d4443a	0.00010121656
207	0x298ee298	6.3453745e-14
208	0x38184f49	3.6313464e-05
209	0x39072f40	0.00012892205
210	0x34c2a3ba	3.6254443e-07
211	0x27fd92ea	7.038089e-15
212	0x375f6e7f	1.3317563e-05
213	0x3863467f	5.4186672e-05
214	0x3768401d	1.3843205e-05
215	0x278078eb	3.5658236e-15
216	0x37af6109	2.0906811e-05
217	0x38df0ba6	0.00010635638
218	0x35262dee	6.1906655e-07
219	0x2641f2ff	6.7289647e-16
220	0x374ffbb7	1.2396768e-05
221	0x383f68f0	4.563568e-05
222	0x3701459d	7.705207e-06
223	0x29668f80	5.1194726e-14
224	0x3689426e	4.0906516e-06
225	0x39381f26	0.00017559211
226	0x367a7fc1	3.7327266e-06
227	0x24a9849e	7.351673e-17
228	0x37295c06	1.0094611e-05
229	0x38808cbf	6.1297316e-05
230	0x37652e24	1.3660207e-05
231	0x29720e43	5.3747164e-14
232	0x378069ff	1.5308147e-05
233	0x39b34a18	0.00034196745
234	0x36e1b8db	6.7270425e-06
235	0x2919cb23	3.4149018e-14
236	0x37da82b6	2.6048492e-05
237	0x38e33234	0.000108335546
238	0x37d14b2b	2.4949744e-05
239	0x29b567d5	8.056027e-14
240	0x37b94709	2.2086797e-05
241	0x3b09dad7	0.002103498
242	0x361b7065	2.3162222e-06
243	0x28be3a3a	2.111949e-14
244	0x390f32b1	0.00013656427
245	0x39f7ab5a	0.00047239178
246	0x3913e5b8	0.0001410459
247	0x2b4e1226	7.321109e-13
248	0x3993ffc9	0.000282286
249	0x3c6a2581	0.014291168
250	0x3803bc5a	3.140825e-05
251	0x29946f34	6.591811e-14
252	0x3a8789ca	0.0010340747
253	0x3b63f691	0.0034784416
254	0x3a87c0a8	0.0010357099
255	0x2be26d2a	1.6088565e-12

exp_avg f4 [64]
0	0xbb1506c3	-0.0022739626
1	0xbb639d74	-0.00347313
2	0x80000000	-0.0
3	0x3a5cc638	0.0008421871
4	0xbb25bc0a	-0.0025289082
5	0x3bd34f7e	0.006448685
6	0x3b51c1ad	0.003200631
7	0xb93f8361	-0.00018264122
8	0x3b86eb0e	0.004117376
9	0xbb8baa45	-0.004262241
10	0x3bb9917e	0.005663096
11	0xbbe98788	-0.0071267523
12	0x3b8c103c	0.004274396
13	0xbbfc9ff5	-0.007709498
14	0x3b9e8c76	0.0048385216
15	0xbaeae422	-0.0017920772
16	0x3b11d27c	0.0022250703
17	0x3b536139	0.0032253994
18	0x3a4419df	0.0007480662
19	0x3be143e0	0.0068745464
20	0xbb752355	-0.0037405093
21	0x3bc30dbb	0.0059525645
22	0xb5aae136	-1.2731532e-06
23	0xbb8ce5ff	-0.0042998786
24	0xbb051ee6	-0.0020312606
25	0xbba298b0	-0.0049620494
26	0xbb321c16	-0.0027177385
27	0xba3ee6f2	-0.00072823383
28	0xba22596e	-0.00061931356
29	0xba4061bc	-0.00073387823
30	0x3b07280c	0.0020623235
31	0x3c393a2e	0.011305375
32	0x3a1ee3a3	0.0006061142
33	0xbb0be40c	-0.0021345643
34	0xbb79cd72	-0.003811684
35	0xbad3adbe	-0.0016149802
36	0xbab1fa90	-0.0013578702
37	0xbb36a01e	-0.0027866433
38	0x3a2bad4e	0.0006548957
39	0xbb862799	-0.004094076
40	0xba86e7df	-0.0010292492
41	0xba071052	-0.0005152273
42	0xb822a002	-3.877283e-05
43	0x3b02043d	0.0019838952
44	0xbaf2df48	-0.0018529678
45	0x80000000	-0.0
46	0x3946a2a2	0.00018943337
47	0xbad87eb2	-0.001651725
48	0x3bc28cc2	0.00593719
49	0x3b93128a	0.004488294
50	0x3b1f5ff4	0.0024318667
51	0xbb107da2	-0.002204754
52	0xbaef22bf	-0.0018244608
53	0x80000000	-0.0
54	0xbb12e72b	-0.002241562
55	0xb9487f42	-0.00019120894
56	0xba762fbc	-0.0009391268
57	0xbabac91f	-0.0014250613
58	0x3a167726	0.00057398004
59	0xbb10ad9e	-0.002207614
60	0x3b50042e	0.0031740773
61	0xbb8731f6	-0.004125829
62	0x3bbefcb2	0.0058284635
63	0x3afb2e97	0.0019163665

exp_avg_sq f4 [64]
0	0x3ac3e1dc	0.0014944631
1	0x39b545f2	0.00034575124
2	0x288a7c41	1.5374964e-14
3	0x3907ebc9	0.0001296244
4	0x3aefe9c5	0.0018303922
5	0x3b0449f4	0.002018568
6	0x3adde476	0.0016929049
7	0x392e60ba	0.00016629967
8	0x3a55faa6	0.00081626547
9	0x3a0735fe	0.0005157887
10	0x3bfb032c	0.00766029
11	0x3b0703da	0.002060166
12	0x3b3eab34	0.0029093744
13	0x3b0f6c52	0.0021884632
14	0x39f48db5	0.00046644887
15	0x3a799dae	0.00095220923
16	0x3af1a773	0.0018436745
17	0x3b44519a	0.0029955865
18	0x3a04fa36	0.0005072685
19	0x3a6e4643	0.00090894493
20	0x39d72ba1	0.00041040502
21	0x3bc432b5	0.00598749
22	0x3230c5db	1.02895354e-08
23	0x3a073372	0.0005157507
24	0x3ab58d50	0.0013851319
25	0x3a8a0b3a	0.001053191
26	0x394539c2	0.000188089
27	0x3909fdc5	0.00013159875
28	0x394e97e3	0.00019702273
29	0x39cba4a8	0.00038841856
30	0x3b0cb8ea	0.0021472522
31	0x3c7fbf25	0.015609537
32	0x39ed6acb	0.0004528373
33	0x3aa27119	0.0012393325
34	0x39e3c9fa	0.00043447298
35	0x3a5da8d1	0.00084556366
36	0x3927d845	0.00016006928
37	0x39363568	0.00017376768
38	0x39c24aaa	0.00037058193
39	0x39938b08	0.0002814161
40	0x38ea8568	0.00011182838
41	0x38ee8ddd	0.000113751485
42	0x377b8304	1.499127e-05
43	0x3a08d61c	0.0005219893
44	0x391d388a	0.00014993749
45	0x2b413bf1	6.865056e-13
46	0x3986c63e	0.00025706174
47	0x3a13d98b	0.00056400214
48	0x3a46c769	0.0007582815
49	0x39d149d5	0.00039918596
50	0x3996a166	0.0002873048
51	0x3ac214ec	0.0014807261
52	0x38ddab90	0.00010570057
53	0x282f91bd	9.746053e-15
54	0x394a6ff7	0.00019305931
55	0x398463f2	0.00025251467
56	0x393b1d62	0.00017844656
57	0x3891d585	6.95391e-05
58	0x39ef3c61	0.00045630618
59	0x39187f41	0.00014543255
60	0x3b15f9e2	0.0022884537
61	0x3a3b8ff1	0.0007154933
62	0x3a16d6e9	0.000575407
63	0x37cda7d2	2.4516052e-05

exp_avg f4 [1, 4]
0	0x3d92390c	0.07139787
1	0xbdcba5b6	-0.09943716
2	0x3ce76fd2	0.028251562
3	0x1c3e8f11	6.3050636e-22

exp_avg_sq f4 [1, 4]
0	0x3da81a8f	0.08208191
1	0x3e247c66	0.16063079
2	0x3c610df3	0.013736236
3	0x2d7ff0ec	1.4548567e-11

exp_avg f4 [64, 128]
0	0x378f38a8	1.7073311e-05
1	0x397bea94	0.00024024613
2	0x80000000	-0.0
3	0x39b44549	0.00034383897
4	0x371fdff0	9.529278e-06
5	0x38baf998	8.9156616e-05
6	0x396f278f	0.00022807553
7	0x38ee8c8a	0.00011374902
8	0x391d71a0	0.00015015015
9	0x3910fbd1	0.00013826719
10	0x39b1d75a	0.0003392052
11	0x39167780	0.00014349632
12	0x391a34be	0.00014706232
13	0x3924b186	0.00015706391
14	0x392f9363	0.00016744206
15	0x36954e8f	4.4496915e-06
16	0x39b13189	0.00033796977
17	0x3991fd37	0.00027845215
18	0x3991269c	0.0002768532
19	0x391c8294	0.00014925963
20	0x389b1419	7.3947194e-05
21	0x39b91fd0	0.00035309652
22	0x00000000	0.0
23	0x3914ff2c	0.00014209439
24	0x3794c932	1.7736664e-05
25	0x39072f03	0.00012892117
26	0x394f1ff8	0.00019752968
27	0x38cef05e	9.867617e-05
28	0x36884b4e	4.0618825e-06
29	0x37258922	9.866695e-06
30	0x39c4b617	0.000375197
31	0x39882a2c	0.00025971362
32	0x391c3516	0.00014897095
33	0x370ffb59	8.581986e-06
34	0x39229dfe	0.0001550838
35	0x3741cce4	1.1551401e-05
36	0x3988fd85	0.00026128828
37	0x390b2e5a	0.0001327334
38	0x358ff160	1.072458e-06
39	0x38f21bd5	0.00011544643
40	0x38bbc23e	8.953035e-05
41	0x3772c68a	1.447055e-05
42	0xb605cf0e	-1.9939066e-06
43	0x38f5d818	0.00011722761
44	0x39644d70	0.00021772622
45	0x00000000	0.0
46	0x39863a10	0.00025601732
47	0x369e3b60	4.715679e-06
48	0x390582cb	0.00012732593
49	0x38bda485	9.0428664e-05
50	0x393d5b26	0.000180584
51	0x37b96234	2.2099448e-05
52	0x394e5d86	0.00019680531
53	0x80000000	-0.0
54	0x3980b571	0.00024549247
55	0x3973abb3	0.00023238249
56	0x399c608f	0.0002982658
57	0x391fdd0c	0.00015245768
58	0x394828b2	0.00019088647
59	0x3800d379	3.0714527e-05
60	0x3923eba2	0.00015632671
61	0x38c6649d	9.4601164e-05
62	0x38e64d58	0.00010981661
63	0x38067cca	3.206431e-05
64	0xb5468d42	-7.3966305e-07
65	0xb91aacd1	-0.00014750964
66	0x80000000	-0.0
67	0xb9935084	-0.00028098014
68	0xb501bf70	-4.8334823e-07
69	0xb877913d	-5.9024653e-05
70	0xb92ac9d7	-0.00016287655
71	0xb8d3a0a6	-0.00010091187
72	0xb8e3d694	-0.00010864172
73	0xb886ec87	-6.4336746e-05
74	0xb97fb663	-0.0002438664
75	0xb8a06e38	-7.6499244e-05
76	0xb9052380	-0.00012697093
77	0xb91ca0a1	-0.00014937158
78	0xb909add2	-0.00013130091
79	0x349ee4d8	2.95963e-07
80	0xb97f5248	-0.00024349347
81	0xb96a284f	-0.00022330995
82	0xb9581d62	-0.00020610311
83	0xb8fbc08a	-0.00012004476
84	0xb84f24fc	-4.938709e-05
85	0xb97a9370	-0.00023896783
86	0x80000000	-0.0
87	0xb8be733b	-9.081369e-05
88	0xb654bed4	-3.1701538e-06
89	0xb8dd1faa	-0.00010543999
90	0xb919c6ce	-0.00014665278
91	0xb8c42a01	-9.353832e-05
92	0x3694a93f	4.4304466e-06
93	0x3661c4a4	3.3642073e-06
94	0xb99a5c65	-0.00029442008
95	0xb9503231	-0.00019855124
96	0xb8b0e0fc	-8.4342406e-05
97	0x369f4b92	4.747367e-06
98	0xb8c3adca	-9.330695e-05
99	0xb4dd8962	-4.1264417e-07
100	0xb957901e	-0.00020557686
101	0xb892c154	-6.997833e-05
102	0x33d3455c	9.8380696e-08
103	0xb85c2767	-5.2488784e-05
104	0xb8bb6cd8	-8.9371286e-05
105	0x36d7dc50	6.433147e-06
106	0x3612c553	2.1870553e-06
107	0xb8e92046	-0.00011116317
108	0xb91aa76d	-0.00014748955
109	0x80000000	-0.0
110	0xb94505fc	-0.00018789613
111	0xb6a78be8	-4.993275e-06
112	0xb8be8208	-9.084126e-05
113	0xb89f2103	-7.58786e-05
114	0xb9169607	-0.00014361004
115	0x35fbd88e	1.8763983e-06
116	0xb913d2ad	-0.00014097495
117	0x00000000	0.0
118	0xb9328e05	-0.00017028309
119	0xb91659ba	-0.0001433854
120	0xb96c8ca5	-0.00022559108
121	0xb8c99e01	-9.6138574e-05
122	0xb930c4fe	-0.00016858053
123	0xb77167d1	-1.4388891e-05
124	0xb8dfc896	-0.00010670831
125	0xb880d313	-6.142831e-05
126	0xb89f719a	-7.602871e-05
127	0xb7addc48	-2.0725784e-05
128	0x3a54d03a	0.00081181864
129	0x3afa4883	0.0019095097
130	0x80000000	-0.0
131	0xb7ccf866	-2.4434365e-05
132	0x3a59bad0	0.00083057303
133	0xb76918ea	-1.3893683e-05
134	0x3a05d4b1	0.0005105241
135	0x3a89bd3d	0.0010508668
136	0xb777f9f6	-1.4780546e-05
137	0x3b019521	0.0019772726
138	0x3989552c	0.00026194134
139	0x3ab65413	0.0013910554
140	0x3a0fc8bb	0.0005484928
141	0x3a5ae1e2	0.0008349699
142	0xb74040e6	-1.1459202e-05
143	0x3a81c7bf	0.0009901448
144	0x3a79db30	0.00095312577
145	0x3a40c92a	0.00073541945
146	0x3a90a04b	0.0011034099
147	0xb7b7318c	-2.1838372e-05
148	0x3a6b52c7	0.00089768734
149	0x3a832c3d	0.0010007691
150	0xaf2c6312	-1.5678506e-10
151	0x3aefe396	0.0018302079
152	0x3a6fac86	0.00091428345
153	0x3a9e1b24	0.0012062532
154	0x3a77d5a2	0.0009454136
155	0x3a36bfe9	0.0006971346
156	0x3a79f628	0.00095352763
157	0x3a2a7faa	0.0006504009
158	0x39feebd0	0.0004862235
159	0x39d817ff	0.0004121661
160	0x3aa5553a	0.00126139
161	0x3a7d3c9d	0.0009660216
162	0x3b0714f6	0.002061186
163	0x3aa77929	0.0012777197
164	0x37c723e2	2.3739358e-05
165	0x3ab5561e	0.0013834869
166	0xb49f6c34	-2.9694786e-07
167	0x3a92d0f7	0.0011201192
168	0x3a46e8a4	0.0007587767
169	0x3a941c82	0.00113
170	0xb583cadc	-9.8193e-07
171	0x3a631d09	0.00086636894
172	0x3ab5b8e2	0.0013864303
173	0x00000000	0.0
174	0x3abb15f5	0.0014273511
175	0x39d2c14e	0.00040198345
176	0xb71a3218	-9.190779e-06
177	0xb7a74680	-1.994078e-05
178	0xb7ab4eca	-2.0421478e-05
179	0x3ab438be	0.0013749821
180	0x3ae23f4c	0.0017261296
181	0x00000000	0.0
182	0x3aded98e	0.0017002092
183	0x3ab1b22b	0.0013557127
184	0x3a95d778	0.0011432013
185	0x3aa02f83	0.0012221191
186	0x3a01f9d6	0.0004958188
187	0x39a4c7aa	0.0003142928
188	0x3a28e525	0.00064428366
189	0x3ac8935e	0.0015302708
190	0xb6937d14	-4.3955024e-06
191	0xb69b03d1	-4.6198043e-06
192	0xba33fbfb	-0.0006865856
193	0xbae45630	-0.0017420705
194	0x80000000	-0.0
195	0x37553ebe	1.2710398e-05
196	0xba4f5a9b	-0.00079099246
197	0xb689d5f5	-4.107826e-06
198	0xba064af1	-0.00051228615
199	0xba7543c3	-0.00093561056
200	0x35cf0b9e	1.5426083e-06
201	0xbaf19296	-0.0018430527
202	0xb9819975	-0.00024719132
203	0xba9e148c	-0.0012060567
204	0xba01d420	-0.00049525686
205	0xba2b91b7	-0.00065448455
206	0xb6a5c258	-4.940008e-06
207	0xba7975b7	-0.0009516137
208	0xba6aa828	-0.0008951449
209	0xba1b7f87	-0.0005931784
210	0xba81278e	-0.0009853707
211	0xb682fe7f	-3.903929e-06
212	0xba4b3b3a	-0.0007752661
213	0xba762e95	-0.00093910965
214	0x2bd1aed0	1.4898863e-12
215	0xbadb20a1	-0.0016718098
216	0xba59c1c6	-0.00083067676
217	0xba8399f7	-0.0010040392
218	0xba5b6180	-0.00083687156
219	0xba14f37b	-0.00056820334
220	0xba646e4b	-0.00087139447
221	0xba189da0	-0.0005821828
222	0xb9e327b8	-0.00043326407
223	0xb9c629dd	-0.00037796694
224	0xba9c6de6	-0.0011934608
225	0xba58d4f0	-0.0008271476
226	0xbaf49102	-0.0018658938
227	0xba92db20	-0.001120422
228	0x37f38108	2.9027942e-05
229	0xbaa68fdc	-0.0012707668
230	0xb720de26	-9.588466e-06
231	0xba844697	-0.0010091838
232	0xba3164a6	-0.0006767012
233	0xba887eb2	-0.0010413735
234	0xb450261e	-1.9385377e-07
235	0xba46427f	-0.0007563009
236	0xbaaa7f3e	-0.0013007892
237	0x00000000	0.0
238	0xbaadb640	-0.0013253167
239	0xb9c9b84a	-0.00038475014
240	0xb6973ef6	-4.5074803e-06
241	0xb5affd62	-1.311226e-06
242	0x3732a53c	1.0648098e-05
243	0xbaa53d0e	-0.0012606697
244	0xbac515f0	-0.0015036445
245	0x80000000	-0.0
246	0xbac55bf4	-0.0015057311
247	0xbaa40580	-0.0012513846
248	0xba8359fb	-0.0010021323
249	0xba9a3228	-0.0011764215
250	0xb9e0a7f8	-0.00042849756
251	0xb9950df6	-0.00028429896
252	0xba1596c5	-0.00057063653
253	0xbabdd0d5	-0.0014481792
254	0xb77e6812	-1.51638105e-05
255	0x33e391f9	1.05970635e-07
