checkpoints/checkpoint_colors-3_828931_epoch100_seed0000111.pth.tar (torch_old, 110853 bytes, 15 tensors)

graph_layers.0.fc.0.weight f4 [64, 8]
0	0x3dde7ea7	0.10864001
1	0x3e9e2b5f	0.30892465
2	0xa1d6d97e	-1.4558774e-18
3	0xa62b8b5a	-5.95164e-16
4	0x3dd6a492	0.10480608
5	0x3dce629b	0.10077401
6	0x3e9e68f1	0.3093944
7	0xabb3e154	-1.2781256e-12
8	0x3d443175	0.04789873
9	0x3e54b172	0.20770815
10	0xbe7cd31b	-0.24689905
11	0x00002f0c	1.6877e-41
12	0x3e475f9c	0.19470066
13	0xbe2395d9	-0.15975131
14	0x3da1b06d	0.07894979
15	0xb5f82890	-1.8489245e-06
16	0xb380c03d	-5.9954324e-08
17	0x8e630edb	-2.7987063e-30
18	0x80000354	-1.194e-42
19	0x0017ae9f	2.174859e-39
20	0x00000b79	4.116e-42
21	0x000b5046	1.038987e-39
22	0x317ac846	3.649363e-09
23	0xb088fde7	-9.967466e-10
24	0x3e56f28c	0.20990962
25	0xbe578a3d	-0.21048827
26	0xbd9953bc	-0.07486674
27	0x9c507eaa	-6.8985136e-22
28	0xbea3cb86	-0.31991214
29	0x3d9f02ae	0.07764183
30	0xbe450a4b	-0.19242208
31	0x800006c5	-2.428e-42
32	0xbd84e4c5	-0.06488947
33	0x3d8c870e	0.06861697
34	0xbe2974e8	-0.16548502
35	0x2d9dc83e	1.7937759e-11
36	0x3ea0646c	0.31326616
37	0xbe2ef474	-0.17085439
38	0x3d426d1f	0.047467347
39	0x00000b75	4.11e-42
40	0xbe1d3be4	-0.15354878
41	0xbe7aec9c	-0.24504322
42	0xbe02ee8d	-0.12786312
43	0xa7b314b3	-4.9704922e-15
44	0x3ddf4b85	0.10903076
45	0xbceac458	-0.028658077
46	0x3dcc8b3d	0.09987495
47	0xabf1c5c9	-1.7178976e-12
48	0x3e5a55ef	0.21321844
49	0xbe69d116	-0.22833666
50	0xbe09c16e	-0.13452694
51	0x33efbea4	1.1163982e-07
52	0x3e87af8f	0.26501128
53	0xbe418c35	-0.18901141
54	0xbeb1994e	-0.34687275
55	0x34399393	1.7283155e-07
56	0xbe2d13a6	-0.16902027
57	0xbe47c3dc	-0.19508308
58	0x3eb09589	0.34489086
59	0x27baf836	5.189448e-15
60	0xbe4e17f8	-0.20126331
61	0xbe8e3c23	-0.27780256
62	0x3dd0708f	0.10177719
63	0x2d86db0b	1.5331311e-11
64	0x3e218990	0.15775132
65	0xbcd50d31	-0.026007267
66	0xbcd23889	-0.025661724
67	0x36428867	2.898765e-06
68	0x3dd46ceb	0.10372337
69	0xbc74e398	-0.014946841
70	0xbdd6e1d9	-0.10492296
71	0x2b979a28	1.0771982e-12
72	0x3c399957	0.011328063
73	0x3ec882ff	0.39162442
74	0xbe6f18c7	-0.23349296
75	0x2c5cc938	3.137558e-12
76	0x3e004c2e	0.1252906
77	0xbe43239b	-0.19056551
78	0xbdd7a226	-0.10528974
79	0xaf168bc5	-1.3692077e-10
80	0x3dd1f971	0.10252655
81	0xbea5b0b5	-0.3236138
82	0x3d21bece	0.039488606
83	0x0000082e	2.934e-42
84	0x3ddd91ed	0.10818849
85	0x3eb2cb95	0.34920946
86	0xbbf71235	-0.0075400122
87	0x80000c37	-4.382e-42
88	0xbe81ac25	-0.25326648
89	0x3eb15377	0.3463399
90	0xbe27ef24	-0.16399819
91	0x00000ebe	5.289e-42
92	0x3e28c125	0.16479929
93	0x3eaca600	0.33720398
94	0x3d4dad5f	0.050214168
95	0x9ff5a840	-1.0403988e-19
96	0xbe250062	-0.16113427
97	0xbe44a576	-0.19203743
98	0xbcf38ecf	-0.029731182
99	0x80000e2e	-5.087e-42
100	0xbe456d13	-0.1927989
101	0xbdeff0cf	-0.117158525
102	0x3c8b5ed2	0.017012987
103	0x00003045	1.7316e-41
104	0x3e2104dd	0.15724511
105	0x3e657585	0.22408111
106	0x3da99a64	0.08281401
107	0x323558f0	1.0555809e-08
108	0xbe5c5f8b	-0.21520822
109	0x3e91cd9f	0.2847719
110	0x3ddd7f7d	0.10815332
111	0x3226998e	9.697386e-09
112	0x3da9c0af	0.082887046
113	0xbe156da9	-0.14592613
114	0x3e5f78ef	0.21823476
115	0x9d1fd119	-2.1151576e-21
116	0x3cd0b017	0.025474591
117	0x3e5eb125	0.21747263
118	0x3ea47e63	0.32127675
119	0x30a39348	1.1901671e-09
120	0xa8b4ad3d	-2.0059145e-14
121	0x3dc64672	0.09681405
122	0x3e1a3f93	0.15063314
123	0x34e45f18	4.25375e-07
124	0x3e5d1dd3	0.21593408
125	0xbe01d627	-0.12679349
126	0xbe06ac1c	-0.13151592
127	0xb45a4f66	-2.0331717e-07
128	0x3e81a9a6	0.25324744
129	0xbdbd18e8	-0.09233266
130	0xbe9a61f8	-0.3015287
131	0x12b3f3de	1.1356606e-27
132	0x3e0c5a90	0.13706422
133	0x3daddfdc	0.084899634
134	0xbe4c7eef	-0.19970296
135	0xacb32d6b	-5.0925284e-12
136	0x3ea84290	0.32863283
137	0x3dc8a1fc	0.09796521
138	0xbdd9b936	-0.10631029
139	0xb21ee26c	-9.248293e-09
140	0xbe439c3b	-0.19102566
141	0x3e070153	0.13184099
142	0x3da70ea2	0.08157088
143	0x35f36eb9	1.8137135e-06
144	0x3e5ba501	0.21449663
145	0xbcaf4032	-0.021392915
146	0xbe7f9625	-0.2495962
147	0xa8c85533	-2.224141e-14
148	0xbc781659	-0.015142047
149	0xbe0f3795	-0.13986047
150	0x3e0bb4a4	0.13643128
151	0xafa76195	-3.044646e-10
152	0xbd6030a7	-0.0547339
153	0xbdb217e1	-0.08695961
154	0xbd190701	-0.037360195
155	0x155be58e	4.4407785e-26
156	0xbda8312d	-0.082125045
157	0xbe192da5	-0.14958818
158	0xbd4dd45b	-0.050251346
159	0x0000019a	5.75e-43
160	0x3e2ab829	0.16671814
161	0x3e8577b8	0.260679
162	0x3abe2262	0.0014506096
163	0xb2a5c9a4	-1.9300224e-08
164	0x3ca68bf2	0.020330403
165	0xbccad782	-0.024760965
166	0x3e65699c	0.22403568
167	0x309f0bc4	1.1572117e-09
168	0x3ea7cd71	0.32773927
169	0xbe9dee43	-0.30845842
170	0x3e8b724d	0.27235642
171	0x33fc4e80	1.17489435e-07
172	0x3eae2aea	0.34017116
173	0xb80ed146	-3.405034e-05
174	0x3e85dc6f	0.2614474
175	0x99dd3855	-2.2873617e-23
176	0x00000a87	3.776e-42
177	0xb68ae927	-4.139863e-06
178	0x800024e2	-1.3231e-41
179	0xb084c4af	-9.660165e-10
180	0x00000e00	5.022e-42
181	0x358d3822	1.0521655e-06
182	0x80002b56	-1.5546e-41
183	0x8000066b	-2.302e-42
184	0xbe8e5dbb	-0.27805886
185	0x3e5fada7	0.21843587
186	0xbe0a46ce	-0.13503572
187	0x2c1aad46	2.1980902e-12
188	0x3c823e35	0.015898803
189	0xbd0e3344	-0.03471686
190	0xbe86bbf7	-0.2631528
191	0x2cc19487	5.5018798e-12
192	0xbe5a42f4	-0.21314603
193	0x3e4b428d	0.19849606
194	0xbe376597	-0.17909847
195	0x1964bdc0	1.18256434e-23
196	0x3e570746	0.20998868
197	0x3e94b733	0.2904602
198	0xbd820ed2	-0.06350483
199	0x800c8384	-1.149205e-39
200	0xbe9220a3	-0.28540525
201	0x3e34caac	0.17655438
202	0x3e822a3f	0.25422856
203	0x29491fd0	4.465856e-14
204	0xbe8aa929	-0.27082184
205	0x3e40227c	0.18763155
206	0x3e901c7c	0.28146732
207	0x943f9a37	-9.673449e-27
208	0x3e490a0d	0.1963274
209	0x3e817e74	0.2529179
210	0xbe161452	-0.14656189
211	0x000006f7	2.499e-42
212	0x3c03fdca	0.0080561135
213	0x3e01993c	0.1265611
214	0xbe27afc9	-0.1637565
215	0x00000307	1.086e-42
216	0xbce9850d	-0.028505826
217	0xbdd3a595	-0.10334317
218	0xbe2e1445	-0.1699992
219	0x800032b8	-1.8194e-41
220	0xbe75d594	-0.24007255
221	0xbdb3efd4	-0.08785978
222	0x3ebc8d96	0.36826771
223	0x0f19903a	7.5712594e-30
224	0xbe7e950a	-0.24861541
225	0xbd99214c	-0.07477054
226	0x3e578e1b	0.21050303
227	0x80001b5d	-9.816e-42
228	0x3e4bac1e	0.19889876
229	0xbe2c858a	-0.16847816
230	0xbb305d48	-0.0026911069
231	0x90525f99	-4.1488843e-29
232	0xbd837485	-0.06418709
233	0x3cb515f5	0.022105196
234	0x3e296fd0	0.1654656
235	0x035bfeb9	6.4650723e-37
236	0x3e087702	0.13326648
237	0xbda530ab	-0.08065923
238	0x3ead2981	0.33820727
239	0x19487cd2	1.0364965e-23
240	0x3e43139c	0.19050449
241	0xbe3886c0	-0.18020153
242	0x3c9c2dd0	0.019064814
243	0x00000a5c	3.716e-42
244	0xbe2afbb5	-0.16697581
245	0x3e33ef68	0.17571795
246	0xbe61377f	-0.21993826
247	0xb2ac3425	-2.0047148e-08
248	0x3e949480	0.29019547
249	0x08f8cfcf	1.4974813e-33
250	0x3ec8e50e	0.39237255
251	0x151baf62	3.1440353e-26
252	0xbdbebf32	-0.09313811
253	0x3e5fa444	0.21840006
254	0x3eb8363a	0.35978872
255	0xb6aeaf4b	-5.206011e-06

graph_layers.0.fc.0.bias f4 [64]
0	0xbde27479	-0.11057372
1	0x3ea6253d	0.32450286
2	0x80000ecf	-5.312e-42
3	0xbe062206	-0.13098916
4	0xbdd08595	-0.10181729
5	0x3e5aec07	0.213791
6	0x3c840f25	0.016120503
7	0x3def8bd4	0.11696592
8	0xbd5066dd	-0.050879348
9	0x3e38bdeb	0.18041198
10	0x3ea02a83	0.31282434
11	0x3e816f31	0.25280145
12	0x3e0127ab	0.12612788
13	0xbe896a3c	-0.26838863
14	0x3e0e2dc6	0.13884649
15	0xbe7a530f	-0.24445747
16	0x3e0e8007	0.13916026
17	0xbe07832d	-0.13233633
18	0x3e328452	0.17433289
19	0xbd96b57a	-0.07358833
20	0xbd38e4e5	-0.045140166
21	0x3e9cc507	0.3061907
22	0xb20d6bca	-8.231789e-09
23	0x3e8e374c	0.27776563
24	0x3e0b4677	0.13601099
25	0x3e0959de	0.13413188
26	0xbcfdb323	-0.030969208
27	0xbc643a2d	-0.013929886
28	0x3da76e2e	0.08175312
29	0x3e1bd60f	0.15218376
30	0x3e013531	0.12617947
31	0xbe61e0cc	-0.2205841
32	0x3e35a1d6	0.17737517
33	0xbd454d76	-0.048169576
34	0x3e28e774	0.16494542
35	0x3e0a9206	0.13532266
36	0x3e3c959c	0.18416446
37	0xbb9bb367	-0.004751611
38	0xbe6c26e0	-0.23061705
39	0x3e8cd694	0.2750746
40	0xbea4665c	-0.32109344
41	0x3e44c276	0.19214806
42	0xbe8587bc	-0.2608012
43	0xbe90e069	-0.2829621
44	0x3e40a0d8	0.18811357
45	0xb24537ac	-1.14795675e-08
46	0x3e15a126	0.14612255
47	0xbe9e479a	-0.30914003
48	0x3c96d7bc	0.018413417
49	0xbe828b33	-0.25496826
50	0xbdfd1fc7	-0.12359577
51	0x3ebce4d3	0.3689333
52	0x3e0bc2b2	0.13648489
53	0x80000de3	-4.982e-42
54	0x3e4bd8d2	0.19906929
55	0x3eb2fb6c	0.34957445
56	0x3e8ab49f	0.27090928
57	0x3ddb5bd7	0.107108764
58	0xbe9688b3	-0.29401168
59	0x3b6619d1	0.0035110603
60	0x3e16b270	0.14716506
61	0x3bb5df99	0.0055503366
62	0xbe68cf7f	-0.22735403
63	0xbe50e578	-0.20400035

graph_layers.1.fc.0.weight f4 [64, 128]
0	0x00000ef7	5.368e-42
1	0xbd969eaa	-0.073544815
2	0x0000091a	3.265e-42
3	0xbd3c9555	-0.04604085
4	0x2ba2d4f4	1.1569899e-12
5	0x3ab68fd3	0.0013928361
6	0x3d1e5644	0.038656488
7	0xbd9c5688	-0.07633692
8	0x3c998ba4	0.018743344
9	0xbd42ae1c	-0.047529325
10	0xbd11b02c	-0.0355684
11	0x800011da	-6.404e-42
12	0xbd38f837	-0.04515859
13	0x80001acd	-9.614e-42
14	0x80000d09	-4.676e-42
15	0x800007af	-2.756e-42
16	0x3c3d7e0a	0.011565695
17	0xbd8d0111	-0.06884969
18	0x3d012b61	0.03153551
19	0x3ac68ef1	0.0015148801
20	0x3c9854a3	0.018595045
21	0x3c102328	0.008797444
22	0x80000cb7	-4.561e-42
23	0x3d3f77bb	0.046745043
24	0x800002e8	-1.043e-42
25	0x80000995	-3.437e-42
26	0xbda3e7fe	-0.080032334
27	0x3b9e857b	0.0048376895
28	0x39e4ffb4	0.00043678063
29	0xbcc5ed42	-0.024160985
30	0x3d5c9bd0	0.053859532
31	0x80000e6f	-5.178e-42
32	0x3d9056ae	0.07047783
33	0xb9454d18	-0.00018816104
34	0xbae1e219	-0.001723352
35	0xbcc5dad1	-0.024152191
36	0xb718333c	-9.071835e-06
37	0xbcfef9da	-0.031124998
38	0xbc872cfa	-0.016500939
39	0xbd3815a1	-0.044942502
40	0x3ccbfbdf	0.024900375
41	0xbd823805	-0.06358341
42	0x80000c8d	-4.502e-42
43	0xbd4e319d	-0.050340284
44	0x3d71784c	0.058952615
45	0x000001d1	6.52e-43
46	0xbd574036	-0.05255147
47	0x3c1174f5	0.008877982
48	0x3c48f2b9	0.012264901
49	0x00000c0b	4.32e-42
50	0x8000194b	-9.073e-42
51	0x3d01eca6	0.031719826
52	0x3d20ae74	0.03922887
53	0x80000c74	-4.467e-42
54	0xbd449297	-0.04799136
55	0x3c912465	0.01771755
56	0xbd931616	-0.07181947
57	0x3d2b3d52	0.041806526
58	0xbb8156b1	-0.003947102
59	0xbcd28b01	-0.025701048
60	0x3cee6f42	0.029105786
61	0xbd02d124	-0.031937733
62	0x3a0bbb01	0.0005330295
63	0x80000bfc	-4.299e-42
64	0x3d500819	0.050788973
65	0xbd4dce8b	-0.050245803
66	0x800006f5	-2.496e-42
67	0x3cae2d72	0.021261904
68	0xb8bf154d	-9.111557e-05
69	0xba1069f6	-0.00055089535
70	0xbc991983	-0.018688923
71	0x3d389034	0.045059398
72	0xb8cb6c15	-9.699926e-05
73	0xbc820720	-0.015872538
74	0x3c390e2f	0.011294886
75	0x3d76f9d0	0.060296834
76	0xbcbd0270	-0.023072451
77	0x3b97f2a2	0.0046370784
78	0xbbeef146	-0.0072919456
79	0x33e74259	1.0768844e-07
80	0x3d2730f5	0.040818173
81	0x3cf68ef4	0.030097462
82	0xbd89873f	-0.06715249
83	0xb8425513	-4.6332436e-05
84	0xbca0db06	-0.019635689
85	0x3d7589a1	0.059945706
86	0x0000084c	2.976e-42
87	0x3d9e6c5d	0.077355124
88	0xbbf257b7	-0.0073957103
89	0xbd9a4809	-0.07533271
90	0xbd18c3d1	-0.03729612
91	0xbcaeb17d	-0.021324867
92	0xbcade479	-0.021227108
93	0xbc8f4651	-0.017489584
94	0xbd6bf708	-0.057608634
95	0x3c8a303b	0.016868701
96	0xbd9b351c	-0.07578489
97	0x3da04c32	0.07827033
98	0x3cb7ab4f	0.022420553
99	0xbc9e99f1	-0.019360514
100	0x3cc717d3	0.024303352
101	0x3c2fce8e	0.010730399
102	0xb4b734fe	-3.4124963e-07
103	0xbcb3063e	-0.021853562
104	0xbba91708	-0.0051602162
105	0x3d26763d	0.040640105
106	0x3bcae13d	0.0061914013
107	0x3ced7018	0.028984115
108	0x3d8e3a58	0.06944722
109	0x00000486	1.623e-42
110	0x3c900c6e	0.017584052
111	0x800007cc	-2.797e-42
112	0x3c9fdc39	0.01951419
113	0x3d10d274	0.035356954
114	0x3bdb80e7	0.006698716
115	0xbb2b7616	-0.0026162914
116	0xbc0ee1b7	-0.008720807
117	0x00000f28	5.437e-42
118	0x3b6618ed	0.0035110072
119	0xbc9baa92	-0.019002233
120	0xbd50c1d4	-0.0509661
121	0xbd2b6c83	-0.04185153
122	0xbb7b39c9	-0.0038334003
123	0xba89af4a	-0.0010504511
124	0x3bb1b503	0.0054231896
125	0xbd43e86d	-0.04782908
126	0xaf9e71e7	-2.8820965e-10
127	0x3b94d128	0.004541535
128	0x3ceaf95b	0.028683355
129	0x3dbe3a68	0.09288484
130	0x80001a5d	-9.457e-42
131	0xbd88fb99	-0.066886134
132	0x3d78358a	0.060597934
133	0xbe0c0aee	-0.13676044
134	0xbb950897	-0.004548143
135	0xbda1d6bb	-0.07902285
136	0x3b0474bc	0.002021118
137	0x3c877a1e	0.016537722
138	0xbccea0c7	-0.025223149
139	0x3e0dfc8c	0.1386587
140	0x3d720f7e	0.059096806
141	0x3dbf00e1	0.093263395
142	0xbe15b177	-0.14618479
143	0xbd51e87a	-0.051247098
144	0xbd22e4b6	-0.039768897
145	0xbda0199f	-0.07817387
146	0x3d85f4ae	0.065408096
147	0xbdc48a0c	-0.09596643
148	0x3d2e5ed1	0.042570893
149	0xbdd20a1d	-0.10255835
150	0x8000085e	-3.002e-42
151	0x3db4dee4	0.088315755
152	0x3e3a905a	0.18219128
153	0x3d8feefb	0.07028004
154	0x3d9683e2	0.073493734
155	0xbd9f6e9c	-0.07784769
156	0x3d231702	0.039816864
157	0x3dc3396d	0.095324375
158	0xbd120636	-0.035650454
159	0xbe0095fa	-0.12557212
160	0x3d32bfc1	0.043639902
161	0x3cc5a356	0.024125736
162	0x3d8249c4	0.06361726
163	0x3dcf0727	0.10108786
164	0x3cba2254	0.022721447
165	0xbd4ad7b0	-0.049522102
166	0x3d5df9c3	0.05419327
167	0x3da3869c	0.07984659
168	0x3d9455e1	0.072429426
169	0xbd4bf2aa	-0.04979197
170	0xbdea0844	-0.11427358
171	0xbd92a030	-0.071594596
172	0x3cda1c21	0.026624741
173	0x000002fe	1.073e-42
174	0x3d840acf	0.06447374
175	0xbc3169c2	-0.010828437
176	0xbdc108cf	-0.09425508
177	0x3d1d0cfd	0.038342465
178	0x3ccce139	0.025009738
179	0x3dda3244	0.10654119
180	0x3dcdd0fe	0.10049628
181	0x00000898	3.083e-42
182	0x3d20435a	0.03912673
183	0x3d3671d9	0.044542167
184	0xbd5b328f	-0.053515013
185	0x3d90643e	0.0705037
186	0xbde046d0	-0.109510064
187	0x3bbedfae	0.0058250045
188	0xbc5447b2	-0.012956547
189	0xbccc2fda	-0.024925161
190	0x3b69d43f	0.0035679487
191	0x3c9f43e4	0.019441552
192	0x3ce51daa	0.027968246
193	0xbc95b352	-0.018273983
194	0x0000074b	2.616e-42
195	0xbc9d680b	-0.01921465
196	0xbc4e60bc	-0.012596305
197	0x3d41b973	0.047296
198	0xbcfa5f9e	-0.030563172
199	0x3d8424fb	0.06452366
200	0x3d0b7e80	0.034056187
201	0x3d2c42ca	0.042055883
202	0x3d8f61fd	0.07001112
203	0x3cb50ae0	0.022099912
204	0x3db9d47e	0.09073733
205	0x3dc3387e	0.095322594
206	0xbd07932d	-0.033099342
207	0x3d8f6486	0.07001595
208	0xbd345ef6	-0.044035874
209	0xbd8dc072	-0.06921472
210	0x3cb42353	0.0219895
211	0x3de34bec	0.11098465
212	0xbd3a66fd	-0.045508374
213	0xbd48358e	-0.0488792
214	0x800008a0	-3.094e-42
215	0x3d0512c8	0.032488614
216	0xbd777ab2	-0.060419746
217	0xbceb08b9	-0.028690683
218	0xbd6221d4	-0.055208042
219	0xbc45ab17	-0.012064717
220	0xbd845e61	-0.06463314
221	0x3d3c0cb1	0.04591054
222	0x3d54d357	0.051959362
223	0xbd6cf3a9	-0.05784956
224	0x3ce37f2f	0.027770607
225	0x39c36349	0.00037267272
226	0x3d506029	0.050872955
227	0xbca7bbf4	-0.020475365
228	0x3db7d359	0.08975858
229	0xbdbd071a	-0.0922987
230	0x3d3a5f2c	0.04550092
231	0xbd369b33	-0.044581603
232	0x3d99312b	0.07480081
233	0xbd7448d4	-0.059639767
234	0x3d003fbd	0.031310786
235	0xbd8fac60	-0.070153
236	0xbbd6c4a8	-0.006554205
237	0x0000260d	1.365e-41
238	0x3d5f96ef	0.0545873
239	0xbc1ebe2e	-0.009688897
240	0x3d98483b	0.07435652
241	0x3c01c94f	0.007921531
242	0x3d2477fc	0.04015349
243	0x3d6f04a6	0.058354042
244	0xbd8f2f3a	-0.069914296
245	0x00000e1a	5.059e-42
246	0x3d1f43cd	0.03888302
247	0x3c615ae9	0.013754585
248	0x3cc7a20c	0.024369262
249	0x3caa76d3	0.020808613
250	0xbd1f9212	-0.038957663
251	0x3d89738b	0.06711491
252	0xbd4356e8	-0.047690302
253	0xbd20d7ee	-0.039268427
254	0x3decea35	0.11568109
255	0x3d9b56d6	0.07584922

graph_layers.1.fc.0.bias f4 [64]
0	0xbd1256de	-0.035727374
1	0xbd39538f	-0.045245703
2	0x957e8ddb	-5.1406796e-26
3	0xbd99331f	-0.07480454
4	0x80000c6f	-4.46e-42
5	0x399db3ec	0.00030079426
6	0x3d003328	0.031298786
7	0xbd70cc3d	-0.058788527
8	0xbc807031	-0.015678497
9	0xbcf6ee52	-0.030142937
10	0xbc8af492	-0.016962323
11	0x3d720939	0.059090827
12	0x3d23b55b	0.039967876
13	0x3c0c692b	0.008569996
14	0xbd830b83	-0.0639868
15	0x3c58c2a3	0.013229999
16	0xbd84e04c	-0.06488094
17	0x3d35630f	0.044283923
18	0xbd944f3d	-0.07241676
19	0x3d95640b	0.07294472
20	0x3c4ab71f	0.012372761
21	0x3d466980	0.048440456
22	0x3c277470	0.010220632
23	0xbc1eaa3a	-0.00968414
24	0x3d962420	0.07331109
25	0x3cf9f09a	0.030510236
26	0xbca09248	-0.019601002
27	0x3dac08ea	0.08400138
28	0x3d4a65b3	0.049413394
29	0x3c247ef7	0.010040036
30	0xbcde3018	-0.027122542
31	0xbcc5dc6c	-0.024152957
32	0x3d72fcc3	0.059323084
33	0xbd4c6512	-0.049901076
34	0xbccbd3ab	-0.024881205
35	0x3d807903	0.06273081
36	0x3ce11d69	0.027479844
37	0x3dd068ee	0.10176264
38	0x3da14ecf	0.0787636
39	0xbd193e32	-0.03741283
40	0x3dd10ad7	0.10207146
41	0x3c0403d4	0.008057553
42	0xbd049bcc	-0.032375142
43	0xbd13d87c	-0.036095127
44	0xbd4e6d43	-0.05039717
45	0x3d181451	0.03712875
46	0xb50724ef	-5.0345164e-07
47	0x3d8adc0f	0.06780254
48	0x3d4639c8	0.04839495
49	0x3da818da	0.08207865
50	0x80000ba1	-4.172e-42
51	0x3c86d619	0.016459512
52	0xbc31aa9c	-0.010843899
53	0x3d355458	0.04426989
54	0x3d9a3d42	0.07531215
55	0x3c815ca2	0.015791241
56	0x3d974978	0.0738706
57	0x3cd80fc4	0.026374705
58	0xbc7a54e8	-0.015279032
59	0xbd1ee630	-0.038793743
60	0xbc6a0e06	-0.01428557
61	0x3d971d0b	0.073785864
62	0xbd82dd13	-0.06389823
63	0xbd605714	-0.054770544

fc.0.weight f4 [1, 64]
0	0xbcd02e85	-0.025412807
1	0x3e3d576c	0.1849038
2	0x1bcbe29c	3.3729976e-22
3	0xbd89e3e6	-0.06732921
4	0x800007b3	-2.762e-42
5	0xba30e535	-0.00067480217
6	0xbcda5f53	-0.026656782
7	0x3dd7acd1	0.10531009
8	0xbdca1ed5	-0.09869162
9	0xbe1dcefe	-0.15410993
10	0xbae50618	-0.001747313
11	0x3e02f444	0.12788492
12	0xbca1799a	-0.019711304
13	0xbdd79ec7	-0.10528331
14	0xbcdc251f	-0.02687317
15	0x3d8f22d1	0.069890626
16	0x3dab28ae	0.083573684
17	0x3da48dbb	0.080348454
18	0x3dd8ba10	0.105823636
19	0xbd530aef	-0.0515241
20	0xbdeb6c71	-0.11495293
21	0xbc8a2a77	-0.016865952
22	0xbb2c120d	-0.0026255876
23	0xbddb7564	-0.1071575
24	0x3e0afd51	0.13573195
25	0xbd6d02e2	-0.057864077
26	0xbde10d76	-0.109888956
27	0x3c9d6be0	0.019216478
28	0x3da72e74	0.08163157
29	0x3d094b99	0.03351936
30	0xbdf37c99	-0.118889995
31	0x3e148f94	0.14507896
32	0xbd0147b8	-0.031562537
33	0xbb666dff	-0.0035160778
34	0x3ddf2e12	0.10897459
35	0xbdbe5130	-0.09292829
36	0xbd8c0ab7	-0.06837981
37	0x3e072b84	0.13200194
38	0x3daf8597	0.08570402
39	0xbca80331	-0.020509334
40	0x3dbed618	0.09318179
41	0xbd294218	-0.041322798
42	0xbde86508	-0.11347395
43	0xbcbc0375	-0.022950867
44	0xbd513875	-0.051079232
45	0x3e44e0d7	0.19226395
46	0x3cc642c0	0.02420175
47	0xbdc1cb03	-0.094625495
48	0xbd35c433	-0.044376563
49	0x3dfc2b16	0.123129055
50	0xa01b7f52	-1.3171137e-19
51	0xbd702fe6	-0.05863943
52	0x3db58dc0	0.08864927
53	0x3cebf13a	0.02880155
54	0x3dd897ca	0.105758265
55	0xbe15a557	-0.14613853
56	0xbd01911a	-0.03163252
57	0x3c068186	0.008209592
58	0x3dc758c5	0.09733728
59	0xbdcd2d49	-0.10018403
60	0x3c3ce1bd	0.01152843
61	0xbd5625c3	-0.052282106
62	0x3daf4f78	0.08560079
63	0x3d88b075	0.066742815

exp_avg f4 [64, 8]
0	0x373644c8	1.086406e-05
1	0x3ba9e71c	0.005185021
2	0x9b31c370	-1.4704246e-22
3	0x9f8dba0a	-6.00236e-20
4	0x39b023b4	0.00033595937
5	0xbba2837f	-0.004959523
6	0xba8d1bc5	-0.0010765722
7	0xa51455ab	-1.2865979e-16
8	0xba286ed8	-0.00064252084
9	0x3b0f9012	0.002190594
10	0x39f6a65c	0.00047044724
11	0x00000000	0.0
12	0x3abefa90	0.0014570523
13	0xbb1ce4f8	-0.0023940187
14	0xbaa6416c	-0.0012684292
15	0xaf4bec21	-1.8546632e-10
16	0xacd3c79e	-6.0191426e-12
17	0x87bd0e45	-2.8445946e-34
18	0x80000000	-0.0
19	0x0000009e	2.21e-43
20	0x00000000	0.0
21	0x0000004c	1.06e-43
22	0x2ace657c	3.666337e-13
23	0xa9e19056	-1.00170455e-13
24	0x39f5f2f0	0.00046911044
25	0x38d781fa	0.00010276209
26	0xb986dc2a	-0.00025722507
27	0x95acd258	-6.980211e-26
28	0xb9bd8104	-0.00036145013
29	0xb8d21658	-0.00010017742
30	0x37a86c00	2.0077452e-05
31	0x80000000	-0.0
32	0x380b7f25	3.3258595e-05
33	0x3b4d2361	0.0031301605
34	0x38ca6bb9	9.6521755e-05
35	0x270206fa	1.8044906e-15
36	0x389fb3d0	7.6152035e-05
37	0xbb4c3bbe	-0.0031163539
38	0xb9a1e9d0	-0.00030882517
39	0x00000000	0.0
40	0x3a539af4	0.0008072101
41	0xba67e57b	-0.0008846146
42	0xbb7ffae8	-0.0039059464
43	0xa113e06c	-5.0102557e-19
44	0xba0f9cae	-0.0005478364
45	0x3b29cc9c	0.002590931
46	0x3ae9df3f	0.0017843022
47	0xa5475bc4	-1.729159e-16
48	0x394e9398	0.00019700674
49	0xbab69bde	-0.001393195
50	0xba10559f	-0.00055059226
51	0x2d45252c	1.1206407e-11
52	0xb9b83822	-0.00035137037
53	0x3a9611fe	0.0011449454
54	0x3a80c7c8	0.0009825164
55	0x2d9895e0	1.7346957e-11
56	0x3a2c8b8d	0.0006582074
57	0xbab67257	-0.0013919574
58	0xba4f26ee	-0.00079022243
59	0x211a63a0	5.230908e-19
60	0xb9d6c688	-0.00040965178
61	0x3af203a7	0.0018464223
62	0x38b132a8	8.449453e-05
63	0x26de46a0	1.5423487e-15
64	0x388e4758	6.7843765e-05
65	0xb96a5648	-0.00022348121
66	0xb9435cb6	-0.00018631187
67	0x2f9fd692	2.9074393e-10
68	0xb9646dba	-0.00021784651
69	0xb8a4212b	-7.8263074e-05
70	0x3a0f2301	0.0005460233
71	0x24fa0ac0	1.0843843e-16
72	0xba7764f0	-0.0009437343
73	0x3b228d36	0.0024803407
74	0xb987f42b	-0.00025931126
75	0x25b606cc	3.1576573e-16
76	0x3afde196	0.0019369598
77	0xbb2c6eb8	-0.002631111
78	0xba7116c2	-0.00091968116
79	0xa87800d4	-1.3766945e-14
80	0x3ab382c0	0.0013695583
81	0xb807bbd4	-3.2361437e-05
82	0xba2c4e44	-0.0006572942
83	0x00000000	0.0
84	0xba749ed8	-0.0009331531
85	0x3a2df6be	0.0006636194
86	0xb9e49f3c	-0.00043606188
87	0x80000000	-0.0
88	0xb7d47502	-2.5326855e-05
89	0x3b99ddc9	0.0046956283
90	0xba7a1f9c	-0.00095414533
91	0x00000000	0.0
92	0x3aa019b9	0.0012214697
93	0xbb960fc8	-0.004579518
94	0xba528440	-0.0008030571
95	0x994b61d4	-1.051461e-23
96	0x3a242dfa	0.00062629546
97	0xba30dee7	-0.0006747082
98	0xb9ec109f	-0.0004502581
99	0x80000000	-0.0
100	0xb92384cc	-0.00015594362
101	0x3a59dc66	0.0008310735
102	0x38678650	5.519978e-05
103	0x00000000	0.0
104	0xb9cc791a	-0.0003900014
105	0xb9aaa2ee	-0.0003254632
106	0x39871c76	0.00025770412
107	0x2b953626	1.0602116e-12
108	0x39dc4fac	0.0004202103
109	0x383b9540	4.4723274e-05
110	0x39230df2	0.00015550086
111	0x2b891486	9.740132e-13
112	0x3b2813a6	0.0025646477
113	0xb774d40d	-1.4592905e-05
114	0xbaa76638	-0.0012771552
115	0x96846fe8	-2.1396373e-25
116	0xba541a02	-0.00080910337
117	0x3a52bc20	0.0008038897
118	0xba681ef9	-0.0008854713
119	0x2a06a95a	1.1960346e-13
120	0xa21524c0	-2.021272e-18
121	0xba242371	-0.00062613847
122	0xb9e41133	-0.00043500363
123	0x2e3bbb0e	4.2685015e-11
124	0x37ca9aa6	2.415229e-05
125	0x3aa0dcec	0.0012272871
126	0x394c4275	0.00019479713
127	0xadb37e1f	-2.0405953e-11
128	0x3a41e642	0.0007396677
129	0xb9bb0340	-0.0003566984
130	0x39fb1156	0.00047887367
131	0x0c15a0e4	1.1526959e-31
132	0xba841e4e	-0.0010079832
133	0xb9671138	-0.00022036291
134	0x3981b724	0.00024741248
135	0xa613b46d	-5.1245393e-16
136	0x37622a60	1.3480516e-05
137	0x3912609e	0.00013959638
138	0x3866ef22	5.5058983e-05
139	0xab82bbc0	-9.289167e-13
140	0xb9d2c5a6	-0.0004020158
141	0xb8c8b853	-9.571076e-05
142	0x38b956ae	8.837633e-05
143	0x2f480a30	1.8193513e-10
144	0xba170550	-0.00057609845
145	0x3adb591a	0.0016734928
146	0xb9b60df8	-0.00034724153
147	0xa2255d6a	-2.2411123e-18
148	0x3ab3e92f	0.001372611
149	0xbacc1c0a	-0.0015572321
150	0xba25e762	-0.0006328729
151	0xa909d758	-3.0606892e-14
152	0x3ad3fe5a	0.0016173825
153	0xbb49d5ae	-0.003079753
154	0xbb9a6d95	-0.00471277
155	0x0eb6afba	4.5035683e-30
156	0x3af1df44	0.0018453379
157	0x3bcb7e56	0.006210129
158	0x3ad05c1e	0.0015896594
159	0x00000000	0.0
160	0xbab42ac6	-0.0013745658
161	0x3b4b0933	0.0030980825
162	0x341bc2cc	1.4506367e-07
163	0xac08637e	-1.9381992e-12
164	0x3b19947e	0.0023434456
165	0xbb4c81e2	-0.0031205346
166	0xba84c784	-0.0010130261
167	0x2a02ef07	1.1629249e-13
168	0x39a80094	0.00032043888
169	0xb8016086	-3.084589e-05
170	0xb9fab746	-0.00047820265
171	0x2d4f78f2	1.1793443e-11
172	0xb9ac1cd3	-0.00032827872
173	0x3976b230	0.00023526768
174	0x39ae71ef	0.00033272753
175	0x93378478	-2.316316e-27
176	0x00000000	0.0
177	0xafe4409e	-4.1518872e-10
178	0x80000000	-0.0
179	0xa9da9c7d	-9.708291e-14
180	0x00000000	0.0
181	0x2ee81fc4	1.0555781e-10
182	0x80000000	-0.0
183	0x80000000	-0.0
184	0x3967c508	0.00022103277
185	0x3ab70d58	0.0013965769
186	0xb9700372	-0.00022889467
187	0x257f117e	2.2123651e-16
188	0x3a40721a	0.0007341221
189	0xbad1696c	-0.0015976853
190	0xba2e359c	-0.00066455617
191	0x261f931d	5.536358e-16
192	0xb8007191	-3.0623345e-05
193	0x3ba00df6	0.004884477
194	0xbaf5dc1a	-0.0018757612
195	0x12bdc948	1.1977197e-27
196	0x3b07d204	0.0020724544
197	0xbb9c674a	-0.004773055
198	0xba873aaf	-0.0010317172
199	0x80000054	-1.18e-43
200	0xba051886	-0.00050772016
201	0x3ab810f1	0.0014043135
202	0x39120768	0.00013926404
203	0x22a5fd68	4.4991644e-18
204	0x3a1f5e7b	0.00060794473
205	0xbad47584	-0.0016209339
206	0xb9c225f8	-0.00037030852
207	0x8d9f3c7f	-9.813695e-31
208	0xb8b128fc	-8.4476516e-05
209	0x3ab5ac41	0.001386054
210	0xb52aff90	-6.370183e-07
211	0x00000000	0.0
212	0x3a0014f3	0.0004885934
213	0xbab5326e	-0.0013824233
214	0xba1ec5be	-0.00060566876
215	0x00000000	0.0
216	0x3b00ac02	0.0019633775
217	0xb83643dc	-4.345538e-05
218	0xba60f9da	-0.00085821527
219	0x80000000	-0.0
220	0xba4d91a2	-0.00078418304
221	0x391b1783	0.0001479071
222	0xb9242e75	-0.00015657565
223	0x087faa66	7.6936574e-34
224	0xb7ee1992	-2.8383718e-05
225	0xb9ef5e9b	-0.0004565612
226	0xb98fab30	-0.0002740263
227	0x80000000	-0.0
228	0x38fe3d9e	0.00012123141
229	0x3a03bfc9	0.00050258316
230	0x39156aa1	0.0001424947
231	0x89af0e56	-4.21432e-33
232	0xba8b43b0	-0.0010625031
233	0x3b30f1ce	0.0026999596
234	0x3aac5934	0.0013149143
235	0x0000b7cd	6.5935e-41
236	0xb7f3eb40	-2.9077404e-05
237	0xbb511781	-0.0031904879
238	0xba24a436	-0.0006280573
239	0x12a65974	1.0498125e-27
240	0x3a8ca647	0.0010730707
241	0xb97dc030	-0.00024199556
242	0x3945fb94	0.00018881104
243	0x00000000	0.0
244	0xbab25f28	-0.0013608681
245	0x398575d0	0.00025455514
246	0xb901aa58	-0.00012365857
247	0xac0daa64	-2.013189e-12
248	0x3ade34f8	0.0016953042
249	0x024f8526	1.524617e-37
250	0x39d1bfb6	0.00040006422
251	0x0e8159d4	3.1887457e-30
252	0xba8082b4	-0.0009804578
253	0xba117c09	-0.0005549794
254	0xb916c53a	-0.00014378587
255	0xb00f8260	-5.220837e-10

exp_avg_sq f4 [64, 8]
0	0x3734ebd1	1.0783741e-05
1	0x3cafe5ae	0.021471824
2	0x2c6506e9	3.2546693e-12
3	0x2c9cff46	4.4621277e-12
4	0x3acb3c1d	0.0015505586
5	0x3ba4a5d7	0.0050246525
6	0x39f14c3e	0.00046023907
7	0x2d014817	7.348808e-12
8	0x3b79d0f8	0.003811894
9	0x3c0d02ff	0.008606671
10	0x3ab53e3c	0.0013827751
11	0x25ebbd4b	4.0894272e-16
12	0x3b17b129	0.0023146367
13	0x3bc640b8	0.0060501955
14	0x3b2b704a	0.0026159459
15	0x2e127144	3.3297157e-11
16	0x2db4b14d	2.0542368e-11
17	0x2bac2cc1	1.2233757e-12
18	0x2996436b	6.673033e-14
19	0x2b515bd6	7.4379164e-13
20	0x2b1edd05	5.64396e-13
21	0x2b4e3eef	7.327324e-13
22	0x2d82cda1	1.4870606e-11
23	0x2d64df57	1.3009891e-11
24	0x3ab8b626	0.001409237
25	0x36db7c8f	6.541209e-06
26	0x38e3fcf4	0.0001087132
27	0x2c239b1b	2.3249794e-12
28	0x39bc14cd	0.00035873652
29	0x38e1d385	0.00010768235
30	0x394ab3de	0.00019331227
31	0x2ac08f12	3.4205326e-13
32	0x379e49a0	1.8869352e-05
33	0x3b81921b	0.0039541847
34	0x36094319	2.0453647e-06
35	0x2d1f0362	9.038855e-12
36	0x36a2f506	4.8565007e-06
37	0x3b4fc011	0.0031700174
38	0x38ae4f07	8.3116865e-05
39	0x2aed0791	4.2104907e-13
40	0x3c857ab9	0.01629387
41	0x38d36910	0.000100808335
42	0x3ce53502	0.027979378
43	0x2cb1fa4d	5.0584315e-12
44	0x3b8582dd	0.004074438
45	0x3c8a30da	0.016868997
46	0x3b816449	0.0039487225
47	0x2d042bac	7.513028e-12
48	0x3b3eca2b	0.00291122
49	0x3987e8e7	0.00025922732
50	0x3a14b299	0.0005672365
51	0x2dc3a1c3	2.224077e-11
52	0x39cb9a9b	0.00038834367
53	0x3a844402	0.0010091069
54	0x3abd5a3e	0.001444645
55	0x2dcf44ba	2.3563696e-11
56	0x3a2af43c	0.0006521379
57	0x3b0ce0f8	0.0021496397
58	0x3a77fa57	0.0009459606
59	0x2cb27289	5.0717802e-12
60	0x3a91ba7f	0.0011118202
61	0x3af26248	0.0018492425
62	0x39a2a3d6	0.00031021115
63	0x2d1cf7f6	8.922632e-12
64	0x3a2cef5c	0.00065969466
65	0x35cfbb03	1.5477129e-06
66	0x34d654e5	3.9922375e-07
67	0x2e1d7fcf	3.5811184e-11
68	0x389c159e	7.442686e-05
69	0x38aff2f9	8.3899075e-05
70	0x38c68f25	9.4680385e-05
71	0x2cff4eed	7.2562984e-12
72	0x3c0e5148	0.008686371
73	0x3c3d61ba	0.011558944
74	0x3af0826e	0.0018349418
75	0x2d0a5df8	7.865257e-12
76	0x3b6b4a17	0.0035902315
77	0x3c0a5591	0.008443252
78	0x3bc255b0	0.005930625
79	0x2d3d9264	1.0775911e-11
80	0x3c1523fd	0.009102819
81	0x38d4af30	0.00010141579
82	0x3c12edcd	0.008967829
83	0x2ad67350	3.809405e-13
84	0x3ba25bcf	0.004954792
85	0x3b2bc50c	0.0026209978
86	0x3ba9cf6e	0.0051821982
87	0x2b000a21	4.548879e-13
88	0x369bf228	4.6475507e-06
89	0x3cc754da	0.024332453
90	0x3aabda22	0.0013111273
91	0x2ade4903	3.9485784e-13
92	0x3b00a5ef	0.0019630154
93	0x3b9b70f4	0.0047436897
94	0x3b412aac	0.0029474897
95	0x2c4a8049	2.877714e-12
96	0x3a1f7771	0.0006083167
97	0x3b03b71c	0.0020098155
98	0x39e5d970	0.00043840287
99	0x2b0c2c00	4.9799054e-13
100	0x39c8cc78	0.00038299314
101	0x3adba531	0.0016757605
102	0x39717bc1	0.00023029653
103	0x2805a122	7.417923e-15
104	0x38518e16	4.996181e-05
105	0x38ac6998	8.2212675e-05
106	0x368f7b14	4.2760603e-06
107	0x2d92f816	1.670845e-11
108	0x39320167	0.00016975925
109	0x3504aa79	4.94219e-07
110	0x369b1f87	4.6230302e-06
111	0x2d91921b	1.6549475e-11
112	0x3bf9e203	0.0076258196
113	0x35541655	7.900865e-07
114	0x3c83b15a	0.016075779
115	0x2c2b391d	2.4332266e-12
116	0x3be93511	0.0071169217
117	0x3b40df8a	0.0029430115
118	0x3b738713	0.0037159368
119	0x2d68f834	1.3242785e-11
120	0x2cc23334	5.5194963e-12
121	0x3a136527	0.0005622678
122	0x395b0d5b	0.00020890443
123	0x2deac328	2.6689387e-11
124	0x33b6dc90	8.5151555e-08
125	0x3a7d350a	0.00096590875
126	0x38f812cc	0.00011829063
127	0x2dd3dbec	2.4085588e-11
128	0x3b7682f3	0.0037614673
129	0x3b4b6a95	0.003103887
130	0x381644cc	3.582686e-05
131	0x2bcd2be8	1.4578313e-12
132	0x3a8140a6	0.0009861186
133	0x3ab3e5ad	0.0013725065
134	0x3ad8c47c	0.0016538049
135	0x2d0facde	8.166993e-12
136	0x39db187c	0.00041789177
137	0x38c93351	9.593985e-05
138	0x367ac3fa	3.7366976e-06
139	0x2d90cc30	1.6461582e-11
140	0x38c635e4	9.451414e-05
141	0x38fe8369	0.00012136141
142	0x38a772d4	7.984569e-05
143	0x2e11feed	3.3195603e-11
144	0x3ad2d1de	0.0016084274
145	0x3c20c9dc	0.009813752
146	0x39706dda	0.00022929106
147	0x2cc37d60	5.5561528e-12
148	0x3abdb6c7	0.0014474028
149	0x3bcf05f5	0.006317849
150	0x3a8c7cc8	0.001071834
151	0x2d4c1168	1.1599922e-11
152	0x38f7f685	0.00011823796
153	0x389aa9f3	7.374948e-05
154	0x39b725df	0.00034932696
155	0x2be68b1c	1.6381094e-12
156	0x3905f449	0.00012774872
157	0x3a73f2b5	0.00093058805
158	0x384466ef	4.6825906e-05
159	0x2849b078	1.1196007e-14
160	0x3bc045bc	0.005867688
161	0x3cc3907e	0.02387261
162	0x357674a7	9.1811893e-07
163	0x2d9d8702	1.7908789e-11
164	0x3b85a85a	0.004078907
165	0x3c2b12fe	0.01044154
166	0x3b13e6b5	0.0022567932
167	0x2d685040	1.3205492e-11
168	0x3aff088f	0.0019457507
169	0x390008a5	0.00012210252
170	0x3a473763	0.0007599501
171	0x2dc4f0d2	2.2389566e-11
172	0x3a14639f	0.00056605967
173	0x3a698859	0.0008908562
174	0x39ec495a	0.0004506808
175	0x2c0f6c9e	2.0381817e-12
176	0x298dcaf8	6.296867e-14
177	0x2e272b0a	3.800963e-11
178	0x267390ac	8.450363e-16
179	0x2d64290d	1.2969415e-11
180	0x227ffc15	3.4692395e-18
181	0x2e062457	3.050035e-11
182	0x26097f95	4.770433e-16
183	0x2a057f8a	1.1857022e-13
184	0x3b72eacf	0.0037066226
185	0x3be2cac0	0.0069211423
186	0x3b46b7b1	0.003032189
187	0x2d06a788	7.6542175e-12
188	0x3b393df0	0.0028265677
189	0x3b77cc53	0.0037810996
190	0x3b80e262	0.003933237
191	0x2d108d12	8.216776e-12
192	0x34d9335f	4.0456777e-07
193	0x3d261c39	0.04055426
194	0x381d253c	3.7466394e-05
195	0x2c0bf73b	1.9890329e-12
196	0x3b403155	0.002932628
197	0x3ba84e14	0.0051362608
198	0x3b75956a	0.003747309
199	0x2b4ea951	7.3420875e-13
200	0x3859be6e	5.1914183e-05
201	0x3bc4598b	0.0059921197
202	0x3a4f9a0a	0.0007919377
203	0x2ccc8c38	5.813596e-12
204	0x3a3beda1	0.00071688934
205	0x3b3d0ecc	0.002884793
206	0x3a04d7d6	0.00050675625
207	0x2bdb6ce5	1.559111e-12
208	0x3b0e57c6	0.0021719798
209	0x3bc4c8b6	0.006005372
210	0x327af9dc	1.4608727e-08
211	0x2a42b42a	1.7293168e-13
212	0x3a4e056a	0.0007859083
213	0x3b530e8e	0.003220472
214	0x3a5ebd4d	0.0008496836
215	0x29c54aad	8.7615116e-14
216	0x3a746fc8	0.0009324518
217	0x39c894c8	0.00038257823
218	0x37e643ec	2.7449765e-05
219	0x2894ebfb	1.6533641e-14
220	0x3a6bf280	0.0009000674
221	0x39ef9b0d	0.00045701154
222	0x376b7df4	1.4036417e-05
223	0x2bb1088b	1.2578978e-12
224	0x364f24a3	3.086673e-06
225	0x3b106bf4	0.0022037001
226	0x3a4f87b6	0.0007916646
227	0x2702298e	1.806365e-15
228	0x39371dcd	0.00017463342
229	0x3b124356	0.0022317967
230	0x39291b4c	0.00016127265
231	0x2bb9dc1c	1.3206133e-12
232	0x3af4dba6	0.0018681183
233	0x3c727fbd	0.014800963
234	0x3c14544c	0.009053301
235	0x2b6c2d46	8.390687e-13
236	0x3b973f68	0.004615713
237	0x3c7c4a29	0.0153985405
238	0x3ae23f51	0.0017261301
239	0x2c0b4a48	1.9794322e-12
240	0x3be40252	0.0069582844
241	0x3a770ca6	0.0009424187
242	0x3b44bbe8	0.0030019227
243	0x2b121058	5.18923e-13
244	0x3b7ebd00	0.0038869977
245	0x3affd5df	0.0019518695
246	0x3b788439	0.0037920608
247	0x2d9e3aac	1.7988576e-11
248	0x3a1abd5e	0.00059028517
249	0x2b8d6b5d	1.0048452e-12
250	0x3af569c7	0.0018723541
251	0x2be3f28f	1.6196644e-12
252	0x3aa3fda1	0.00125115
253	0x3929fbb2	0.0001621086
254	0x38be7f1d	9.083583e-05
255	0x2e2ddbea	3.953097e-11

exp_avg f4 [64]
0	0x3ba88738	0.0051430725
1	0x3b065afc	0.0020501008
2	0x80000000	-0.0
3	0x39a20db0	0.00030909246
4	0x3b560946	0.0032659336
5	0xbb8019c8	-0.0039093234
6	0xbae2c800	-0.0017302036
7	0xbac5f71c	-0.0015103552
8	0xb9bb81a0	-0.00035763998
9	0x3aa78fac	0.0012783906
10	0x3a3f3180	0.0007293448
11	0x3b75a9e0	0.0037485287
12	0xb9eac264	-0.0004477679
13	0xba0b33b6	-0.0005310135
14	0x3aa6a090	0.0012712646
15	0xba918893	-0.0011103324
16	0x3a6942c8	0.0008898196
17	0x392ac8e6	0.00016287304
18	0x3a4ab308	0.0007732366
19	0xbbca0054	-0.00616459
20	0x3adbb614	0.0016762638
21	0xb9443ef0	-0.00018715463
22	0xab68bc2c	-8.26841e-13
23	0x3abc36bc	0.0014359574
24	0x3b455570	0.003011074
25	0x3a879fea	0.0010347341
26	0x3aa624c6	0.0012675754
27	0x3a8eef17	0.0010904995
28	0xba41db7e	-0.00073950726
29	0x3b41ace2	0.002955251
30	0x3a86f286	0.0010295666
31	0x3b036733	0.0020050525
32	0x3a1140f8	0.0005540992
33	0xb5740000	-9.0897083e-07
34	0x3b8c30c2	0.0042782733
35	0x39f337a8	0.0004639004
36	0x3b356b91	0.0027682523
37	0x3b502422	0.0031759818
38	0xb853db68	-5.051066e-05
39	0x3b86cd9f	0.0041138674
40	0xb9936e44	-0.0002812018
41	0x39532a78	0.00020138349
42	0xba470bbc	-0.0007592996
43	0xba176e24	-0.0005776605
44	0x3b183012	0.0023222012
45	0xaba24413	-1.1529687e-12
46	0x39fb4df0	0.0004793252
47	0x388748e2	6.450877e-05
48	0xb92676d0	-0.00015875255
49	0x38768924	5.8778693e-05
50	0x39335702	0.00017103183
51	0x3b7dd050	0.00387289
52	0x387338a0	5.798845e-05
53	0x80000000	-0.0
54	0x3a482c10	0.00076359604
55	0x3ac89864	0.0015304205
56	0xba857623	-0.0010182302
57	0x3a20f138	0.000613946
58	0xbb1cf62b	-0.0023950438
59	0x39eca6c8	0.0004513769
60	0xb9638850	-0.00021699187
61	0x3ae35790	0.0017344821
62	0xb9b3ba10	-0.00034280168
63	0xba00aa96	-0.0004908232

exp_avg_sq f4 [64]
0	0x3cb36fb0	0.021903843
1	0x3cf5024b	0.02990832
2	0x2ad4ab47	3.7777613e-13
3	0x3aec2be0	0.0018018447
4	0x3b8d988e	0.0043211645
5	0x3db6e410	0.08930218
6	0x3c05c39c	0.008164313
7	0x3c1e014e	0.009643866
8	0x3a34161e	0.0006869751
9	0x3d4c81cd	0.049928475
10	0x3d1a4187	0.037660148
11	0x3d024f49	0.031813893
12	0x3b818037	0.003952052
13	0x39962550	0.0002863803
14	0x3d38c494	0.045109347
15	0x3ab76340	0.0013991371
16	0x3c59f1fc	0.0133023225
17	0x3a38c3ad	0.0007048201
18	0x3c9b48e5	0.018955657
19	0x3aae2db7	0.001328877
20	0x3d46a85f	0.048500415
21	0x3bc06e29	0.005872507
22	0x2d8eecdc	1.6248718e-11
23	0x3d04e96e	0.03244918
24	0x3d2e4cd7	0.04255375
25	0x3c1ec09c	0.009689476
26	0x3c571cb4	0.013129402
27	0x3b38c011	0.0028190652
28	0x3b488db3	0.0030602037
29	0x3d528cc9	0.051403794
30	0x3ce2c8e4	0.027683683
31	0x3b913f82	0.0044326195
32	0x3e2f52f1	0.17121483
33	0x3c8a34d9	0.016870903
34	0x3dc9755a	0.09836836
35	0x3cc14f7d	0.023597473
36	0x3c8a51a3	0.01688463
37	0x3d8d9daa	0.06914838
38	0x393e374b	0.0001814041
39	0x3d0be20a	0.034151115
40	0x3bde6a46	0.006787571
41	0x3b0754f4	0.0020650001
42	0x3bdcc466	0.0067372797
43	0x3c9fb485	0.019495258
44	0x3cb07a36	0.02154265
45	0x2d945f4c	1.6867972e-11
46	0x3c148d12	0.009066837
47	0x3ac2347a	0.0014816665
48	0x3c0b1086	0.008487826
49	0x3b21dafb	0.0024697173
50	0x3ad1eacb	0.0016015408
51	0x3d1d1fe2	0.038360484
52	0x3bbb5409	0.005716805
53	0x2a86cf1f	2.39469e-13
54	0x3c6edabd	0.014578518
55	0x3c869d78	0.016432509
56	0x3c4e2042	0.012580933
57	0x3c4b61d7	0.012413464
58	0x3c91fe03	0.017821318
59	0x3bc9ae59	0.006154817
60	0x3c10a6c5	0.008828823
61	0x3ced9d90	0.029005796
62	0x3c5559e1	0.013021917
63	0x3bc21aeb	0.005923619

exp_avg f4 [64, 128]
0	0x00000000	0.0
1	0xb6db0962	-6.527801e-06
2	0x00000000	0.0
3	0xb6867288	-4.0068444e-06
4	0x250a3ed6	1.1990882e-16
5	0x3413d939	1.3769467e-07
6	0x36b6b796	5.445395e-06
7	0xb7010a94	-7.691462e-06
8	0x36213ef5	2.4027515e-06
9	0xb681ae0c	-3.8647613e-06
10	0xb640bcc4	-2.8720106e-06
11	0x00000000	0.0
12	0xb6982fbc	-4.53551e-06
13	0x80000000	-0.0
14	0x80000000	-0.0
15	0x80000000	-0.0
16	0x3628325a	2.506326e-06
17	0xb6e24e50	-6.7444416e-06
18	0x36816fc9	3.857513e-06
19	0x34115112	1.353367e-07
20	0x35f94068	1.857069e-06
21	0x35e76a85	1.7241842e-06
22	0x80000000	-0.0
23	0x36b3f473	5.3630733e-06
24	0x80000000	-0.0
25	0x80000000	-0.0
26	0xb6f58b5f	-7.317794e-06
27	0x3501e6bd	4.8392013e-07
28	0x3339a086	4.3219664e-08
29	0xb62240ff	-2.4177714e-06
30	0x36daf4f0	6.5254208e-06
31	0x80000000	-0.0
32	0x37045f84	7.890052e-06
33	0xb2a1e3dc	-1.8846485e-08
34	0x34cb20bb	3.783551e-07
35	0xb62252b9	-2.4188032e-06
36	0xb07a75ba	-9.111677e-10
37	0xb6292c1e	-2.5208642e-06
38	0xb5de1e75	-1.6549153e-06
39	0xb6967146	-4.483535e-06
40	0x3637fcc6	2.7416258e-06
41	0xb6d67ab0	-6.3919797e-06
42	0x80000000	-0.0
43	0xb6abf928	-5.1252027e-06
44	0x36e54e7e	6.8338695e-06
45	0x00000000	0.0
46	0xb688a34d	-4.0721266e-06
47	0x3596cd4b	1.1235619e-06
48	0x35a4b34f	1.2271138e-06
49	0x00000000	0.0
50	0x80000000	-0.0
51	0x36531b2e	3.145727e-06
52	0x368328bb	3.908846e-06
53	0x80000000	-0.0
54	0xb6939c99	-4.3991718e-06
55	0x362c3e2a	2.5666182e-06
56	0xb6cdc60c	-6.132532e-06
57	0x36b23304	5.3107524e-06
58	0x346dd67a	2.2150371e-07
59	0xb63012b0	-2.6236921e-06
60	0x36467f81	2.9578516e-06
61	0xb613586b	-2.1956173e-06
62	0x3363d4d2	5.3046115e-08
63	0x80000000	-0.0
64	0x36a9a2c4	5.055541e-06
65	0xb6adaadc	-5.1756924e-06
66	0x80000000	-0.0
67	0x3608272d	2.0288383e-06
68	0xb19f6855	-4.63937e-09
69	0xb3af684e	-8.1680454e-08
70	0xb5fa36f5	-1.8642446e-06
71	0x36428b5a	2.8989366e-06
72	0xb226ea8d	-9.715802e-09
73	0xb5ffe2c0	-1.9064973e-06
74	0x3502cf4c	4.873043e-07
75	0x36ba207c	5.5470136e-06
76	0xb64c04fa	-3.0401266e-06
77	0x34890e40	2.5528607e-07
78	0xb5d5f88c	-1.5942073e-06
79	0x2e42ebff	4.43201e-11
80	0x36886868	4.0652703e-06
81	0x363d1fa6	2.8181616e-06
82	0xb6e3c276	-6.7877654e-06
83	0xb12d11d6	-2.5184952e-09
84	0xb60b313c	-2.0741272e-06
85	0x36ad1b5a	5.158986e-06
86	0x00000000	0.0
87	0x36e993a0	6.961127e-06
88	0xb577fe96	-9.238514e-07
89	0xb7218e16	-9.62943e-06
90	0xb686681c	-4.005631e-06
91	0xb61994ee	-2.2885465e-06
92	0xb6262295	-2.4756057e-06
93	0xb61636d0	-2.2383647e-06
94	0xb6dd7f46	-6.60113e-06
95	0x358e7398	1.0613467e-06
96	0xb70a893b	-8.257392e-06
97	0x36e33d66	6.772275e-06
98	0x35fa8933	1.8666382e-06
99	0xb6715ac7	-3.5964638e-06
100	0x361429e4	2.2078102e-06
101	0x355aa3fc	8.144996e-07
102	0xae169285	-3.4236187e-11
103	0xb615283a	-2.2226145e-06
104	0xb5321d70	-6.6353005e-07
105	0x3671c88e	3.6028537e-06
106	0x3463d4bf	2.1218419e-07
107	0x36282204	2.505375e-06
108	0x36ebff9d	7.033303e-06
109	0x00000000	0.0
110	0x35aeb5b0	1.3016888e-06
111	0x80000000	-0.0
112	0x35afbedb	1.3094062e-06
113	0x3669df23	3.4849588e-06
114	0x350dbeae	5.280407e-07
115	0xb489f884	-2.5699057e-07
116	0xb634a1ba	-2.6916227e-06
117	0x00000000	0.0
118	0xb54cb299	-7.6255816e-07
119	0xb60089a8	-1.9153613e-06
120	0xb6fdab37	-7.5599196e-06
121	0xb68c6622	-4.184215e-06
122	0xb4def3df	-4.1528162e-07
123	0xb3cd3a5c	-9.556672e-08
124	0x3511ae22	5.4270106e-07
125	0xb6a1fe50	-4.82778e-06
126	0xa9051c6a	-2.9556578e-14
127	0x348fd4a4	2.6790542e-07
128	0x38794540	5.943072e-05
129	0x3b2dbf8f	0.0026511883
130	0x80000000	-0.0
131	0xb7b8913a	-2.2002136e-05
132	0x39ef22ae	0.0004561147
133	0x3771bb90	1.440839e-05
134	0x39a85d08	0.0003211277
135	0x3a4781fe	0.0007610618
136	0x380a2c5e	3.2943084e-05
137	0x3b4cd47f	0.0031254587
138	0xb8785d24	-5.921455e-05
139	0x3a702360	0.0009160545
140	0x390216ac	0.00012406212
141	0xb8eb6e00	-0.00011226162
142	0xb8585c0e	-5.1584146e-05
143	0x3896ec2a	7.196546e-05
144	0x39ab302c	0.00032651552
145	0xb90dda93	-0.00013528233
146	0x3a6bc0c5	0.00089932635
147	0x38a968a5	8.0780395e-05
148	0x3a0f1866	0.0005458653
149	0x38c6a3b0	9.471865e-05
150	0x80000000	-0.0
151	0x3b1cd7c1	0.002393231
152	0x39f15ec4	0.00046037708
153	0xb993a29c	-0.00028159178
154	0x3a1205f4	0.0005570345
155	0xb84220f6	-4.62839e-05
156	0x3a56dfe8	0.0008196817
157	0x3a43e856	0.00074732804
158	0xb74e94e0	-1.23132195e-05
159	0xb752a980	-1.255644e-05
160	0x3afaedd6	0.0019144367
161	0x3a58846d	0.0008259479
162	0x3b430447	0.0029757188
163	0x3ad5affb	0.0016303057
164	0xb864c199	-5.4539738e-05
165	0x3ac79b68	0.001522881
166	0x380198b0	3.0898198e-05
167	0x3a95b6d2	0.0011422283
168	0x39ca49c9	0.00038583417
169	0x3aa63df8	0.0012683263
170	0xb761211a	-1.3418752e-05
171	0x3988e36c	0.00026109384
172	0x3b0678b5	0.0020518724
173	0x00000000	0.0
174	0x3ada2136	0.0016641978
175	0x383a0acb	4.4355907e-05
176	0xb8007f56	-3.063617e-05
177	0x379eaf78	1.8916777e-05
178	0x388bd6b3	6.668027e-05
179	0x3b0f3939	0.0021854176
180	0x3ab699a3	0.0013931285
181	0x00000000	0.0
182	0x3a9897be	0.0011641902
183	0x3b04c219	0.0020257293
184	0x3a5590e0	0.0008146893
185	0x3abbadc3	0.0014318753
186	0xb8539308	-5.0443254e-05
187	0x39c1e52a	0.0003698257
188	0x383cb430	4.4990506e-05
189	0x3b27b7d4	0.0025591748
190	0xb7a0543e	-1.9112715e-05
191	0x3739a3d3	1.1065003e-05
192	0xb9c2343c	-0.0003704148
193	0xbb389c6e	-0.0028169411
194	0x00000000	0.0
195	0x396239fa	0.00021574638
196	0xba009240	-0.00049046054
197	0xb8736520	-5.8029895e-05
198	0xb90b3e20	-0.00013279216
199	0xbae3b844	-0.0017373641
200	0x388c61aa	6.6939116e-05
201	0xbb55753a	-0.0032571093
202	0x38880dc8	6.487552e-05
203	0xbaa0c748	-0.0012266422
204	0xb9efcbba	-0.0004573742
205	0x385025d5	4.96263e-05
206	0xb7a907d0	-2.0150008e-05
207	0xb8f25a1c	-0.000115562434
208	0x394902d8	0.00019169913
209	0x39839d83	0.00025103622
210	0xba4d9ce3	-0.00078435073
211	0xb9169502	-0.00014360624
212	0xba61c716	-0.0008612735
213	0xb986ec88	-0.000257347
214	0x80000000	-0.0
215	0xbb34febe	-0.0027617658
216	0xb9e40830	-0.0004349365
217	0xba5a5577	-0.00083287753
218	0xb9cecea6	-0.00039445347
219	0x38b16184	8.4581814e-05
220	0xbaa67928	-0.0012700902
221	0xbaa87f4b	-0.0012855319
222	0x3905bc88	0.00012754102
223	0x384160c3	4.6104902e-05
224	0xbb1ecf2a	-0.0024232366
225	0xbaccde65	-0.0015630244
226	0xbb5d38ae	-0.0033755708
227	0xbb400085	-0.0029297185
228	0x3886c70c	6.426693e-05
229	0xbad3998e	-0.0016143785
230	0xb84b3ec2	-4.845742e-05
231	0xbab23370	-0.0013595652
232	0xba1e58ee	-0.0006040473
233	0xbb00bba6	-0.0019643097
234	0xb80e49bd	-3.3924112e-05
235	0xb956ca3a	-0.00020483966
236	0xbaf8aa0e	-0.0018971579
237	0x00000000	0.0
238	0xbacabf7c	-0.0015468444
239	0xb8438d7a	-4.6623383e-05
240	0xb7ae8ab0	-2.0806998e-05
241	0xb932e9d9	-0.00017062518
242	0xb75021d4	-1.2405642e-05
243	0xbb1ff9a3	-0.002441027
244	0xbb1e648a	-0.0024168813
245	0x00000000	0.0
246	0xbacbb38e	-0.0015541182
247	0xbb0b5c14	-0.00212646
248	0xbac7f4ec	-0.0015255488
249	0xba60b5e1	-0.0008572024
250	0x3934c9dd	0.00017241338
251	0xb9cf72c4	-0.00039567624
252	0x390623fa	0.00012792638
253	0xbb1d7fc2	-0.0024032448
254	0x37e88ffc	2.7723603e-05
255	0x36ba11b0	5.545291e-06
