checkpoints/checkpoint_colors-3_223919_epoch300_seed0000111.pth.tar (torch_old, 111501 bytes, 18 tensors)

graph_layers.0.fc.0.weight f4 [64, 8]
00000000: bc30 3a3d 01bc e43e ad01 89bc ea0e 0080
00000010: 4d0a 253d da76 cfbc eee1 553e 200f 0080
00000020: 97df ff3c 82fd 973e 0b65 d0be 0c2f 0000
00000030: bb20 283e 5ff0 4ebe 3a6f 2f3d 5710 0080
00000040: 760e 0080 850c 0080 5403 0080 b609 0000
00000050: 790b 0000 820c 0000 890e 0000 530f 0080
00000060: b430 b53e f7ad 36be a1dc 55b8 ed0c 0080
00000070: 5a83 d3be 0db5 96bd 0246 82be c506 0080
00000080: ccbe fcbc f681 823e 141c 83be 510f 0000
00000090: 56e6 f53b 9769 76be 7457 3a3b 750b 0000
000000a0: f423 25bd fee5 cebe b45b 383c 420c 0080
000000b0: 24a2 dc3c 0e6f 4ebd 1fe6 93bb 870f 0080
000000c0: 967f 953e a726 62be 5a87 7fbd 2a0d 0000
000000d0: 88f4 953e 6344 c8be 640c b4be e60c 0000
000000e0: 96ca 3bbe a7c1 f8bc 70ac 4c3e 7b10 0000
000000f0: d987 45be c8b0 bdbe 19d6 bc3d 0c0e 0000
00000100: 652c 803e 4dbf 43be 993b bcbd 8d0d 0000
00000110: 2ee1 5d3d aa6e 4d3d a59d 1dbe 050f 0000
00000120: 625f 47bd 36f4 f73e 8a69 d3be ea0e 0000
00000130: 1b9d 033e 7fa6 6dbe 5920 cbbd 8410 0080
00000140: 83bc 733e b13c 49be d71a 3b3e 2e08 0000
00000150: 67fd 733d 8edb 583e 96f4 d5bd 370c 0080
00000160: 62ab d8be f39d d83e 3d4f fdbd be0e 0000
00000170: dc5a 5abc 2a09 983e 7f45 75bd 810d 0080
00000180: ab37 87bc 33fa 4cbe 6958 0b3e 2e0e 0080
00000190: 6703 67be 416d 39be 89bf 6bbd 4530 0000
000001a0: 9f33 243d 8f4f 413f ad4c 013e da0f 0000
000001b0: ee40 a6be 29db 443e 7b7c 97bd eb0d 0000
000001c0: 51b8 723e 23bb 7abe 4614 9d3e 7d0c 0080
000001d0: cd8f 353b ce38 a53b a50a 8a3e da0c 0000
000001e0: cb16 59be 73c3 c13e 369b 99bd 440f 0000
000001f0: aba6 db3d 2241 64be 8992 4bbe 1510 0080
00000200: 251a 4c3e 5260 c43d 3845 9bbe 540a 0000
00000210: ace8 8a3d 69f0 a9bb 87d4 62be 6f0e 0080
00000220: 0a4e c23e 34ad 823e bd1b 4ebe 340d 0080
00000230: 8fc0 89be 1c3b 183d fc32 29bc 340d 0000
00000240: f996 2b3e 5347 c73d e082 9abe 2d0d 0080
00000250: 77a6 96bc 51e5 40be d84d d33d a210 0080
00000260: 6f34 fd3c 115b 90be 386c 183e ba0e 0000
00000270: 7aad 6bbe 3640 a0bd bdd5 0abe 9a01 0000
00000280: f948 1a3e 3f5e b93e fa60 e1bd 830e 0080
00000290: a935 1ebc e25f bdbd ac99 213e 2f0e 0000
000002a0: b8ea ce3e 25a4 37bd c258 a63e 680f 0000
000002b0: 965c 9f3e 00f4 10be 0f55 3c3e af0f 0080
000002c0: ed0a 0080 3ed8 8891 1331 0000 2a0e 0080
000002d0: 4805 0000 6fdc 9109 ce0c 0000 6b06 0080
000002e0: fe9a 9ebe 9b9a a03e ef12 6dbe c20e 0000
000002f0: 8527 5cbd 8b2b 8dbd 882b a1be a80e 0000
00000300: bac4 0bbf fdfa 933e 9b41 24be 0d0b 0000
00000310: 20a0 893d b121 e43d 5eae 8ebe 190e 0080
00000320: 45ff febe e690 a53e 037d f73d e60b 0000
00000330: a1a6 82be 4cb6 273e 574d 943d 970f 0080
00000340: 652f 0c3e 84f9 c43e 404a 81be f706 0000
00000350: 709b 75bd fec8 8b3d 2d6a 50be 0703 0000
00000360: 7858 69bc 2150 b83d d25a c3be b832 0080
00000370: 6dbf 87be 588b 24be 38a3 413e 6a0c 0000
00000380: 371e a6be b6e3 e23d 80a6 8d3d 5d1b 0080
00000390: c37a 1fbd dffb 57be a357 90bd 690d 0080
000003a0: b91a cabd 2a3b 053e 91b2 4c3d d00b 0000
000003b0: 0e7d b73d f84d c1bd 7fca 5e3e 570f 0000
000003c0: a58c 903e b5ce 8cbd 593c 033e 5c0a 0000
000003d0: fd7a 5abe e44f 403d 8f83 8fbe 4d0f 0080
000003e0: bf0e fc3e 96b0 f03d e1f2 033f 590e 0000
000003f0: a497 56be b9c4 b93d 9126 103e 0c0e 0080
0.045456633 0.44674686 -0.016724432 -5.35e-42 0.040293027 -0.025325228 0.20886967 -5.426e-42
0.031234546 0.296856 -0.4070209 1.6877e-41 0.16418736 -0.20208882 0.042830683 -5.862e-42
-5.188e-42 -4.491e-42 -1.194e-42 3.484e-42 4.116e-42 4.487e-42 5.214e-42 -5.497e-42
0.3538872 -0.178398 -5.0988634e-05 -4.637e-42 -0.4131115 -0.073587514 -0.25444037 -2.428e-42
-0.030852698 0.25489777 -0.2560736 5.494e-42 0.007504265 -0.24063717 0.0028433474 4.11e-42
-0.04031749 -0.40409845 0.0112523325 -4.397e-42 0.026932783 -0.05039888 -0.0045135166 -5.57e-42
0.29198903 -0.22085057 -0.06238494 4.722e-42 0.29288125 -0.39114675 -0.35165703 4.627e-42
-0.18338999 -0.030365778 0.19987655 5.912e-42 -0.19290103 -0.37048936 0.092205234 5.039e-42
0.2503387 -0.19115944 -0.09191055 4.861e-42 0.054169826 0.050154366 -0.15392168 5.388e-42
-0.04867495 0.48428506 -0.41291457 5.35e-42 0.128529 -0.23208044 -0.09918279 -5.925e-42
0.2380238 -0.19652058 0.18271957 2.934e-42 0.059567835 0.21177503 -0.10447042 -4.382e-42
-0.42318255 0.42308006 -0.12368629 5.289e-42 -0.013327327 0.29694492 -0.05988073 -4.844e-42
-0.016506037 -0.20017318 0.13607945 -5.087e-42 -0.22559892 -0.18108083 -0.05755571 1.7316e-41
0.040088292 0.7551202 0.12626906 5.686e-42 -0.32471412 0.19224228 -0.0739679 4.993e-42
0.23703124 -0.2448545 0.3067953 -4.48e-42 0.002770412 0.005042172 0.26961246 4.61e-42
-0.21200101 0.37844428 -0.07500307 5.476e-42 0.10725149 -0.22290471 -0.19880117 -5.769e-42
0.19931848 0.09588684 -0.30326247 3.705e-42 0.0678266 -0.00518613 -0.22151385 -5.178e-42
0.37950164 0.25522768 -0.20127769 -4.736e-42 -0.26904723 0.037165746 -0.010327097 4.736e-42
0.1675681 0.09730401 -0.30177975 -4.727e-42 -0.018389923 -0.18837477 0.10317582 -5.967e-42
0.030908791 -0.28194478 0.14885032 5.283e-42 -0.23015395 -0.07824747 -0.13558097 5.75e-43
0.150669 0.36204717 -0.11004825 -5.206e-42 -0.009656348 -0.09246804 0.15781277 5.088e-42
0.4041345 -0.044834275 0.32489592 5.527e-42 0.31125325 -0.14155579 0.18391822 -5.626e-42
-3.92e-42 -2.1590286e-28 1.7605e-41 -5.081e-42 1.895e-42 3.5114775e-33 4.593e-42 -2.302e-42
-0.30977625 0.31367955 -0.23151754 5.294e-42 -0.053748626 -0.06893071 -0.31478524 5.258e-42
-0.54597056 0.28902426 -0.16040652 3.964e-42 0.067199945 0.111392386 -0.27867407 -5.057e-42
-0.4980413 0.3233711 0.12084391 4.268e-42 -0.25517753 0.16378134 0.07241314 -5.593e-42
0.13689955 0.38471615 -0.2525196 2.499e-42 -0.05996269 0.068254456 -0.20353003 1.086e-42
-0.014242284 0.089996584 -0.38155228 -1.8194e-41 -0.26513234 -0.1606878 0.1890992 4.453e-42
-0.32444927 0.11078589 0.06916523 -9.816e-42 -0.038935434 -0.21092175 -0.070479654 -4.81e-42
-0.09868378 0.1301085 0.04997498 4.238e-42 0.08959399 -0.094386995 0.21756934 5.503e-42
0.28232303 -0.06875364 0.1281599 3.716e-42 -0.21335979 0.04695119 -0.2803006 -5.489e-42
0.4923 0.11752431 0.5154248 5.147e-42 -0.20956284 0.09070725 0.14077212 -5.039e-42

graph_layers.0.fc.0.bias f4 [64]
00000000: 3ac2 a1bc 00cf bb3e cf0e 0080 b1f1 583c
00000010: fbf0 f43c ac0c a43e 7749 093e fc94 683e
00000020: bf6c 803c a7a0 4e3e 9217 d83e 27f4 a63e
00000030: 7d96 5d3e c76e 643c 0f50 7a3e 44d8 93bc
00000040: 6c55 853e 17fe 3bbc 71e2 6f3e df1a 143e
00000050: 8a85 813c ad98 e53e b870 2991 913b ac3e
00000060: 6afd 663e 8d3a 623e fbb1 463d 45f7 f03d
00000070: 8819 593e a3b4 5e3e 845e 743e a274 23bd
00000080: 6fec 7c3e 5403 df3c 437a 443e 975a 4c3e
00000090: d9bc 923e aaeb a93d 3b99 36be 6621 a83e
000000a0: 1454 85be 7fc0 a13e 87b0 febd 3445 38be
000000b0: 7915 763e cc0e 0080 060d 593e 916f 47be
000000c0: f235 f73d 31b0 a2bd 9e27 923d c66a c93e
000000d0: 7db8 613e e30d 0080 e3bf 953e 3cdc bb3e
000000e0: 06c0 b23e 9ae9 4f3e 6b9f 43be 0bfc 1a3d
000000f0: 6df4 693e 10b5 5c3d 2c23 e8bd 1663 18bd
-0.019745935 0.36681366 -5.312e-42 0.0132412175 0.029900065 0.32040918 0.13406931 0.22713083
0.015676854 0.20178472 0.42205483 0.32608148 0.21639438 0.013942427 0.24444602 -0.01804746
0.26041734 -0.011474154 0.23426224 0.14463376 0.015810747 0.44843045 -1.3366483e-28 0.33639196
0.22557607 0.22092648 0.04850958 0.11765913 0.21201146 0.21748595 0.2386418 -0.03990615
0.24699567 0.027223267 0.19187264 0.19956432 0.28659704 0.082969025 -0.1783189 0.3283798
-0.2604071 0.31592175 -0.12436014 -0.17995149 0.24031629 -5.308e-42 0.21196374 -0.19476153
0.12070836 -0.07943762 0.07136463 0.39339274 0.22043033 -4.982e-42 0.2924796 0.36691463
0.34912127 0.20303956 -0.19103782 0.037838023 0.22847147 0.053883612 -0.113348335 -0.03720387

graph_layers.1.proj.weight f4 [1, 4]
00000000: 9869 c33f 82c0 0540 12db 2a3f d766 e722
1.52666 2.0898747 0.66740525 6.272156e-18

graph_layers.2.fc.0.weight f4 [64, 128]
00000000: d3ce 32be bf69 9bbd 7f0a 0080 7fb9 cebc
00000010: 021e 4bbe 62f7 1d3e 6776 a83d 883e 11bc
00000020: 13cf d13d 07da 97bd 4854 02bd 94cd 1cbe
00000030: fc0e 17bd 4509 debe d158 ebbb 8818 10be
00000040: 864d 3dbd 7fdb 83bd 3637 ba3b 3f74 113e
00000050: 8bbe a8bd 9b95 acbd 8008 0000 b619 f5bd
00000060: acfc 95be 7e35 3ebe af83 bcbd 89e7 02be
00000070: ad94 d5bd af96 fcbd d1e5 48bd e820 433d
00000080: 90b7 093c 356c 6dbd 9398 ffbd cc58 74bd
00000090: c8bf ed3d 47f4 42bd 5b3d 98bc 38ac bbbd
000000a0: db25 123c cce3 debd 4f4a b7bb b60f 04bc
000000b0: 8317 f4bd cb0b 0000 1a8a 7ebd 2596 82bb
000000c0: 5318 af3d bd53 253d 2b96 e13d 469b 2cbe
000000d0: c961 a4bc 060b 0080 0157 21be fbe9 3fbc
000000e0: ef76 5b3c 3a88 bebc f13f 27bd c452 c63c
000000f0: fe79 2bbd 0ff9 8ebd 379a d33d 7f39 ac3d
00000100: df32 1bbd 98f1 a83c 6f2f 0080 3a37 123c
00000110: 60a6 ab3d 8b38 06bd 99e0 4bbd 417b a6bc
00000120: dbb0 03bd 36c7 923d a85d 9f3d bc6c 8f3d
00000130: 7461 013c b640 95bd ac85 96bc df66 fcbc
00000140: 52e7 b3bc 8490 16bd 95e7 6bbd fd4b 49bd
00000150: fc68 91bd 7c57 b93d 4c0e 0000 7820 babb
00000160: cd40 1a3b ee33 f13c a438 99bd dd13 52bd
00000170: 9368 063d 6de6 ba3c b88b c43c 956d ca3b
00000180: de9b b03d 4d66 533d 12f4 d83c e9f4 21bd
00000190: 1627 013c 804f 943d d0d1 9b3a 2d1c ad3a
000001a0: 8e71 983b c9df a13d 713b 9a3d d92a 5ebc
000001b0: d6d9 10bd 300d 0080 8ed9 f6bc 9615 a43c
000001c0: 7d9c 9b3d 16d2 9b3c 1970 f4bc 845a 023d
000001d0: 18f9 40bd b704 0000 e5e4 8a3c cb05 98bc
000001e0: 0b3a 403d a830 de3c c354 053d 5cdf a7bc
000001f0: 5e5b 2f3d f745 ccba 1792 b3bb 15cc 963d
00000200: dd3d 863e 3f21 2c3e 910d 0080 6664 5dbe
00000210: 02dc 723e 9445 12be 073a 3c3d a1b1 293e
00000220: e9aa 20be d00b 123d af9d d2bd 008d 783e
00000230: de5e ed3d 9abc a13e 01cd 7cbd 0cfa 1f3e
00000240: 1cc9 0a3e 423c 4e3e 4c99 e33d f84b 85be
00000250: 66e4 5a3e bc07 b73d f605 0080 89c5 543e
00000260: 59d5 873e 209d 0a3e 9ada 3f3e d3ec 653e
00000270: 7cc1 783e b0b3 cc3d 0135 9bba 9c7a 25be
00000280: 74e9 c83d aa88 4c3e 1719 243e b77c bc3d
00000290: efc2 67be ddc8 483e 0d5b 6d3e c0cb 573e
000002a0: 107a 693e adaf 5a3e 018f 4bbd f8c8 213e
000002b0: 262b 3a3d db02 0000 827a ee3c ab8c 4d3e
000002c0: d96e a0bd 03c7 53be d363 7ebe bbbf 3f3e
000002d0: d4d5 433e bd09 0000 cc12 493e 59d5 903d
000002e0: 89e4 fe3d 4cf7 653d 93d4 9a3d 9e52 133e
000002f0: 98d5 173e 0dd6 2c3e e521 423c 9af5 01bd
00000300: feb5 373d 2df7 733d 960a 0080 bf18 643e
00000310: 4e67 f7bd b64a 50be cc05 cabc 752a 30bd
00000320: c217 dc3c 0d29 66bd 50fb 7bbd 3a90 773c
00000330: 5216 06be 0b7b aebd 2fb6 5cbe cb55 54bd
00000340: bbb3 57bd 736e 993d 2e2b 943c 6594 28bd
00000350: 234e e03a 9c97 90bd 1f32 0000 708c 80bc
00000360: 719d 823c c37b 0dbe 6c67 803d 17f9 73bd
00000370: 5d87 0f3c d0fd 04be c140 dfba 6745 68bc
00000380: 1f04 29bd 6722 80bd 2978 383d 51f7 c4bc
00000390: 54e8 c63e b628 6ebb ebc6 8bbe 89d2 3d3d
000003a0: ea31 63bd 474b dabb bd03 dabd a5b5 b4bb
000003b0: 71a1 31bb 8309 0000 0b93 48bd bc3a 1e3d
000003c0: 0cd0 5fbe 5e06 cabd 0453 fb3d b284 113d
000003d0: 7942 3bbd b608 0080 fa13 adbd c8b3 8fbd
000003e0: a8df 1fbd 21c5 bbbb 2058 fa3d 4dac c0bc
000003f0: c157 aabc 64cd 3fbc f98b 1ebd 6285 5abe
-0.1746171 -0.07588529 -3.765e-42 -0.025234936 -0.19835666 0.154264 0.082257085 -0.008865006
0.102445744 -0.07414632 -0.031818658 -0.15312797 -0.036879525 -0.43366447 -0.0071822186 -0.14071858
-0.04621651 -0.0643835 0.005682851 0.142045 -0.08239468 -0.084269725 3.049e-42 -0.119677946
-0.29294336 -0.18575093 -0.09204804 -0.12783636 -0.10428748 -0.12333428 -0.049047295 0.047638804
0.008405581 -0.057964522 -0.12480273 -0.059654996 0.11608845 -0.047596242 -0.018583944 -0.091637075
0.008920158 -0.108832926 -0.005593575 -0.008060386 -0.11918547 4.23e-42 -0.062143423 -0.003985184
0.08549561 0.040363062 0.110149704 -0.16856107 -0.020066159 -3.954e-42 -0.15755846 -0.0117135
0.013395055 -0.023258317 -0.040832464 0.024209388 -0.041864388 -0.06981098 0.103321485 0.08409404
-0.03789031 0.020623013 -1.7016e-41 0.0089243 0.08381343 -0.032768767 -0.04977474 -0.020322444
-0.032151084 0.07166903 0.077815354 0.07003161 0.00789677 -0.07287733 -0.018374287 -0.030810772
-0.021960888 -0.036758915 -0.0575939 -0.049144734 -0.07100102 0.090498894 5.129e-42 -0.00568014
0.002353716 0.029443707 -0.074815065 -0.051288474 0.032814573 0.022814954 0.023992404 0.006177614
0.08623479 0.051611234 0.02648357 -0.039540205 0.007882854 0.07241726 0.001188809 0.001320725
0.0046522086 0.07904012 0.07530869 -0.01356002 -0.035363995 -4.731e-42 -0.030133035 0.020029824
0.07598207 0.019021075 -0.029838609 0.031824604 -0.047112554 1.691e-42 0.016954849 -0.01855745
0.046930354 0.02712281 0.03255154 -0.020492248 0.042811744 -0.0015584816 -0.0054800618 0.07363144
0.26219073 0.16809557 -4.867e-42 -0.2162033 0.23716739 -0.14284354 0.045953777 0.16571666
-0.15690197 0.035655797 -0.10283982 0.24272537 0.1159036 0.31589204 -0.061718944 0.15622729
0.1355328 0.20140174 0.111132234 -0.26034522 0.2137619 0.08937022 -2.138e-42 0.20778479
0.2652996 0.13536501 0.18735734 0.22453623 0.24292558 0.0999521 -0.0011841358 -0.16160053
0.09810153 0.19974008 0.16025196 0.09203475 -0.22632955 0.19607873 0.23179264 0.21073818
0.2280047 0.21356077 -0.049696926 0.1579932 0.045451306 1.024e-42 0.02911115 0.20073192
-0.078336425 -0.20681386 -0.24842767 0.18725483 0.19124538 3.493e-42 0.19636077 0.07071943
0.12445933 0.056144044 0.075600766 0.14386985 0.14827573 0.16878529 0.011848901 -0.031728365
0.044851296 0.059561897 -3.798e-42 0.22275065 -0.12080251 -0.20341 -0.024660967 -0.04300924
0.026866797 -0.056191493 -0.061518967 0.01511007 -0.13094452 -0.08519562 -0.21553873 -0.05183963
-0.05266164 0.0749177 0.018086996 -0.041157145 0.001711313 -0.07060167 1.798e-41 -0.015691966
0.015944215 -0.13816743 0.06269726 -0.059563722 0.0087603 -0.12987447 -0.0017032848 -0.014176703
-0.041263696 -0.06256562 0.04503647 -0.02404371 0.38849127 -0.0036340184 -0.273002 0.04634336
-0.055467524 -0.006661806 -0.10645244 -0.005514818 -0.0027104283 3.412e-42 -0.048968356 0.038630232
-0.21856707 -0.09864496 0.12271693 0.03552694 -0.04571769 -3.125e-42 -0.08451076 -0.070167124
-0.039031655 -0.0057302867 0.1222384 -0.02351966 -0.020793797 -0.011706684 -0.038707707 -0.21339944

graph_layers.2.fc.0.bias f4 [64]
00000000: b320 fa3d de93 49be ce05 0080 e32a eb3d
00000010: 7904 24bb 32b8 003e 2546 6e3e 4ec8 da3d
00000020: 1ff1 a53d da33 693e 3d4c 323e 3625 b1bd
00000030: 431a 133e e25c de3d 0af3 82bd 4dd5 4d3e
00000040: 7e6b 033e 5799 013e 3e86 c8bd fd09 0080
00000050: 750e 083e b9f3 a3bb 49b4 363e 421b b73d
00000060: 7dad 083e 6d01 2f3e 8e78 1f3e 5238 6ebd
00000070: 0169 383e 968c 133b 63cd 4dbe b000 a4bd
00000080: 0ce2 a6bd b990 2f3e 9b4e fdba 7b36 ee3d
00000090: fb15 b43d 9c98 1d3e 6c6e d9ba d6e5 613e
000000a0: 5922 098f 1776 283e 9888 183e 9e54 003e
000000b0: d9fe ca3d a6de 3d3e 340c c23d c236 83bd
000000c0: 8e89 e23d 5e7d f73d fb0f 0080 e713 9e9c
000000d0: 3648 98bd fe9a ce3d 41a4 1cb7 b3eb faac
000000e0: 1deb a23c 3973 a9bd d0da 613e 543a 113e
000000f0: 350f 0080 0bdc deae 57e7 f8bd 57c3 993d
0.12213268 -0.19685313 -2.082e-42 0.11482789 -0.002502708 0.12570265 0.23268946 0.10682736
0.08102631 0.22773686 0.17411895 -0.086496755 0.14365487 0.1085756 -0.06394012 0.20100899
0.12833974 0.12656151 -0.0979123 -3.583e-42 0.13286765 -0.0050034192 0.17842211 0.08940746
0.1334743 0.17090388 0.15573332 -0.05815918 0.18008806 0.0022514216 -0.2009788 -0.08007944
-0.08148584 0.17145051 -0.0019325794 0.11631485 0.08793255 0.15390247 -0.0016588694 0.22060332
-6.7612366e-30 0.16451298 0.14895856 0.12532279 0.099118896 0.18541965 0.09474984 -0.064069286
0.11061393 0.12084459 -5.733e-42 -1.0460708e-21 -0.07435648 0.10088156 -9.336568e-06 -7.1315952e-12
0.019887501 -0.0827393 0.22056127 0.14182407 -5.455e-42 -1.0134479e-10 -0.121534996 0.07507961

fc.0.weight f4 [1, 64]
00000000: 1890 e8bd 9135 2dbf ae0a 0000 803f 0d3e
00000010: e13f c539 51d3 253e 0056 bd3e ccc2 dbbd
00000020: fd68 8cbe 071a a13e 8980 073e d44c 77be
00000030: 8f51 513e 76b5 3cbe ec0c 8cbe 2c6c d23d
00000040: d7bd 213e e0c4 f43d fd58 90be b90c 0000
00000050: 2705 09be 74c6 b2bb 44eb 923e 6425 12be
00000060: 8a0a 98be 8205 373e cbc3 203e ef56 27be
00000070: e59d 003e 6009 19bd cd32 edbe 005c 34be
00000080: 9574 1abe 33ec 143e 9399 d0bb 9c71 3fbe
00000090: 4404 c7bd e20c 4b3e 6172 27bb 353e 0fbf
000000a0: 8005 0000 acb1 e73d 8254 383e e6d2 e5be
000000b0: 597d 9fbd e341 0b3e a282 453e 7176 11be
000000c0: 1014 2d3e 137a 0dbe 5e74 5db3 710e 0000
000000d0: 8b24 91be 063c 09be d806 0000 a10e 0000
000000e0: 74fe 3dbd 258c 893e 3bee d4be 36c8 fdbd
000000f0: d30b 0080 206e 8bb5 b504 9fbe badb 07be
-0.11355609 -0.6765986 3.831e-42 0.13793755 0.00037622362 0.16193892 0.36979675 -0.10730514
-0.2742385 0.3146517 0.13232626 -0.24150401 0.20441268 -0.18428597 -0.2735361 0.102745384
0.15795074 0.119516134 -0.28192893 4.564e-42 -0.13380872 -0.0054557864 0.28695118 -0.14272076
-0.2969554 0.17873195 0.15699689 -0.16341756 0.12560232 -0.037362456 -0.4632782 -0.1761322
-0.15083535 0.14543228 -0.0063659637 -0.18695682 -0.097176105 0.19829133 -0.0025550353 -0.55954295
1.973e-42 0.11313185 0.18000987 -0.44887465 -0.0778758 0.13599353 0.19288114 -0.14205338
0.16902184 -0.13816099 -5.1561408e-08 5.18e-42 -0.28348193 -0.13401803 2.455e-42 5.248e-42
-0.046385244 0.26864734 -0.41588005 -0.12391703 -4.242e-42 -1.0388358e-06 -0.3105828 -0.13267413

exp_avg f4 [64, 8]
00000000: 3e5f 01bb 87ad 03ba 159a e0b5 0000 0080
00000010: ba7d 833a 00a8 ca37 74ab b1b9 0000 0080
00000020: a36b 0cbb 5a7e 11ba 198c 8039 0000 0000
00000030: de47 9d3a 3c14 55b9 073d ae39 0000 0080
00000040: 0000 0080 0000 0080 0000 0080 0000 0000
00000050: 0000 0000 0000 0000 0000 0000 0000 0080
00000060: cde9 7f3a 5028 a7b8 c857 0bb9 0000 0080
00000070: 439e 96b9 c9d8 33b9 30d0 d9b8 0000 0080
00000080: 2bd2 42ba be69 18ba 4684 8937 0000 0000
00000090: 9dc2 d239 8009 46b7 ec24 20ba 0000 0000
000000a0: ae78 ce3b dd1c 08b8 4e79 66ba 0000 0080
000000b0: ca55 47bb 7898 6738 7ec6 a7ba 0000 0080
000000c0: 9cf9 e13a c09b 3fbb 08fd 58b9 0000 0000
000000d0: 2c9c 80b9 bed9 273a 5baf 813a 0000 0000
000000e0: 1106 65ba b6c5 d7ba 2664 2e38 0000 0000
000000f0: d8d4 383a 8e7b 5539 1451 733a 0000 0000
00000100: 49f8 393b bbac 79b7 d433 97b9 0000 0000
00000110: 5f92 8eba a50b 96b9 b865 00ba 0000 0000
00000120: ad91 30bb 6e49 9db9 66e2 9a38 0000 0000
00000130: 0751 cf3a 36f4 d9b8 c78e a939 0000 0080
00000140: c644 8e3a 3e90 b8ba d8f2 4db9 0000 0000
00000150: 0410 eeb9 c876 db39 64fd 353a 0000 0080
00000160: 76f3 30b8 4805 7e39 5c32 4c3a 0000 0000
00000170: fc21 0c3a 106c 6dba cc5d a4ba 0000 0080
00000180: 8032 433a 2842 03bb 4c47 5eb9 0000 0080
00000190: d457 2fb9 7f65 ef39 8e76 8a3a 0000 0000
000001a0: 5405 cdbb 02c3 fcba a48b 5b3a 0000 0000
000001b0: 7050 6e3b a558 83ba adbb 983a 0000 0000
000001c0: 2ed4 5c3b 5466 cdb7 f588 10ba 0000 0080
000001d0: 1ae3 acba 8496 9eb8 52a4 2cba 0000 0000
000001e0: 73a6 8eb9 8f30 c4ba a919 8f3a 0000 0000
000001f0: 7c67 3e38 ed72 34b9 2a0a 0bba 0000 0080
00000200: acf7 2bba 8f03 d7ba abf2 04b8 0000 0000
00000210: 8873 9139 b898 8539 2290 4f3a 0000 0080
00000220: 0e40 5639 ef76 12bb 24fd 24b7 0000 0080
00000230: fa8c 99b9 e8d3 e239 35b3 8a3a 0000 0000
00000240: 32e7 8dba 6483 60ba 6614 8538 0000 0080
00000250: 5d6d 2d3a ee78 80b7 4307 043a 0000 0080
00000260: cc26 c33b 70f5 c4b8 0e2c 52ba 0000 0000
00000270: 1b24 83bb 3c5c 5c39 4469 e7b9 0000 0000
00000280: 1d5b 70bb bce7 2bba 6a03 c0b6 0000 0080
00000290: 7f49 f83a c893 7c38 800c 663a 0000 0000
000002a0: 7ab9 853a 026d 1ebb aa1d 22b9 0000 0000
000002b0: 2213 f5b9 17c1 133a 7e74 903a 0000 0080
000002c0: 0000 0080 d696 e38a 0000 0000 0000 0080
000002d0: 0000 0000 702e f302 0000 0000 0000 0080
000002e0: 045d 3bbb afa6 21ba 8d98 aa39 0000 0000
000002f0: a2e3 e33a e528 54b9 16d4 c539 0000 0000
00000300: db61 c437 bc92 8eb9 9432 4d3a 0000 0000
00000310: 8452 033a a4f5 7cba 28f2 c7ba 0000 0080
00000320: 57a9 a8b8 e8ca 6eba 440f fd39 0000 0000
00000330: 1b07 ca39 6369 b4b9 be94 c5b9 0000 0080
00000340: cc88 0bbb d758 8fba 7dad dc38 0000 0000
00000350: e691 6c3a 1626 3539 ac4d 193a 0000 0000
00000360: 3e27 15bb 673f baba d6b7 feb7 0000 0080
00000370: 666b 973a b4c8 5639 48c4 893a 0000 0000
00000380: c06f 8ab7 b233 02bb 26c2 7839 0000 0080
00000390: ceae 2f39 cc7c cd38 6101 a839 0000 0080
000003a0: 224a ddba b6dc c9ba d1ff 5a39 0000 0000
000003b0: 6a4f 5a3a e7c3 8e39 c6d2 2c3a 0000 0000
000003c0: 6bc5 85b7 f252 5bba f20a 69b8 0000 0000
000003d0: c1b9 1b39 80a7 d238 b106 fc39 0000 0080
000003e0: 42bb 793b e2af 4aba a45f 09ba 0000 0000
000003f0: 02e2 0fbb a3cb 3b3a 3405 4439 0000 0080
-0.0019740607 -0.0005023111 -1.6734144e-06 -0.0 0.0010031976 2.4158508e-05 -0.00033887813 -0.0
-0.0021426461 -0.0005550139 0.00024518443 0.0 0.0011999568 -0.00020320801 0.00033233335 -0.0
-0.0 -0.0 -0.0 0.0 0.0 0.0 0.0 -0.0
0.0009762317 -7.970689e-05 -0.00013288774 -0.0 -0.00028728144 -0.00017151529 -0.00010386144 -0.0
-0.000743183 -0.00058140967 1.6393267e-05 0.0 0.0004019932 -1.1803932e-05 -0.00061090174 0.0
0.0063010072 -3.2451808e-05 -0.00087918795 -0.0 -0.0030416125 5.521669e-05 -0.0012800244 -0.0
0.0017240527 -0.0029237121 -0.00020693627 0.0 -0.0002453042 0.00064029905 0.0009894179 0.0
-0.00087365607 -0.0016462121 4.1578103e-05 0.0 0.0007050759 0.0002035929 0.0009281796 0.0
0.002837675 -1.48817735e-05 -0.0002883958 0.0 -0.0010877362 -0.00028618905 -0.000489797 0.0
-0.0026942298 -0.00030000083 7.385462e-05 0.0 0.0015816995 -0.00010392854 0.0003234057 -0.0
0.0010854236 -0.0014081073 -0.0001964079 0.0 -0.0004540683 0.00041859434 0.000694236 -0.0
-4.218841e-05 0.00024225295 0.00077894866 0.0 0.000534564 -0.0009056935 -0.0012540161 -0.0
0.0007446185 -0.0020028446 -0.0002119813 -0.0 -0.00016722019 0.00045661253 0.0010563897 0.0
-0.0062567387 -0.0019284191 0.0008374995 0.0 0.0036363862 -0.0010020925 0.0011652611 0.0
0.0033695805 -2.4485555e-05 -0.0005513572 -0.0 -0.001319024 -7.562063e-05 -0.0006585765 0.0
-0.00027208365 -0.0014968085 0.0010917682 0.0 4.5395907e-05 -0.00017208951 -0.0005303944 -0.0
-0.00065600383 -0.0016404259 -3.1697255e-05 0.0 0.00027742633 0.0002548152 0.0007917901 -0.0
0.00020432493 -0.0022348722 -9.834101e-06 -0.0 -0.0002928747 0.00043263962 0.0010581972 0.0
-0.0010826348 -0.00085645006 6.345734e-05 -0.0 0.00066157227 -1.5315101e-05 0.00050364825 -0.0
0.0059555527 -9.3917246e-05 -0.0008017429 0.0 -0.004002107 0.00021015195 -0.00044138182 0.0
-0.0036675401 -0.00065576634 -5.7224433e-06 -0.0 0.0018942802 6.0219114e-05 0.00087756664 0.0
0.0010202371 -0.002417386 -0.00015460575 0.0 -0.00046744297 0.00056363776 0.0011021046 -0.0
-0.0 -2.1916043e-32 0.0 -0.0 0.0 3.5732295e-37 0.0 -0.0
-0.0028589377 -0.00061665004 0.00032538586 0.0 0.0017386565 -0.0002023313 0.00037732784 0.0
2.3410588e-05 -0.00027193676 0.0007827666 0.0 0.0005009549 -0.00096496404 -0.0015254663 -0.0
-8.042406e-05 -0.0009109215 0.00048267294 0.0 0.00038533736 -0.00034410795 -0.0003768559 -0.0
-0.0021291254 -0.001093651 0.00010522732 0.0 0.0009024426 0.00017275693 0.0005848061 0.0
-0.0022758986 -0.0014209569 -3.0364765e-05 -0.0 0.0011552393 0.00020483398 0.0010510767 0.0
-1.650292e-05 -0.0019867239 0.00023723449 -0.0 0.0001675442 9.798407e-05 0.00032044484 -0.0
-0.0016883055 -0.001540086 0.00020885399 0.0 0.00083278737 0.0002723031 0.0006592687 0.0
-1.5946765e-05 -0.0008366547 -5.5561723e-05 0.0 0.0001485115 0.000100447796 0.0004807017 -0.0
0.0038106 -0.0007731897 -0.0005240387 0.0 -0.002195478 0.0007163828 0.00018693955 -0.0

exp_avg_sq f4 [64, 8]
00000000: 6ace 9139 f7bb 913a 86b5 a130 6677 4c2a
00000010: d3c3 0f39 dfb6 293a 3707 8338 e45e a82a
00000020: 506e 1a3a a302 be39 f212 e636 2b82 9923
00000030: 3ddd 2839 10de 8739 ae82 2739 88b8 be2b
00000040: 5f53 6b2b be3b 6029 48b2 4327 6b54 0829
00000050: 8be5 ce28 934d 0629 385a 2a2b 6e09 152b
00000060: 45b2 cf38 5460 3d38 f555 3937 cf12 d529
00000070: 0664 1138 6f08 8a37 6204 4638 a4c7 7a28
00000080: ebf0 cc3a a4a4 873a a209 ba34 9417 cf2a
00000090: 0762 8939 8894 7e3a 38ab cf39 5259 9a28
000000a0: 0728 ae3b e2db b737 d40a bf39 69ca 672a
000000b0: e298 863a 0f7b f039 a97f 9c3a 3422 ac2a
000000c0: 1559 fc39 b9ce 853a 1711 bd37 5dc8 7e2b
000000d0: b064 0a39 2eb6 2e3a 790f a539 13f8 862b
000000e0: a622 3a38 c21d d639 e99f c736 f566 682a
000000f0: 43a5 d836 0997 0d39 cc82 d336 f46d cc2a
00000100: 7c69 7b3a 3df2 6a36 7967 f136 bd1e cd2b
00000110: 76d2 f238 6071 5238 64cd 3639 5440 a62a
00000120: bad1 563a 343c be39 639e fc35 1334 b42a
00000130: a321 7a39 d640 5f39 ba90 6b39 f0e3 f62a
00000140: c400 7c39 cea4 8f3a aaff a537 3ca5 8b28
00000150: 5af2 1339 ee3e e039 54a9 5539 edc0 a628
00000160: cf0e 7336 e827 e03a ff82 8439 59bf 9028
00000170: 81dc 6239 4f50 013a 6dad a039 50dd 032a
00000180: bfd8 2639 1c7d 0f3b 97db 6d37 b88d b628
00000190: e188 1f39 2018 733a 4685 6439 8108 ae25
000001a0: 7cf6 963b d511 da38 4109 c239 1168 3f2b
000001b0: 673e a03a f4d0 1a39 432d b73a cf95 3d2b
000001c0: b083 cd3a 8635 ba37 b761 d738 47fe de29
000001d0: bc6b 9139 cb24 2e39 1d3b ab39 59b4 172b
000001e0: 7ea1 c136 0172 0f39 baa2 7738 58df 982b
000001f0: b580 9336 74da ae38 3a66 4f38 4ff5 892b
00000200: 4ab6 fe37 ae59 b939 5e76 c735 5d9a 8529
00000210: e6f8 4337 62a9 dd38 739f 4b37 cd1d bb2a
00000220: cbaf 4a38 fe75 933a 40c9 7834 0f94 3c2b
00000230: bb99 e438 71ff 9d39 e33e dd38 8423 be2b
00000240: b35a 0c39 e6b9 5f38 bc4e ce34 c598 7e2a
00000250: 2644 e437 0d8a 1438 c10b ab37 7fe2 042b
00000260: 26b1 a33b 28d6 4d3a 063f c639 0720 9629
00000270: a049 023b a1af 3c3a caf3 f23a ff55 0326
00000280: 22e1 cb3a 363a 003a ee21 be32 2d28 4d2b
00000290: 0889 b439 92b7 cc39 4c0e a639 0647 172b
000002a0: 9974 7239 ce24 eb3a fdb4 6737 5e3e 802b
000002b0: 6441 5139 f2fc 423a e40b 8339 27ca ba29
000002c0: 84b2 872a eb7d fc2b a3a5 9e27 c792 142b
000002d0: 5a45 fa29 18cb ba2b 0b44 362a c3dc ad27
000002e0: 5fa2 773a a1d2 7b39 1c10 8e38 475e af2a
000002f0: 78fe 9e39 ab8a 5739 c490 a839 e441 bc2a
00000300: cca0 3936 77f5 e73a 8cd9 b839 0c49 b629
00000310: 90e2 3539 f832 0e3a 1a17 cc39 e592 0629
00000320: 29e7 0137 ca66 7539 5472 0439 8432 852a
00000330: e565 9638 1a19 9f38 1f2e 9c38 98e2 8e29
00000340: aecc ee39 e7f8 ea38 02e9 9834 ea92 fd27
00000350: b53f 7638 6728 a738 8867 9738 eb78 8027
00000360: de0b 023a 3fc3 c338 3872 a534 fff2 4126
00000370: 9740 ad38 cb73 9d38 fd0d 3a38 808f 6629
00000380: 639e 0938 f771 6239 44fb 0838 9e84 a924
00000390: cc29 9d36 b9a7 6138 c572 3737 430e 7229
000003a0: c896 1d39 7c9e 3839 20d4 f837 23cb 1929
000003b0: 759d 0838 dc72 9238 92c6 b437 d567 b529
000003c0: b357 1638 420b eb39 a0b6 b136 3a3a be28
000003d0: 7e32 ad37 2de1 3c39 1b4b fe37 2612 4e2b
000003e0: 07fb 003b 95b3 e23a f966 1339 346f 9429
000003f0: d322 863a 6728 543a 4c9f 443a 2a6d e22b
0.00027810346 0.001111864 1.1765884e-09 1.8160264e-13 0.00013710493 0.00064740883 6.247911e-05 2.9908638e-13
0.00058910716 0.00036241589 6.8567397e-06 1.6643422e-17 0.00016104146 0.00025914656 0.00015975043 1.355153e-12
8.360447e-13 4.978981e-14 2.7158333e-15 3.0271287e-14 2.2970143e-14 2.9821262e-14 6.0521336e-13 5.294852e-13
9.9037345e-05 4.5150824e-05 1.1046873e-05 9.462363e-14 3.4663848e-05 1.645481e-05 4.721096e-05 1.3921078e-14
0.0015635764 0.0010348749 3.4652209e-07 3.6786947e-13 0.00026203712 0.0009711464 0.00039609685 1.7136171e-14
0.00531483 2.191769e-05 0.00036438426 2.0587147e-13 0.0010268951 0.00045868053 0.0011939901 3.057707e-13
0.00048131557 0.0010208703 2.2538514e-05 9.051699e-13 0.00013198215 0.000666472 0.0003148278 9.590127e-13
4.4378125e-05 0.00040839432 5.949278e-06 2.064146e-13 6.4565406e-06 0.00013503073 6.303517e-06 3.6313975e-13
0.00095906085 3.5009718e-06 7.1944055e-06 1.4574658e-12 0.000115786606 5.017349e-05 0.00017433387 2.953216e-13
0.0008194704 0.0003628448 1.882156e-06 3.2010557e-13 0.00023854389 0.0002129109 0.00022465261 4.3856542e-13
0.00024032878 0.001095915 1.9788586e-05 1.5503759e-14 0.00014109295 0.00042771496 0.00020376343 1.851337e-14
3.6218441e-06 0.0017101737 0.00025274602 1.6070195e-14 0.00021635184 0.00049329264 0.0003064679 1.171192e-13
0.00015911738 0.002189464 1.4177428e-05 2.026752e-14 0.00015214413 0.0009273309 0.00021793423 3.018995e-16
0.00460702 0.000103983715 0.00037009458 6.800125e-13 0.0012225629 0.00014764426 0.0013975281 6.735419e-13
0.0015679505 2.2197852e-05 0.000102702 9.9028905e-14 0.00027736824 0.0001660764 0.00032659704 5.389626e-13
5.7706484e-06 0.00013680012 5.904094e-05 1.086224e-12 4.395925e-06 8.3376566e-05 4.944785e-05 9.802522e-13
3.0364045e-05 0.00035352766 1.4861105e-06 5.933164e-14 1.1680857e-05 0.00010569651 1.2136868e-05 3.323855e-13
4.8324273e-05 0.0011250374 2.3170014e-07 6.699649e-13 0.00010900522 0.00030135692 0.00010549815 1.351017e-12
0.00013385229 5.3340475e-05 3.8427777e-07 2.2612734e-13 2.7211452e-05 3.541452e-05 2.0390262e-05 4.7210147e-13
0.004995483 0.0007852041 0.0003781246 6.666894e-14 0.001988031 0.00071978016 0.001853579 4.55663e-16
0.0015554766 0.00048914866 2.213434e-08 7.2886386e-13 0.00034434372 0.00039046683 0.0003167264 5.374454e-13
0.00023122354 0.0017940046 1.3810813e-05 9.112257e-13 0.00019956153 0.00074382045 0.00024995126 8.295127e-14
2.4104687e-13 1.7940626e-12 4.4033393e-15 5.2783857e-13 1.1114261e-13 1.3272465e-12 1.6188454e-13 4.8256496e-15
0.00094464974 0.0002401569 6.774088e-05 3.1151663e-13 0.00030325702 0.00020555656 0.00032151316 3.344123e-13
2.7660744e-06 0.0017697056 0.000352573 8.095095e-14 0.00017345906 0.0005424465 0.00038927124 2.9881388e-14
7.74282e-06 0.00023403313 0.00012631092 2.3660598e-13 7.171537e-05 7.586386e-05 7.4472504e-05 6.3453745e-14
0.00045547396 0.00011204351 2.8481742e-07 7.038089e-15 5.8710302e-05 7.970706e-05 7.219525e-05 3.5658236e-15
0.0004960875 9.334692e-05 3.081675e-07 6.7289647e-16 8.2613136e-05 7.5079115e-05 4.4358883e-05 5.1194726e-14
3.2810854e-05 0.00021595495 3.2658936e-05 7.351673e-17 4.6838304e-06 5.3800384e-05 1.0934372e-05 5.3747164e-14
0.00015028857 0.00017606647 2.9662682e-05 3.4149018e-14 3.257157e-05 6.983217e-05 2.1550139e-05 8.056027e-14
3.5844463e-05 0.0004483108 5.2962714e-06 2.111949e-14 2.064672e-05 0.00018012962 3.0314133e-05 7.321109e-13
0.0019680874 0.0017295951 0.00014057373 6.591811e-14 0.0010233767 0.00080931786 0.0007500544 1.6088565e-12

exp_avg f4 [64]
00000000: 86a5 25bb e2cd 1dbb 0000 0080 5cee 433a
00000010: 1ca8 aaba 6e11 b33b 06b9 b6ba 76d6 20bb
00000020: 5d69 263b 5037 3ebb 01e4 02ba be37 863a
00000030: 6ccf bcba eabd f3bb adbb 363b c45f 34ba
00000040: 0ad1 16bb 61a2 08bb b649 f2ba 809c a63b
00000050: 0a1f 8fbb 567b ceba bef0 8c8a 5ec1 4abb
00000060: cce6 1c3a 2849 fcb9 e4c1 4dbb e67d 71bb
00000070: a6cc e2ba 1dff 44bb 99c5 70ba 9114 1d3b
00000080: 2b50 11bb 10f3 9bba 1ef0 29bb 70b4 edba
00000090: 5c16 973a 945f 63bb 95f4 52ba 0273 89bb
000000a0: a4bd efba 8854 43bb 5548 3dba f87a cdba
000000b0: 0a60 f4ba 0000 0080 b938 16bb 83e8 a6ba
000000c0: fa57 593b f40d 003b d057 eb3a e099 b4b9
000000d0: 7871 50bb 0000 0080 d7f6 60bb ba64 e0ba
000000e0: ab86 11bb a42d 1abb 1211 67ba 5afb 62ba
000000f0: 50af 0bbb 88bf 14bb 9b3e 473b 0982 8c3a
-0.0025275662 -0.0024079015 -0.0 0.0007474178 -0.0013020071 0.0054647243 -0.0013940639 -0.0024541891
0.0025392391 -0.0029024668 -0.00049930817 0.0010240001 -0.0014405078 -0.007438411 0.002788286 -0.0006880725
-0.002301278 -0.0020848738 -0.0018485102 0.005084574 -0.004367714 -0.001575331 -1.3572067e-32 -0.003093801
0.0005985319 -0.0004811969 -0.0031396085 -0.0036848723 -0.0017303422 -0.0030059286 -0.0009184718 0.0023968557
-0.0022173028 -0.0011898 -0.0025930475 -0.001813544 0.0011527049 -0.003469442 -0.000804731 -0.004194618
-0.001829077 -0.0029805023 -0.0007220556 -0.0015676906 -0.0018644345 -0.0 -0.0022921993 -0.0012734089
0.003316401 0.0019539567 0.0017955247 -0.0003444692 -0.0031805914 -0.0 -0.0034326816 -0.0017119863
-0.0022205513 -0.002352574 -0.00088144944 -0.000865867 -0.0021314211 -0.002269717 0.0030402306 0.0010719906

exp_avg_sq f4 [64]
00000000: 3b18 183b db51 da3a 417c 8a28 3763 9339
00000010: a852 9d3b ec21 083c 7b75 4e3b 0ba8 5639
00000020: 0403 8f3a 379a 093b b286 1d3b 9246 423b
00000030: dd9f 643b a9f8 103c 32cf 213b 07fc 9739
00000040: 22dd 8d39 f1bd c03a 1886 4839 55d3 533c
00000050: da87 583b 16c3 643b e61f f32b 36d9 273b
00000060: eebd 5c3b ed6d 243a 4d50 2f3a f801 0e3a
00000070: 5562 ed38 c912 9d39 1b8b 003a bd60 0e3c
00000080: c237 6639 721c c839 e97c ee3a cd03 5f39
00000090: 98a0 343a f2bf 4e3a e79d a039 672d f43a
000000a0: 01ea 1139 3a64 e839 a139 ea3b 192a 9439
000000b0: 486b 843a f13b 412b 71d2 b838 cebc 213b
000000c0: 06ff 613b 975e c23a 1f6f f63a b622 b53a
000000d0: e8ab fe39 bd91 2f28 9e97 843a 2f23 9839
000000e0: d423 0f39 f087 4239 e79b ca39 55f9 063a
000000f0: 8252 3539 9aaf 103b 54f1 813a 5bc1 9f3a
0.0023207802 0.0016656475 1.5374964e-14 0.00028111946 0.004801113 0.008308869 0.003150313 0.00020471231
0.0010910933 0.002099646 0.0024036583 0.0029644114 0.0034885325 0.008848348 0.0024690148 0.0002898874
0.00027058373 0.0014705044 0.0001912344 0.012928803 0.0033039958 0.003490632 1.7275042e-12 0.0025611646
0.0033682543 0.0006272484 0.0006687686 0.00054171635 0.000113193564 0.0002995937 0.0004903541 0.008690056
0.0002195528 0.00038168166 0.0018195185 0.00021268353 0.00068903854 0.00078868784 0.00030635225 0.0018629254
0.00013915451 0.00044325163 0.007147983 0.00028260125 0.0010102773 6.865056e-13 8.8130015e-05 0.0024679187
0.0034484281 0.0014829215 0.0018801427 0.0013819549 0.00048574735 9.746053e-15 0.0010115986 0.00029017913
0.0001365089 0.00018551922 0.000386446 0.00051488477 0.00017292242 0.0022077323 0.000991384 0.0012188362

exp_avg f4 [1, 4]
00000000: 930c 143c 8961 ffbb 1470 55ba 118f 3e1c
0.009036201 -0.0077936095 -0.0008142006 6.3050636e-22

exp_avg_sq f4 [1, 4]
00000000: cdf3 d83a efe0 373b d391 bf39 ecf0 7f2d
0.001655215 0.0028057655 0.00036539006 1.4548567e-11

exp_avg f4 [64, 128]
00000000: 020f 9a38 cd64 7a39 0000 0080 b67f 4639
00000010: 02f5 3238 4e62 b338 b499 b838 bd6a 6b38
00000020: ba6a c038 745d 3639 467b 6c39 481d 0f39
00000030: 0164 ac38 88c5 4739 5a6c 0839 44ef 4d38
00000040: 36c0 5e39 4d9b 5a39 28bb 5739 840a c638
00000050: ba78 0039 b209 8a39 0000 0000 fe61 0c39
00000060: cc08 8838 1873 b938 362f 2639 7ca8 cf38
00000070: b1c9 0b38 26f8 8b38 a31e 6939 b0a8 4039
00000080: 4ecf af38 e4a4 1e38 ac63 4b39 e7c8 9e38
00000090: eb90 1c39 3d87 fd38 6cc1 f337 8a95 2c39
000000a0: 3ac3 6037 b315 5638 2aa1 c336 b0f1 6338
000000b0: 559a 4d39 0000 0000 0640 2b39 a2c9 ad36
000000c0: 20d4 e538 d6e2 9537 40a8 a638 5218 d438
000000d0: 1305 6c39 0000 0080 dc44 8139 7b50 6f39
000000e0: c279 5139 912d b638 0518 9f38 3e82 e137
000000f0: 5e5f 0b39 3529 a238 7248 df38 eaed 21b8
00000100: 80c5 cc37 36ea 1538 0000 0080 3f32 3ab9
00000110: b5a4 4b38 5409 24b8 602f 6eb6 007d b6b3
00000120: d1ea 71b8 74ce b738 2aa2 95b8 892e b838
00000130: 3569 8bb8 786a d3b7 0a23 8ab8 e03b 9b38
00000140: 9850 0ab8 a80a feb8 8d4a 5ab8 f3b5 b0b8
00000150: 6097 d5b5 9878 46b7 0000 0000 a062 9638
00000160: 224f c738 5dd3 1a38 f215 8db7 6bf1 77b8
00000170: 3015 8838 068c 0938 eea7 f1b8 969a 08b9
00000180: d6d5 c238 6de5 1937 aab0 2638 6015 9c36
00000190: 289b 0db9 5868 b438 bfd7 4c36 4395 8038
000001a0: f047 18b8 0c2a ab38 c47d 02b8 4ebd 76b8
000001b0: 381d 7337 0000 0080 2074 a336 de9d 1037
000001c0: ce2b 15b8 09a3 ecb7 8e2d 95b8 ff73 8c38
000001d0: 72d9 b2b7 0000 0000 c033 b0b6 0773 8037
000001e0: 80a9 15b8 0a37 a038 5e93 bcb8 a880 d534
000001f0: 6602 60b7 8c7e 7a38 68e8 42b8 686b 3238
00000200: ca30 8dba 64e9 12bb 0000 0080 b9ab 43b8
00000210: 3af3 89ba e8d0 2bb7 d83b d1b9 c8e1 32ba
00000220: af3a 40b7 9e45 29bb 359b 57ba 6cd2 1fbb
00000230: b1f1 6eb9 f6c6 28bb 00cb 3cb4 87ed d6ba
00000240: 7d86 caba eb8c 4fba 6e49 86ba c00a 8f37
00000250: ea81 87ba 77f5 90ba 0000 0080 6e19 32bb
00000260: 91f5 09bb c62e d3ba 6663 e3ba 2fd5 e8b9
00000270: 5e9f a8ba 91f3 5dba fd40 83ba c02f 99b7
00000280: ed5f bbba 4010 44ba 3e54 0ebb 5e9b 8bba
00000290: dafb 60b9 848f 19bb aeb1 dd37 8032 f3ba
000002a0: 803d 97b9 fc98 98ba bfb0 d438 cad9 ecb8
000002b0: aeb8 ceba 0000 0000 ef38 04bb 7ef5 34b9
000002c0: c8d1 26b6 c6e8 a5b7 2a17 54b8 8080 e6ba
000002d0: 4ec0 08bb 0000 0000 1ad0 26bb e221 c8ba
000002e0: bea6 05bb 7c08 f3ba 185d d3b9 b2cb 1538
000002f0: 9eab c7b9 b862 edba 9e19 cb36 7418 5cb6
00000300: 6f7f 9439 e095 1d3a 0000 0080 b6dd af38
00000310: a627 9639 a468 7238 8623 5939 8b85 bc39
00000320: a86a 6237 e00b 2a3a 8b34 8939 5978 093a
00000330: 4ad2 3d39 b8b6 133a 3af4 9638 b673 e439
00000340: 3cd1 c539 5e04 5239 6d0a 9f39 b12a ab38
00000350: a8a8 9139 80f9 f539 0000 0000 b43b 353a
00000360: 84b1 fb39 a54c c139 aaf3 d139 3bea 1539
00000370: a89c dc39 0d63 8c39 2d09 a939 626c a138
00000380: 204c 013a 94ef 8b39 405d 1a3a 51b9 d839
00000390: b24e 6b38 bc4b 163a 0a33 1db8 ace3 ea39
000003a0: 8768 0639 fe33 ec39 3d02 2538 f015 dd38
000003b0: a36b ec39 0000 0000 808c 073a fc81 db38
000003c0: 69a4 8638 665f 0239 9535 1d39 6f4e ee39
000003d0: f2b9 153a 0000 0080 3afb 213a 5a27 d839
000003e0: 323a 1b3a 32cc ef39 3450 0739 f435 64b7
000003f0: ddf9 0b39 51de 023a d025 30b6 e28e fe38
7.346088e-05 0.00023879409 -0.0 0.00018930327 4.266669e-05 8.553696e-05 8.802433e-05 5.6127774e-05
9.175153e-05 0.00017391687 0.00022552637 0.00013648451 8.220226e-05 0.00019051705 0.00013010335 4.9098642e-05
0.00021243174 0.00020847954 0.00020573719 9.4433344e-05 0.00012252005 0.00026328635 0.0 0.00013387945
6.486624e-05 8.842925e-05 0.00015848581 9.901912e-05 3.3328022e-05 6.674258e-05 0.00022232025 0.00018373388
8.383264e-05 3.7823702e-05 0.0001939672 7.571448e-05 0.00014931305 0.0001208917 2.9057926e-05 0.00016458906
1.3396895e-05 5.1041785e-05 5.830215e-06 5.4346106e-05 0.00019607817 0.0 0.00016331681 5.179275e-06
0.00010959082 1.7867813e-05 7.946836e-05 0.00010113478 0.00022508604 -0.0 0.00024656102 0.00022822797
0.00019977152 8.686924e-05 7.586185e-05 2.6882739e-05 0.000132916 7.7324374e-05 0.000106469626 -3.8606966e-05
2.4410663e-05 3.5742494e-05 -0.0 -0.0001775706 4.8552367e-05 -3.9109334e-05 -3.549234e-06 -8.497773e-08
-5.7677567e-05 8.764575e-05 -7.135079e-05 8.7824716e-05 -6.647633e-05 -2.5202738e-05 -6.586879e-05 7.4021285e-05
-3.2976823e-05 -0.00012113649 -5.204468e-05 -8.426225e-05 -1.5913793e-06 -1.1829798e-05 0.0 7.170928e-05
9.503799e-05 3.691331e-05 -1.6818729e-05 -5.9114227e-05 6.488932e-05 3.2793752e-05 -0.00011523055 -0.00013027558
9.290471e-05 9.172928e-06 3.9742015e-05 4.6516507e-06 -0.00013504608 8.6025044e-05 3.052395e-06 6.131318e-05
-3.630662e-05 8.161747e-05 -3.1111544e-05 -5.8827274e-05 1.4490732e-05 -0.0 4.8712973e-06 8.619825e-06
-3.5565165e-05 -2.8209311e-05 -7.113359e-05 6.697326e-05 -2.132051e-05 0.0 -5.2512332e-06 1.5312353e-05
-3.5682227e-05 7.639646e-05 -8.991988e-05 3.976795e-07 -1.3351999e-05 5.97225e-05 -4.646965e-05 4.2538537e-05
-0.0010771987 -0.0022416944 -0.0 -4.6651552e-05 -0.0010524758 -1.0241034e-05 -0.00039908173 -0.0006823805
-1.1457755e-05 -0.0025828849 -0.0008224727 -0.0024386896 -0.00022787486 -0.0025753356 -1.7582715e-07 -0.0016397693
-0.0015451458 -0.0007917422 -0.0010245272 1.7051934e-05 -0.00103384 -0.0011059482 -0.0 -0.0027175802
-0.002105091 -0.0016111962 -0.0017348349 -0.00044409322 -0.0012864878 -0.0008466775 -0.0010013875 -1.8261257e-05
-0.0014295556 -0.0007479228 -0.0021717693 -0.0010651161 -0.00021456127 -0.002343149 2.6427992e-05 -0.0018554479
-0.00028846785 -0.0011642273 0.00010141869 -0.00011293923 -0.0015771592 0.0 -0.0020175537 -0.0001725759
-2.4858036e-06 -1.9777926e-05 -5.0566312e-05 -0.0017585903 -0.0020866576 0.0 -0.0025453628 -0.0015268887
-0.0020393576 -0.0018541957 -0.00040314416 3.5714074e-05 -0.00038084103 -0.0018111086 6.0528537e-06 -3.2796788e-06
0.00028323705 0.0006011408 -0.0 8.385947e-05 0.0002863977 5.779475e-05 0.00020707966 0.00035957652
1.3495483e-05 0.0006486755 0.00026169824 0.00052440685 0.00018102783 0.0005634832 7.198048e-05 0.0004357376
0.0003773066 0.00020028788 0.0003033461 8.161867e-05 0.00027782214 0.00046915933 0.0 0.00069134985
0.0004800671 0.00036868933 0.0004004513 0.00014297005 0.00042078388 0.0002677668 0.00032241028 7.697266e-05
0.0004932303 0.00026690646 0.0005888529 0.00041336802 5.6101657e-05 0.0005733331 -3.747925e-05 0.00044801587
0.00012818175 0.00045052165 3.934115e-05 0.000105421874 0.00045093623 0.0 0.00051707774 0.00010466945
6.420242e-05 0.00012433305 0.00014992648 0.00045453335 0.0005711607 -0.0 0.0006179098 0.0004122805
0.00059214525 0.0004573777 0.00012904481 -1.3602421e-05 0.00013349154 0.0004992234 -2.6248053e-06 0.00012138278

exp_avg_sq f4 [64, 128]
00000000: d9f3 2332 6e83 7f36 1f6d 1928 807f 2837
00000010: 10fc 7833 0193 3536 4a4b f336 9506 1636
00000020: 3397 fa35 3072 d335 4f07 5b37 d041 4134
00000030: db0f 9536 a5af 9735 4097 a536 9291 ee31
00000040: 1088 e736 66eb a236 773c 9136 a620 7e36
00000050: 683a e934 0754 8537 3b38 9828 cf6c f435
00000060: b4aa 3b33 a0b0 8734 ee01 f435 8c92 3735
00000070: b5b3 8d34 3e3c 7534 cc54 7d37 ec29 e036
00000080: bc3d 1236 069f ad33 4423 0c36 9924 3035
00000090: 4e99 8a36 05c1 7d35 c64a 9034 29ba 1535
000000a0: 3a97 cc34 b1bc 6135 46d7 0935 579b 8735
000000b0: b951 8c36 97b8 8f27 a3d8 8536 d934 a034
000000c0: 0f89 7236 6ff8 1d36 2244 c636 19f8 5c34
000000d0: 0c37 3d36 656c d827 d49b 8636 0a73 7136
000000e0: de78 2b37 afda 0e35 d4a9 3436 e641 3c34
000000f0: e038 c435 f154 9535 7194 e735 50e8 8435
00000100: cc89 6235 f0d8 f636 4aac 4225 8a63 e536
00000110: 3bf8 7635 1860 9735 cd89 4b36 0476 7536
00000120: 905a 5435 3e11 d336 388a 0e37 d9c2 9136
00000130: c434 7d36 8ac9 2b37 9349 0536 1bb7 ba35
00000140: cfc7 fb36 4d1f cb36 1f54 a336 65e8 1936
00000150: 63e3 de35 a427 1437 8d83 0b29 7173 1737
00000160: ca64 2c36 2d9b 7c36 f769 aa36 224a f935
00000170: eab2 0636 1e79 5a35 a026 6037 7c99 8f36
00000180: 5f82 5336 b4dc c635 da7a df36 56ee 5e36
00000190: 20a1 7f36 10ba ae36 1abe f432 c8e4 1a36
000001a0: 2b16 c135 3d15 dc35 e477 1c35 e154 e635
000001b0: 974d a436 963d 0f28 c3e0 1237 b07e 9134
000001c0: f5e5 b835 8042 b835 22a0 6e36 c639 ec35
000001d0: 6dea 2337 9e90 e127 29b3 4937 d372 8d36
000001e0: e588 9237 c157 3536 e59d 6d36 0850 e832
000001f0: aead 6c35 baf6 7e36 1694 1e35 2140 1335
00000200: bec7 6539 8622 5b3a f33f c328 c706 2a37
00000210: e23e 7b39 61dd cd34 5eae 5238 efc5 8e39
00000220: 2e59 c134 915f 853a a046 3938 a3cf 253a
00000230: 1b1f 5f38 a271 6a3a 0afa 2735 bf05 ba39
00000240: 0220 9739 6d4d 2039 80ba 9939 861d af35
00000250: dbe3 7939 1d46 7439 9708 872a f777 7d3a
00000260: f5d7 d639 2957 d939 2bd7 bb39 7349 1b39
00000270: 368a a539 ebfb 2f39 8d12 1739 e2dc 1237
00000280: 7f53 c839 1305 8939 163c 803a 5deb fe39
00000290: 9bd0 0937 c34e 253a b46d 9e34 727e cd39
000002a0: dcf7 0339 9769 a639 7793 3b36 a777 f138
000002b0: d1ba f639 5273 9827 1adf 253a 75ab 2238
000002c0: 52dd 0b35 2b53 ac34 ec23 b235 d900 fb39
000002d0: 263c 6b3a 9089 d722 1b58 783a 132e de39
000002e0: c7ec 1a3a 2fce e639 f373 8f38 c4cb 2b37
000002f0: dd5d 7e38 54e6 113a 5f25 b734 d9d8 4f34
00000300: ba5f a438 cf48 d839 ed4f 1928 4283 c137
00000310: 1efa ee38 e3e7 d936 6b87 c638 6cab 4139
00000320: 857a 6036 5b0d e039 bf74 3138 bfa6 1b39
00000330: 41fc 6238 f075 7039 b103 4637 9441 0a39
00000340: 8cf3 1f39 9750 9d38 b6ca 4639 7e80 0237
00000350: cfa5 e238 7ab4 8439 57f9 8129 64ba ac39
00000360: 74c3 da38 feb4 df38 0518 fa38 fba0 a138
00000370: ae24 0f39 1a97 b438 59e5 ca38 f087 8f37
00000380: b385 7639 57f4 ee38 25ab ef39 0303 7d39
00000390: b0fa 8436 9767 5b39 df82 5636 1b6c 1a39
000003a0: 4589 9838 f6a9 5239 5d44 4d36 b0ba b838
000003b0: 4908 9b39 d34d 4e26 6ba8 8f39 89ea 2d38
000003c0: 3a1e 2337 9796 a136 e024 1737 fd53 4239
000003d0: 4985 b939 a407 4527 a7da af39 97f6 8339
000003e0: 5012 7239 e570 3d39 28da 3038 dd59 9237
000003f0: 7ba4 6c38 4bd1 8b39 0a8b 9336 3cef 2136
9.543293e-09 3.8074463e-06 8.516868e-15 1.0043266e-05 5.797125e-08 2.705667e-06 7.250729e-06 2.2355573e-06
1.8670456e-06 1.5753958e-06 1.3055119e-05 1.7998468e-07 4.442392e-06 1.1301496e-06 4.934991e-06 6.943261e-09
6.9001762e-06 4.85538e-06 4.328376e-06 3.7867953e-06 4.3442128e-07 1.5893964e-05 1.6899776e-14 1.8211084e-06
4.3694584e-08 2.527422e-07 1.8179978e-06 6.8386066e-07 2.639405e-07 2.2839319e-07 1.5099718e-05 6.6806006e-06
2.179163e-06 8.0848665e-08 2.0882153e-06 6.5618366e-07 4.1305675e-06 9.4530725e-07 2.6876495e-07 5.5777724e-07
3.8107993e-07 8.4093614e-07 5.134974e-07 1.0103494e-06 4.181839e-06 3.9890606e-15 3.9889287e-06 2.9840774e-07
3.6140589e-06 2.353943e-06 5.9087915e-06 2.0579354e-07 2.8195236e-06 6.0069565e-15 4.011652e-06 3.597876e-06
1.0220536e-05 5.321735e-07 2.6920943e-06 1.7532838e-07 1.4619691e-06 1.1126086e-06 1.7254043e-06 9.902378e-07
8.439208e-07 7.356626e-06 1.6885192e-16 6.8363197e-06 9.2003364e-07 1.1278344e-06 3.0329568e-06 3.657654e-06
7.910794e-07 6.2902973e-06 8.496041e-06 4.34402e-06 3.7730651e-06 1.0239319e-05 1.986137e-06 1.3911371e-06
7.5036437e-06 6.0535153e-06 4.8675715e-06 2.2934048e-06 1.6606467e-06 8.830717e-06 3.0978302e-14 9.02718e-06
2.5688664e-06 3.764125e-06 5.0787307e-06 1.8573521e-06 2.0071698e-06 8.138758e-07 1.33604335e-05 4.2796e-06
3.1517336e-06 1.4816383e-06 6.6602197e-06 3.3219308e-06 3.8091748e-06 5.2072646e-06 2.8491787e-08 2.3080956e-06
1.4386072e-06 1.6397458e-06 5.828899e-07 1.7161038e-06 4.8966135e-06 7.951449e-15 8.75461e-06 2.7100532e-07
1.3775995e-06 1.3728422e-06 3.5557973e-06 1.7600184e-06 9.770139e-06 6.260684e-15 1.2022248e-05 4.2154948e-06
1.7468303e-05 2.7022181e-06 3.5407659e-06 2.7044749e-08 8.816959e-07 3.7992563e-06 5.907508e-07 5.485509e-07
0.00021913552 0.00083593314 2.1677083e-14 1.0134368e-05 0.00023960651 3.83453e-07 5.0230294e-05 0.00027231823
3.6013938e-07 0.0010175576 4.417321e-05 0.0006325191 5.3196312e-05 0.0008943324 6.25762e-07 0.00035480966
0.00028824812 0.00015287632 0.00029321387 1.3047108e-06 0.00023831373 0.00023295773 2.3986778e-13 0.000966906
0.0004097816 0.00041454405 0.00035827732 0.00014809314 0.00031574228 0.00016783147 0.00014407393 8.753706e-06
0.00038209182 0.00026134457 0.0009783532 0.00048622015 8.214406e-06 0.0006305987 2.9509613e-07 0.00039194856
0.00012585468 0.00031740658 2.7951007e-06 0.000115140625 0.00047059965 4.2313505e-15 0.0006327495 3.878349e-05
5.21036e-07 3.209801e-07 1.3272488e-06 0.00047875082 0.00089735014 5.8421517e-18 0.0009473578 0.00042377468
0.00059099164 0.00044022637 6.8403686e-05 1.0239837e-05 6.0645736e-05 0.00055656326 3.4113597e-07 1.9357266e-07
7.83796e-05 0.00041252977 8.510537e-15 2.3068515e-05 0.00011395312 6.494099e-06 9.466599e-05 0.00018469774
3.3449917e-06 0.0004273456 4.2308817e-05 0.0001484407 5.411753e-05 0.00022932119 1.1802579e-05 0.00013185135
0.0001525415 7.5013544e-05 0.00018958267 7.778521e-06 0.00010807404 0.00025311467 5.7720044e-14 0.00032945268
0.00010431456 0.00010667181 0.00011925403 7.707063e-05 0.00013651207 8.611214e-05 9.67483e-05 1.711023e-05
0.00023510195 0.00011394236 0.00045713145 0.00024129082 3.9630904e-06 0.00020924058 3.1964662e-06 0.00014726857
7.273493e-05 0.00020090476 3.0587173e-06 8.808577e-05 0.00029570077 7.157608e-16 0.00027400567 4.1464842e-05
9.722595e-06 4.815705e-06 9.008887e-06 0.0001853257 0.00035385255 2.7343384e-15 0.0003354151 0.0002516999
0.0002308574 0.00018066501 4.2164844e-05 1.7446402e-05 5.641997e-05 0.0002666808 4.3971277e-06 2.4130122e-06

exp_avg f4 [64]
00000000: a1a6 053c 2bbb a4bc 0000 0080 a371 15bc
00000010: 5865 86b4 7776 2fbc 3cd1 c6bc 0953 fe3b
00000020: 027a 4f3c 4ad8 a7bc 4242 0fbc 6c83 60bb
00000030: 7282 5dbc 5083 0b3c 327c 043c f33f debb
00000040: bf21 2bbc d470 01bc 07e2 35bc 0000 0080
00000050: 1f51 243c de53 06b5 b03b 9bbc 6688 313c
00000060: 9743 603c 089b 41bc 5b0d 2abc 9600 663b
00000070: 5ef4 07bc a4be 7134 cb89 94bc f65c 6abb
00000080: a81a 98bb 647a 1dbc 2c90 4fb4 020b 0d3c
00000090: 0311 f53b fcd9 56bc 7828 32b4 30f4 d23c
000000a0: 6c8f 6288 a2e7 f4bb 3707 43bc 08af a83c
000000b0: e382 dd3b ea37 13bc 9e14 51bc 046c 9fbb
000000c0: e42b 37bc 3169 2f3c 0000 0080 7d46 0296
000000d0: 6073 8039 38b2 283c 46a2 80b0 4928 4ea6
000000e0: db4e e83a fe42 ccbb 81fe 9c3c 2a52 163c
000000f0: 0000 0080 f20f 37a8 7249 81bc e680 223c
0.008157403 -0.02010878 -0.0 -0.009121331 -2.5033182e-07 -0.010709397 -0.024269693 0.0077613634
0.012663366 -0.020488877 -0.008743824 -0.003425802 -0.01351987 0.008515194 0.008086251 -0.0067825257
-0.010445057 -0.0079004355 -0.011101252 -0.0 0.010029106 -5.004093e-07 -0.01894936 0.010835743
0.01368799 -0.0118167475 -0.010379161 0.0035095564 -0.008298008 2.2514229e-07 -0.018132111 -0.0035760975
-0.0046418495 -0.0096117 -1.9330827e-07 0.0086085815 0.0074788346 -0.013113495 -1.6592264e-07 0.025751203
-6.8177993e-34 -0.007473902 -0.011903576 0.020591274 0.0067599877 -0.008985499 -0.012761263 -0.0048651714
-0.011179898 0.010706232 -0.0 -1.0523559e-25 0.00024500024 0.010296397 -9.359347e-10 -7.1525204e-16
0.0017723696 -0.006233572 0.019164326 0.009174863 -0.0 -1.0161998e-14 -0.015782092 0.009918427

exp_avg_sq f4 [64]
00000000: d412 0a3c 5d16 053e 48f9 0128 78fd 1f3d
00000010: 1724 e531 9ebb 7d3d ca75 c53d a53f 2b3c
00000020: 8550 663d 6551 083d ddf3 023d 8a8d c33d
00000030: 7f7d eb3d fe40 d53c b6fd 093e e768 a63c
00000040: 6917 6e3d a631 e93c 12e3 c43d 76df 0a29
00000050: ec67 4f3c 0dce bb32 1bf4 963d df7e cd3c
00000060: 462a 6f3d 2223 ac3d f232 793d 93c4 4d3d
00000070: 02a1 0c3d 91be 893a 7120 083d f15e 563d
00000080: 5c5c 063d fd12 133d bafb c831 b0dd 0c3d
00000090: d474 013c 9502 d73d a90e 1332 2514 473e
000000a0: 3097 ca2c 5018 c83c a1c6 ab3d 868a 073e
000000b0: b1b3 6b3b d5fa 083d 9dee a23d b975 f23c
000000c0: 276b 8b3d d4d9 723c 2bf4 292c 6a77 432d
000000d0: bb7c 0e3e e880 bd3c 6820 932e eaa6 4b2e
000000e0: 0c0b 8b3a a298 863d 035c e13d f089 203c
000000f0: cafd 6329 f6ad 6d2e ad02 683d 41b6 103d
0.008427341 0.12996812 7.214993e-15 0.039060086 6.66888e-09 0.061946504 0.09641607 0.010452186
0.056229133 0.03328075 0.031970847 0.09548481 0.11498546 0.026031967 0.1347569 0.020313693
0.058127794 0.028466057 0.09613623 3.0835977e-14 0.012659054 2.1863366e-08 0.07370778 0.02508491
0.058389924 0.084051386 0.0608396 0.050236296 0.034333237 0.0010509064 0.033234064 0.052336637
0.032802925 0.03590678 5.849384e-09 0.034391105 0.007901389 0.10498539 8.5598595e-09 0.19441278
5.7579705e-12 0.024425656 0.08387495 0.13236436 0.0035965259 0.033442337 0.07955668 0.02959715
0.06807547 0.014822442 2.4151885e-12 1.1110982e-11 0.13914768 0.023132756 6.6905426e-11 4.6305106e-11
0.0010608151 0.06572081 0.11003878 0.009798512 5.0624252e-14 5.404207e-11 0.056643177 0.03533006
