checkpoints/checkpoint_triangles_658037_epoch100_seed0000111.pth.tar (torch_old, 924726 bytes, 39 tensors)

graph_layers.0.fc.0.weight f4 [64, 98]
000000 28 4e 07 bb 0f 96 09 3e a6 ab 99 3e 60 0f bf be
       -0.002064595 0.13436149 0.3001377 -0.37316418
000010 0d d1 34 3e aa e5 1b 3d 99 13 a1 bd 4d a3 34 be
       0.17657872 0.03806082 -0.07865066 -0.1764042
000020 40 9c 10 3e 7d 90 14 3d 6c ff 91 3b 32 de 5a 38
       0.14122105 0.036270607 0.0044554975 5.2182186e-05
000030 d1 06 00 00 15 0b 00 80 eb 32 00 80 2e ad d6 bd
       2.445e-42 -3.975e-42 -1.8266e-41 -0.1048225
000040 6f 05 eb bd e6 87 8b be 8d 1a 43 3e 64 f3 aa 3e
       -0.11475646 -0.2725212 0.19053097 0.33388817
000050 c7 b5 06 3e 74 22 89 bd b8 e2 05 3c 48 7d 60 be
       0.1315528 -0.066960245 0.00817173 -0.21922791
000060 e9 8e 0b 3d b4 e9 bd bb 47 02 00 80 b1 0a 00 80
       0.034071837 -0.005795682 -8.17e-43 -3.835e-42
000070 be 08 00 80 97 32 d1 be c3 09 99 3d 68 b6 43 be
       -3.136e-42 -0.4085891 0.07472565 -0.19112551
000080 9f 2f d7 bd b7 01 54 bd bb 3f 3e 3e 63 98 82 3e
       -0.1050713 -0.051759448 0.18578999 0.25506887
000090 99 1b 1a be 79 52 d2 3d 49 2d 5a bb a6 d6 e2 3b
       -0.1504959 0.10269637 -0.0033291152 0.0069225607
0000a0 01 0b 00 80 cc 07 00 80 b8 05 00 80 d4 0a ba be
       -3.947e-42 -2.797e-42 -2.052e-42 -0.36336386
0000b0 56 56 17 3e d5 2d cc 3e 0f 8a 16 3d e9 d5 0c be
       0.14779028 0.39878717 0.036752757 -0.13753475
0000c0 11 12 30 3e 30 5e 17 3e 1f b8 da be 45 b2 19 3d
       0.17194392 0.14782023 -0.42718598 0.037523527
0000d0 05 c5 9c bd 83 f5 71 3c 67 0f 00 80 be 0e 00 00
       -0.07654766 0.014768007 -5.525e-42 5.289e-42
0000e0 44 0c 00 80 69 71 9a be 50 cf 7f bd d9 7d b7 3d
       -4.4e-42 -0.3016465 -0.062453568 0.089595504
0000f0 4a c6 d1 bd b5 6a b6 be b4 ad 81 bd 1f 8c ca 3e
       -0.10242899 -0.35628286 -0.06331959 0.3956003
000100 83 14 b8 3e 9a b8 82 3d 6c 38 1c 3d e1 53 38 3b
       0.3595315 0.06382866 0.038139746 0.0028126168
000110 0b 02 00 80 4a 16 00 00 12 01 00 80 21 8a 10 3e
       -7.33e-43 7.996e-42 -3.84e-43 0.14115192
000120 3b 3b 27 3e f7 99 b7 3e 45 b3 8b be 13 82 2c 3e
       0.16331188 0.35859653 -0.2728521 0.16846494
000130 07 72 36 bd 0c d4 f9 3d d3 80 91 3d 4f 4d bd be
       -0.04454234 0.12198648 0.071046494 -0.36973044
000140 66 db 67 bb cb ed 44 bc 62 33 00 80 8d 39 00 00
       -0.0035378574 -0.012019585 -1.8433e-41 2.0645e-41
000150 ce 05 00 80 49 3d 32 3e 02 a6 1a be de dd 6b 3e
       -2.082e-42 0.17406191 -0.1510239 0.23033854
000160 45 04 84 be 2b 53 02 3e e1 20 cd be 12 12 33 3e
       -0.25784507 0.12727039 -0.40064147 0.17487362
000170 74 22 33 be e7 52 bd 3e bc a1 ba bc 13 59 31 3c
       -0.17493612 0.36977312 -0.0227822 0.01082446
000180 7e 04 00 80 08 0d 00 80 b1 5f 2a bb 41 e0 0e 3e
       -1.611e-42 -4.675e-42 -0.0025996978 0.13952734
000190 ba 2c 97 be af 44 36 3d 36 e7 44 3e 49 95 11 bc
       -0.2952631 0.044499096 0.19228825 -0.00888569
0001a0 fc 29 0b 3e a4 a9 6e 3c 31 28 6d bd 66 c1 93 3c
       0.13590235 0.014566813 -0.057899658 0.018036555
0001b0 95 69 69 bc aa 36 e3 ba 3d 0b 00 00 48 08 00 00
       -0.014246364 -0.0017335017 4.032e-42 2.971e-42
0001c0 b1 06 00 80 ee 9f 33 3b 16 fc 79 bc 92 33 80 bd
       -2.4e-42 0.0027408558 -0.015257856 -0.06259836
0001d0 a9 5c 8d be 77 0e b3 3e 67 b2 9f 3e 32 98 4f be
       -0.27609757 0.34971973 0.31190798 -0.20272902
0001e0 ee fe 4b 3e f6 7d 43 3d 37 e8 41 3d 17 0b 40 3b
       0.19921467 0.047727548 0.047340598 0.0029303485
0001f0 3d 0a 00 00 ae 03 00 80 a4 03 00 80 e1 c5 c3 be
       3.673e-42 -1.32e-42 -1.306e-42 -0.38236907
000200 7d 90 8d be 8c c9 cc 3d 48 b3 fb 3c d6 9d e6 bd
       -0.27649298 0.099993795 0.030725136 -0.112605736
000210 91 3e 35 be a2 fd d0 3e e0 fb 82 3c 2a d6 0c 3d
       -0.17699648 0.40818506 0.015989244 0.03438393
000220 af 70 08 3d fb 89 95 bc 3e 10 00 00 a0 08 00 80
       0.03331059 -0.01825427 5.827e-42 -3.094e-42
000230 a6 09 00 80 af 19 49 3e 29 e4 4a 3e 9c 45 9e 3e
       -3.461e-42 0.19638704 0.19813599 0.30912483
000240 b5 1c 7a bd be e6 11 be fc 32 15 be 06 97 94 bc
       -0.061062533 -0.14248177 -0.1457023 -0.01813842
000250 a5 c4 13 3e 94 18 73 bd 71 67 98 bc ae 3e 1a 3d
       0.14430483 -0.05934961 -0.018604012 0.037657432
000260 6a 08 00 80 d0 0e 00 80 12 27 00 00 c4 47 bb 3e
       -3.018e-42 -5.314e-42 1.4016e-41 0.3657819
000270 44 68 18 3c 50 49 bd bd 9f e7 51 bd c4 38 c4 3d
       0.009302203 -0.09242499 -0.05124628 0.0958114
000280 13 cc 00 bd 8d 13 e9 bd f9 1a 12 3c a5 43 21 bd
       -0.03144462 -0.11380682 0.008917564 -0.03937115
000290 00 89 05 bd 38 6d f3 bb b1 09 00 00 d9 0a 00 00
       -0.032601357 -0.0074287914 3.477e-42 3.891e-42
0002a0 d0 0d 00 00 73 cb 0c be 24 e6 4d 3e 98 55 6e 3e
       4.955e-42 -0.13749485 0.20107323 0.23274839
0002b0 b8 e5 82 3e 3a 1f 18 bd 5d 44 88 be 75 57 e5 bd
       0.25565886 -0.037139155 -0.26614657 -0.11198322
0002c0 34 f2 5f 3d 0c 70 d7 bd 95 74 52 3d 16 8f 95 3c
       0.054674342 -0.10519418 0.051380713 0.018256705
0002d0 6b 14 00 00 54 0b 00 00 52 01 00 00 1b c6 ca bd
       7.325e-42 4.064e-42 4.74e-43 -0.09901067
0002e0 1f f4 c5 be 35 e7 9e 3d 8c 3d 4a be de 8f 3f 3e
       -0.38662812 0.07758943 -0.19750041 0.18707225
0002f0 4a fa a5 3e 1b 8d 51 be 6f f2 18 bd 49 14 c5 bd
       0.32417518 -0.20463984 -0.037340578 -0.0962301
000300 72 c0 94 3c 3c 08 72 bc f7 07 00 80 06 08 00 00
       0.018158171 -0.014772471 -2.857e-42 2.878e-42
000310 f0 10 00 00 0e c9 10 3e 89 6f c5 bd db ab 9f be
       6.076e-42 0.14139196 -0.09640414 -0.31185803
000320 21 2a 32 bf ae e7 13 be d8 d4 52 3e 86 7a 31 3e
       -0.69595534 -0.14443848 0.20589006 0.17331895
000330 90 ec 19 3e 03 26 c6 bc 4d a6 53 bc 8c fb 94 3c
       0.15031648 -0.024188047 -0.012918067 0.018186353
000340 a6 0a 00 00 36 06 00 00 1f 08 00 80 3a 99 45 be
       3.82e-42 2.228e-42 -2.913e-42 -0.19296733
000350 08 60 52 be c7 66 67 3d 66 25 2e be 42 b9 e8 3e
       -0.20544446 0.0564945 -0.17006454 0.4545384
000360 1b bd 88 bb 99 b1 21 3e 77 de dd 3e 15 98 88 3e
       -0.0041729338 0.15790404 0.4333379 0.2667853
000370 a3 fe 6b 3d 67 83 40 3c 68 09 00 00 ff 02 00 80
       0.057615887 0.011750079 3.374e-42 -1.075e-42
000380 4b 07 00 80 f8 ef 50 3e fd cc 85 3e 5b ee 90 3d
       -2.616e-42 0.20404041 0.26132956 0.07076713
000390 af 99 4d 3e cb a1 b3 3c 4b 83 5f be ed b3 e0 be
       0.20078157 0.021927735 -0.21827428 -0.43887272
0003a0 aa f8 0a bf 26 28 91 be 48 5e 7d bd aa cc de bd
       -0.5428568 -0.28350943 -0.06185749 -0.1087888
0003b0 41 07 00 80 84 11 00 00 57 0e 00 00 7c 58 84 3e
       -2.602e-42 6.283e-42 5.144e-42 0.25848758
0003c0 f7 85 7d 3e 35 71 9a be 1e 2a d6 bd 06 62 d9 bd
       0.24758135 -0.30164495 -0.10457252 -0.106143996
0003d0 c6 49 70 3e a4 bb bd 3e f4 35 e1 bc 9b 7c 57 3e
       0.23465642 0.3705722 -0.027491547 0.21043627
0003e0 7a 37 92 3e 3c 00 08 b9 d3 0f 00 00 4c 03 00 80
       0.2855795 -0.00012970058 5.677e-42 -1.183e-42
0003f0 a6 01 00 80 d7 1d 9d 3c 5a 93 10 be 34 65 1e be
       -5.91e-43 0.019179268 -0.1411871 -0.15468293

graph_layers.0.fc.0.bias f4 [64]
000000 95 4c 9f 3d 4b 9b 9d 3c cc e7 a9 be a2 0b 81 3e
       0.07778279 0.019239089 -0.3318466 0.25204188
000010 70 d9 ab be 69 96 3f be b3 87 f0 be e0 57 1b 3e
       -0.3356433 -0.1870972 -0.4697853 0.1517024
000020 b3 41 12 bb 9f eb 85 bd 48 ec 1c be 89 70 24 be
       -0.0022316992 -0.06539082 -0.15324509 -0.16058554
000030 1c 67 c3 bd 29 94 ec 3b b7 ce 68 be a3 fb fa 3c
       -0.09541151 0.0072198105 -0.22735105 0.030637568
000040 82 4c 33 be ee 68 b4 be f5 a7 21 be cb ab 00 be
       -0.17509654 -0.35236305 -0.15786727 -0.12565534
000050 89 5c 4f 3e 1c 3f 02 be c7 b2 9f bd d3 0e 62 bd
       0.20250143 -0.12719387 -0.07797771 -0.05518992
000060 99 45 29 bd 0b 46 8d bd 9f c5 33 be 89 a9 45 be
       -0.04132614 -0.06898125 -0.17555855 -0.19302954
000070 5f 18 04 be d5 56 1a bd a2 17 1d be ce b1 fe 3c
       -0.12899922 -0.037680466 -0.15341046 0.031090643
000080 8f 5d 4f bd 1c a9 c7 bd 0a 2d fd 3c fa 5f 1e be
       -0.050626334 -0.09749052 0.030905265 -0.154663
000090 81 f0 33 be 1c bc f6 bd 60 c2 2a 3c 51 f0 51 3e
       -0.17572214 -0.12047598 0.010422319 0.2050183
0000a0 9d 8b a5 be 15 6a 82 3d 51 ef 28 3d c8 85 31 3c
       -0.3233308 0.0636789 0.041243855 0.010835119
0000b0 e3 c6 e5 bd ab 42 ae be 06 f6 dd 3d 87 63 7e 3d
       -0.11219575 -0.3403524 0.10837941 0.062106635
0000c0 d3 10 aa 3d 67 32 2c 3d 5f 7c 1b 3d a6 0a 5c bc
       0.0830399 0.042040255 0.037960406 -0.013430273
0000d0 ab b9 8a 3d 77 eb 4b 3c 6c 5a 6c bd eb ef 23 3e
       0.067736946 0.012446276 -0.05770342 0.1600949
0000e0 6d 90 53 be 29 74 85 3c 4b 29 08 be f7 54 95 bd
       -0.20660563 0.016290741 -0.13297002 -0.072915964
0000f0 a8 4d 44 3d 5b 41 87 bd 10 93 88 be fb 59 ee b8
       0.04792562 -0.066042624 -0.266747 -0.000113654845

graph_layers.0.fc.2.weight f4 [64, 64]
000000 6f b0 2a 3d 59 8e a4 3e c4 de 72 3d c7 87 27 be
       0.041672166 0.32139853 0.059294477 -0.16360389
000010 9f b1 58 3c 78 00 57 3e 2a 60 9a be ce fa 1c 3d
       0.013225942 0.20996273 -0.30151492 0.038325123
000020 a6 7d b7 3c e0 e7 ba 3e d8 46 2c be 24 a1 42 be
       0.022398781 0.36505032 -0.168239 -0.19006783
000030 91 6a 29 3d d9 a1 ca be e1 bc 07 be b8 9e d6 be
       0.041361395 -0.39576605 -0.13255645 -0.41917968
000040 40 35 33 bc 89 03 2f 3e 4e 5c 9f 3c fe 78 ea bd
       -0.010937989 0.17091192 0.019453194 -0.11448859
000050 43 59 86 be 62 6e 1c 3d 24 b9 e0 3c ce 68 b1 bd
       -0.26239976 0.038191207 0.027432032 -0.08662568
000060 53 3a 3f bd 6f f6 7e 3e d1 91 92 bd d4 6c 73 be
       -0.04668648 0.24898694 -0.071567185 -0.23771983
000070 31 44 31 be ac 7f 20 be dc 90 2b be 61 b9 13 3e
       -0.17311169 -0.15673703 -0.16754478 0.14426185
000080 54 73 14 3e cc 47 b0 be 56 71 e2 be 0f 0f 57 be
       0.14497119 -0.34429777 -0.44227093 -0.21001838
000090 58 91 9d 3d 13 50 4b bd 45 a8 53 3e 33 ed ac be
       0.07693738 -0.04963691 0.20669658 -0.3377472
0000a0 55 46 7d 3d 67 5b 20 3e ac 24 08 be 5e 1f 36 be
       0.061834652 0.15659867 -0.13295239 -0.17785403
0000b0 52 7d c6 be 53 90 66 3d d2 52 20 be b1 21 3a 3c
       -0.38767487 0.056289982 -0.15656593 0.011360572
0000c0 84 be fe 3d ed 73 ca 3d 2f 16 27 be 65 cc 95 3e
       0.12438682 0.09885392 -0.16317056 0.29257503
0000d0 4e 62 2c bd 7d c3 27 3e c5 11 16 bd 01 90 73 be
       -0.04208594 0.16383167 -0.03663804 -0.23785402
0000e0 19 f5 ad bd 24 c9 d8 bd 94 0f 05 be 63 b1 57 3d
       -0.08494014 -0.105852395 -0.12994224 0.052659404
0000f0 e6 c9 4a be 9e 53 72 3c 57 f6 4e be ca 38 86 3e
       -0.1980358 0.014790444 -0.20211159 0.26215202
000100 0e 52 92 be bd 63 b7 bd 6c 81 3a 3e bc f8 68 3e
       -0.28578228 -0.089545704 0.18213433 0.22751135
000110 cb 44 61 bd 32 cd 8d 3e 2c 2e 11 3e 31 dd 7a bd
       -0.054997247 0.27695614 0.1417777 -0.0612461
000120 94 a2 09 be da 51 49 3e e7 21 b5 be 59 4a 15 be
       -0.13440925 0.1966013 -0.35377428 -0.14579143
000130 0a c3 80 bc 58 59 2c bb c5 1c 96 bd 49 ca 54 be
       -0.015718002 -0.002629837 -0.07329706 -0.2078029
000140 0b 85 7b be 68 42 b7 be 33 23 c6 3d 4b 07 b7 bc
       -0.2456247 -0.3579285 0.096746825 -0.022342345
000150 29 23 eb 3d 6b f8 b5 3d ce 74 d5 be 24 f4 68 3e
       0.11481316 0.088852726 -0.41690677 0.22749382
000160 48 b9 20 be 77 80 e3 3d 06 43 3c be 9e 25 6c be
       -0.15695679 0.11108487 -0.18384942 -0.23061225
000170 a2 80 2f be 07 27 85 be 32 eb d1 3d 10 6d 1c 3d
       -0.17138913 -0.26006338 0.10249938 0.038189948
000180 0d 48 70 3d eb 4d f2 bd 1a e8 21 be ce 03 91 3e
       0.058662463 -0.11831268 -0.15811196 0.28323215
000190 3f 8b 08 3e 95 2e 31 be d8 2c 10 be 36 47 f5 be
       0.13334368 -0.17302926 -0.14079607 -0.47905892
0001a0 e7 2e 95 be 6b 11 d0 3c 6e d7 a3 3d 1c 27 c0 3c
       -0.29137346 0.02539893 0.08000074 0.023456149
0001b0 a3 2f 2f bd d2 f3 a6 be 53 60 26 be 92 19 d4 bd
       -0.04277004 -0.32607895 -0.16247682 -0.1035644
0001c0 ed 31 b3 bd 6d 9e 65 bd c2 85 26 be 0b 40 0d 3e
       -0.08749757 -0.05605929 -0.16261962 0.13793962
0001d0 97 91 75 bd 11 70 37 3e 3d ff 74 3d 91 f6 38 be
       -0.0599533 0.17913844 0.059813727 -0.18062808
0001e0 65 ae d8 bc 56 a1 f9 bd 8b 88 21 3d d7 b2 f8 bd
       -0.026450345 -0.121889755 0.03943686 -0.12143486
0001f0 03 62 93 3d 8c 60 1c be ae 87 36 be b3 fa 1e 3e
       0.071964286 -0.15271205 -0.17825195 0.15525322
000200 18 60 4d bd 41 b1 eb 3c 78 91 f0 bd c7 bb 06 bf
       -0.05014047 0.028771045 -0.11746496 -0.52630275
000210 5a 76 58 3e be f4 9a 3d 0d 98 5c 3d df 51 38 bd
       0.21138898 0.07566212 0.053855944 -0.044999953
000220 6c 8a 45 3e 6b 72 97 be 88 a4 a5 bd c3 b2 c1 3d
       0.19291085 -0.2957948 -0.080880225 0.09457924
000230 59 08 27 bd d5 cb 3f be 20 7b ba 3d b2 54 83 3e
       -0.040779445 -0.187301 0.091055155 0.25650555
000240 9a 88 d2 bd 46 58 ed be de 26 78 bd 1b 04 8a 3e
       -0.10279961 -0.4635641 -0.06058394 0.26956257
000250 87 ed 9b 3e fc aa d0 3d 3d a9 09 3e 3d 87 45 3d
       0.30454656 0.10188863 0.13443466 0.048224676
000260 22 f5 c5 bd 62 6c c1 bd 62 d8 63 3c 48 e5 95 bc
       -0.09665896 -0.094445005 0.01390657 -0.018297806
000270 9b 66 8f bd 55 ce 16 be 34 f7 d0 3d b9 af 97 be
       -0.07001992 -0.14727147 0.102034 -0.29626253
000280 44 71 71 3d 74 7c 83 bd 03 0e 11 be 8a 70 a5 be
       0.05894591 -0.06420222 -0.14165501 -0.32312423
000290 16 3c 35 be 86 a7 40 be 75 21 84 3e 32 ec 77 be
       -0.17698702 -0.18813905 0.25806776 -0.24211195
0002a0 46 4f 14 bd 7c c2 7f be 1f 4f df bc 84 26 98 be
       -0.036208414 -0.24976534 -0.027259408 -0.29716885
0002b0 c6 f4 73 3d c2 13 2e 3c 9f 48 d1 be d7 f9 4f bd
       0.059559606 0.010624828 -0.40875718 -0.050775375
0002c0 72 3a 85 3e 3e 22 0f 3d 42 22 2a bd ee b4 a0 3e
       0.26021153 0.034944765 -0.041536577 0.31388038
0002d0 5a 02 b7 be 82 27 c5 bd 37 27 07 3e a4 c1 33 bd
       -0.35743982 -0.09626676 0.13198553 -0.043885842
0002e0 ba 6b 43 bd 44 75 17 be 6d 75 14 3e 66 e3 58 be
       -0.047710158 -0.14790827 0.1449792 -0.21180496
0002f0 58 69 9f 3d bc 8a 8d 3b ef 21 5c be fc 61 65 be
       0.077837646 0.004319517 -0.2149732 -0.2240066
000300 23 37 a7 be da 77 9c be 26 a3 bc bb 81 97 aa be
       -0.32659253 -0.3056019 -0.0057567535 -0.33318713
000310 48 f3 7b 3c 9f 70 59 be e6 8c 08 bf 55 1d 25 bd
       0.015377827 -0.21234368 -0.53339994 -0.040311176
000320 9a 47 de be 8a 74 42 be 6d 7c 01 3e 4f 1a 69 3e
       -0.43414003 -0.18989769 0.12645121 0.22763942
000330 d1 16 22 3c 2c 44 c8 be 66 96 d6 3d af 79 dd bd
       0.009893135 -0.3911451 0.10477905 -0.10814225
000340 fa d1 51 be df b8 67 be be 22 0b 3d 4a 3c 96 be
       -0.20490256 -0.22629116 0.03396868 -0.29342872
000350 f7 cc 0c be 81 95 fa bd eb 19 8d be c4 a7 24 3e
       -0.13750063 -0.12235547 -0.27558836 0.16079623
000360 fd a4 96 bb 0c 57 5e bd ef d7 86 3e 61 8f 1d be
       -0.004597305 -0.054282233 0.2633662 -0.15386726
000370 30 5d 09 be a0 3a 9c be f3 bd 88 be 71 e7 ff 3c
       -0.13414454 -0.30513477 -0.2670742 0.03123829
000380 a0 73 81 bd 09 f1 73 be 37 e1 01 bd 87 cb c1 bd
       -0.06320882 -0.23822416 -0.031708922 -0.09462648
000390 69 d1 3a 3e 37 74 bb be b9 0d fe 3d e1 77 e2 3d
       0.18243946 -0.36612102 0.12404961 0.11058021
0003a0 d1 83 86 3d d4 81 06 3e 9c a4 a5 be 65 82 26 bd
       0.06568111 0.13135463 -0.3235215 -0.040651698
0003b0 33 2a d3 3d a0 07 49 be 86 63 bf 3d e4 bc 26 bd
       0.10310783 -0.19631815 0.093451545 -0.040707484
0003c0 69 c1 39 3e 9f 41 0f 3e 15 0d 02 3e 26 e0 45 3e
       0.18140186 0.13989876 0.12700303 0.19323787
0003d0 2d fe 19 bc 3c f0 b6 3c 6f 7d 0c be 7c ec 1c be
       -0.009398979 0.02233135 -0.13719724 -0.15324587
0003e0 a8 ed 16 be 7b 7b 4f bd 15 90 28 bc 8d 1d 2c 3e
       -0.14739096 -0.05065487 -0.010288258 0.16808148
0003f0 c8 11 4f bd 3a bf 28 be 3e d9 1d 3c 2c 19 5c be
       -0.050554067 -0.16479197 0.009634314 -0.21493977

graph_layers.0.fc.2.bias f4 [64]
000000 bf ca e5 3e 5d 75 55 3e 6a 92 77 be e6 2a 20 3e
       0.44881245 0.20845552 -0.24176946 0.15641364
000010 24 f3 9c be 0a 6c 29 3e 28 d4 81 bd 19 c7 d2 bd
       -0.30654252 0.1654512 -0.06339294 -0.10291881
000020 e9 82 bb 3c 3c 52 45 3e ec bd fa 3e 89 76 aa 3e
       0.022889571 0.19269651 0.48973024 0.3329356
000030 f0 5a 8e be 49 a0 37 3d 74 87 9d 3e ba af 9d be
       -0.27803755 0.044830594 0.30767405 -0.3079813
000040 0a 99 88 bd 7b e0 42 3e 41 8c 0f be 4c 22 d9 3d
       -0.06669815 0.19030945 -0.14018346 0.10602245
000050 61 8f 15 be 50 47 88 3c f9 65 0e 3e f5 2a a5 3d
       -0.14605476 0.016635567 0.13906087 0.08064834
000060 9a 5c 88 be 21 34 a8 bd 54 8b 25 3e 9d 10 00 80
       -0.2663315 -0.08213068 0.1616643 -5.96e-42
000070 99 77 8c bd ff 20 9a be 9c 5c 4e 3e 2f b4 56 bd
       -0.06858749 -0.301033 0.20152515 -0.05241793
000080 eb e4 4d 3e 20 17 15 3e 0c ad b5 bd 53 11 00 80
       0.20106857 0.14559603 -0.08870897 -6.215e-42
000090 28 aa 35 be d1 c5 0a 3d 74 74 56 be d0 ba 0b 3f
       -0.1774069 0.03388006 -0.20942861 0.5458193
0000a0 3f 0f 89 bd 4f 13 00 bf cc fb 84 bd b9 e8 b7 3e
       -0.06692361 -0.5002946 -0.06493339 0.3591974
0000b0 28 d2 dd be 29 12 36 bf b1 8b 3a be 5f e5 44 3c
       -0.433244 -0.7112146 -0.1821735 0.012017577
0000c0 ee ff 12 3e b2 be 94 3e 08 cc 86 3e b3 08 4f 3e
       0.14355442 0.2905174 0.26327538 0.20218162
0000d0 78 09 81 be 5f 19 f3 bd d8 06 92 ba 89 98 0a be
       -0.25202537 -0.118700735 -0.0011140956 -0.1353475
0000e0 18 03 a9 3a 6d e6 39 bd 3b 95 bd be 9a ce 0b 3d
       0.0012894599 -0.045385767 -0.37027916 0.034132577
0000f0 00 0a 1e 3e 50 c1 d9 bd f2 bb b5 3c e1 2d a6 3e
       0.15433502 -0.106325746 0.022184346 0.32456878

graph_layers.1.fc.0.weight f4 [64, 448]
000000 77 19 dc bd 15 01 09 3b df 34 45 3d 5c 00 83 3d
       -0.107470445 0.0020905186 0.048146125 0.06396553
000010 42 a6 0b be ff 77 79 bc 46 38 c3 3b e6 18 ab 3d
       -0.13637641 -0.015226363 0.005957636 0.083543584
000020 60 17 20 be 60 5e a9 bb 22 f0 a5 bc 30 dc 86 3c
       -0.15633917 -0.005168721 -0.020256106 0.016462415
000030 d0 b7 de bd 62 9b ae bd 40 ec e8 3d 07 88 a5 3d
       -0.10874903 -0.08525731 0.11373186 0.08082586
000040 15 ff 5b bd 8b ab 08 bd 4a 96 06 bd 82 a5 f0 bd
       -0.053710062 -0.03336672 -0.03285817 -0.11750318
000050 dd 15 de bd b2 28 16 bd f9 76 8b bd c8 40 1f 3c
       -0.10844014 -0.036659904 -0.068098016 0.009720035
000060 44 5f 0d bc 14 63 8a 3e 2c 06 2d 3c 5d 0f 00 00
       -0.00862867 0.27028716 0.0105605535 5.511e-42
000070 19 90 bf be 44 1f b0 bd 0a 4c 96 3d d0 25 a0 be
       -0.37414625 -0.085997134 0.07338722 -0.3127885
000080 a0 c5 61 bd 7c 76 cc 3c a8 1e 8b bc f1 10 00 00
       -0.05512011 0.024958842 -0.016982391 6.077e-42
000090 d0 86 68 3d 9f 44 c5 bd ea ce 34 bd 36 89 33 3e
       0.056769192 -0.09632229 -0.04414264 0.1753281
0000a0 e9 80 10 be 07 89 45 bd 6e 17 c1 3c d5 72 26 3e
       -0.14111675 -0.048226383 0.023570742 0.16254742
0000b0 b5 3f 15 3b 5a a2 02 3e 4d 4f a5 bc c6 10 e8 3b
       0.0022773568 0.12757245 -0.020179415 0.0070820777
0000c0 f6 77 b0 be 60 d8 08 be 09 ba cf 3d c8 f4 f5 3d
       -0.34466523 -0.1336379 0.10142905 0.12009579
0000d0 96 60 25 3a 11 1c 58 3c a9 93 aa 3d 1e 17 d9 bd
       0.0006308643 0.013190285 0.08328945 -0.106001124
0000e0 6d 81 b5 bd 91 26 99 3c 25 3b 49 bd 2f 68 84 bd
       -0.08862577 0.018695148 -0.04912867 -0.06465184
0000f0 f5 0a 8c 3e 93 fe 19 bc 5d 83 80 be 52 5b 0f be
       0.2735211 -0.009399074 -0.25100222 -0.1399968
000100 3d 59 c0 bb 87 51 38 bd a2 ab 81 be 2b 5c 95 bd
       -0.005870013 -0.044999626 -0.25326258 -0.0729297
000110 ce 11 e1 3d 22 f1 c2 bd 62 b4 d1 3b 66 70 ca 3d
       0.10989724 -0.09518649 0.006399677 0.098847196
000120 3f 08 50 3d 45 d5 ef ba bd a9 93 3d 82 43 05 3e
       0.050789114 -0.0018297812 0.072101094 0.13014033
000130 a8 fd 09 3e 45 b0 9a bc 6c f1 70 bd 03 57 ef 3d
       0.13475668 -0.01888288 -0.058823988 0.11686518
000140 d6 71 83 3d 0e 35 36 3d 01 6a 17 be a2 96 ce 3d
       0.06418197 0.04448419 -0.14786531 0.10087325
000150 75 f6 ca bd 90 c4 6b be 29 fd 64 3d f6 2c d2 bd
       -0.09910289 -0.23024201 0.055905495 -0.10262482
000160 4b 0c 64 be 75 30 02 3e 97 a4 8d bd 09 11 00 80
       -0.22270314 0.12713797 -0.06916159 -6.111e-42
000170 0b ee 33 3f fb 30 81 3e 8e 35 b3 3d 76 d8 7f 3e
       0.702851 0.25232682 0.08750449 0.24984917
000180 92 23 52 bd 8e 0b 18 3d 74 c4 af 3c e9 0f 00 80
       -0.051303454 0.037120394 0.02145598 -5.707e-42
000190 41 e2 e5 bb 78 e2 04 3d 91 b5 6c be de c8 2a 3c
       -0.007015497 0.03244254 -0.23116137 0.010423867
0001a0 bd e7 9d bd 27 df e7 bd 69 bd 7a bd e3 2f 28 be
       -0.07710216 -0.1132186 -0.06121579 -0.16424517
0001b0 f0 b8 05 3d e1 ef 3e be 05 13 64 3d d3 58 2c 3d
       0.032647073 -0.18646194 0.0556822 0.042076897
0001c0 ab 0e 2f 3e c5 18 c9 3c d1 19 e5 bd 7e c6 0a 3e
       0.17095439 0.024547944 -0.11186565 0.13552281
0001d0 56 f6 56 3e 03 fd 6f 3e 40 4c c3 3d ea bb 27 3d
       0.20992407 0.2343636 0.09536028 0.040950693
0001e0 9e f5 d8 3c f7 2a 8b bd 20 30 22 be d9 e6 e6 bc
       0.026484307 -0.06795304 -0.1583867 -0.028186249
0001f0 7c be 83 3e 20 69 6c bc 6b 59 40 3e 68 d8 88 3d
       0.25731266 -0.014429361 0.1878411 0.06681901
000200 e0 fb 03 be e0 e9 14 be 92 e3 19 3e f4 57 11 3e
       -0.12889051 -0.14542341 0.15028217 0.14193708
000210 40 e8 9d 3d 5d 89 8b bb 13 56 62 bc dc ea 4c be
       0.07710314 -0.0042583183 -0.013814467 -0.20011467
000220 50 d9 92 bd 3f a1 b2 3c 1e 7f db bc 9c 4c 34 be
       -0.07170355 0.021805404 -0.026794013 -0.17607349
000230 21 63 06 bd 89 44 49 3e fa 87 22 be 4f 8e 22 bc
       -0.03280938 0.1965505 -0.15872183 -0.009921624
000240 96 77 ba bd be e9 05 bb f6 83 32 3d 62 9f c0 3d
       -0.091048405 -0.002043351 0.04358288 0.094054
000250 83 85 c7 bd c6 7a 2c 3e ef a6 30 3e 29 5e 7e 3d
       -0.09742262 0.1684371 0.1725118 0.062101517
000260 36 c3 59 bd d3 a0 a1 be ab cd c6 be 9a 0e 00 00
       -0.053164683 -0.31568012 -0.38828787 5.238e-42
000270 fe 27 97 3e 9d fb 8d be 67 0f ea 3c 3d e4 69 3c
       0.295227 -0.27731028 0.028571798 0.014275608
000280 46 f6 b2 3e 7f 8c cc 3d 75 66 79 3e 48 0f 00 00
       0.34953517 0.09987735 0.2435549 5.482e-42
000290 b2 22 b9 bd 3f de 5c bd 13 1d 08 bd ed 54 84 be
       -0.09039821 -0.053922888 -0.033230852 -0.25846043
0002a0 26 a2 05 3d 35 43 c3 3c f1 54 aa 3d c1 2d a1 bd
       0.03262534 0.023835758 0.083169825 -0.07870055
0002b0 dd e5 62 bd f2 9c 86 be 88 e2 d1 bc 67 22 5c bd
       -0.055394996 -0.26291615 -0.025620714 -0.053743746
0002c0 d7 7f 48 3e 46 5a 5d bd a6 36 0e 3e 9f 6a 5b be
       0.19580017 -0.05404117 0.13888034 -0.21427391
0002d0 a0 fd 40 bd bc 71 c7 bd 54 df 43 3e df 47 ac 3d
       -0.047116876 -0.0973849 0.19128162 0.08412146
0002e0 e2 39 95 3d cd 01 25 bd cf 5f 9a bd 55 bb 64 3c
       0.07286431 -0.04028492 -0.07537805 0.013960679
0002f0 0b 32 cc be ca f8 4d 3d 7a 90 6c 3e e2 df 92 bd
       -0.3988193 0.050286092 0.23101988 -0.071716085
000300 a2 4b 53 3e 20 df 8e 3d e4 f7 5e 3e 92 54 7b 3d
       0.2063432 0.069761515 0.2177425 0.06135995
000310 56 77 26 be 84 75 9b bc 31 b7 08 3d dd 33 9e bd
       -0.1625646 -0.018976934 0.03337783 -0.07724736
000320 81 48 35 3e 62 45 9e 3c 29 e7 11 be 8b 1f 46 bd
       0.1770344 0.019320194 -0.14248337 -0.048369925
000330 72 2c d5 3d e3 9b 06 be f4 e2 55 bd e8 d1 3e be
       0.10408868 -0.13145404 -0.052218392 -0.1863476
000340 23 82 93 bc 97 ae fc 3d ff 5b 67 bd 75 12 3c bc
       -0.01800639 0.12337988 -0.05648422 -0.01147901
000350 7e 2a b1 3e af c9 44 3e 2d 15 3e bd fe e8 76 3e
       0.3460273 0.19217561 -0.046406914 0.24112317
000360 fc 5d a5 bd 74 5a e5 3d 69 4d 8c 3e e1 0e 00 80
       -0.08074567 0.11198893 0.2740281 -5.338e-42
000370 01 76 ca bd 9e 8a 8a 3e 5e fd f0 bd 36 00 9a bd
       -0.09885789 0.27058882 -0.11767076 -0.075195715
000380 e6 1b b6 3d 45 36 64 be 60 19 99 3d 2a 11 00 80
       0.0889204 -0.22286327 0.07475543 -6.157e-42
000390 98 93 41 3c ab 98 86 3d bb a0 5e 3e 87 89 8f 3e
       0.011814974 0.06572088 0.21741001 0.28034613
0003a0 b5 c6 24 3e 07 68 4e 3e a3 4d cd bd 6b 6e 3a 3e
       0.16091426 0.20156871 -0.10024574 0.18206184
0003b0 ee 42 60 be 49 62 ac bc 55 6c 22 3d 7c 87 d3 bd
       -0.21900532 -0.02104296 0.039654095 -0.10328576
0003c0 3d 96 7d 3d d3 fc 36 bd 2c 5e 15 be a4 8a b3 bb
       0.061910857 -0.044674706 -0.14586705 -0.0054791737
0003d0 c3 4b 43 bd 6b e4 50 3d b9 bf e6 3c 26 48 d7 3c
       -0.047679674 0.050999086 0.028167592 0.02627952
0003e0 d6 12 f2 bd eb b8 4c 3e c1 18 b6 3e 1b 86 9c 3c
       -0.11819999 0.19992416 0.3556576 0.019106915
0003f0 ff 3d c4 3c 34 ea 0c bc 23 bd d9 3d 3a d5 3f 3c
       0.023955343 -0.00860076 0.10631778 0.011708552

graph_layers.1.fc.0.bias f4 [64]
000000 be b0 9d be 7c f4 3a 3d 01 fa 7e be 00 86 e5 3c
       -0.30798906 0.045643315 -0.24900056 0.028017998
000010 74 11 00 80 ca 0d 82 ba e6 c0 22 bb a2 c6 99 bd
       -6.261e-42 -0.0009922322 -0.0024834215 -0.07508589
000020 4f cf 20 3e 58 11 00 80 4d 03 1c be 03 b0 09 3c
       0.15704082 -6.222e-42 -0.15235634 0.008403781
000030 1f 05 41 3e cd 0e 00 80 c4 3b b8 ba 1d da 3c be
       0.1884961 -5.31e-42 -0.0014055897 -0.18442579
000040 51 d2 a6 be 3f 19 6b 3e 75 72 07 3b a0 0a f8 be
       -0.32582334 0.2295885 0.0020667587 -0.48445606
000050 ec 10 00 80 b9 0f 00 80 86 b8 e9 3a a4 ed 15 bd
       -6.07e-42 -5.64e-42 0.0017831482 -0.036603585
000060 d3 d0 37 3d c5 11 00 80 50 d7 e4 b8 19 10 00 80
       0.044876885 -6.375e-42 -0.00010911992 -5.775e-42
000070 ef cf 1a 3e 3e 4a cc 3a cb 2f 99 3e 8b 0e 00 80
       0.15118383 0.0015586091 0.29919276 -5.217e-42
000080 f8 ce d7 bc 3e d6 c7 3d 0c 15 3b bd aa 05 4b be
       -0.026343808 0.0975766 -0.04567437 -0.1982638
000090 5d 9f 57 3e c5 3d 46 3d 59 84 ee bd f3 33 86 3e
       0.21056886 0.04839875 -0.11646337 0.2621151
0000a0 09 9b 6e be 66 af e9 3d ba b6 a1 3a a2 0e 00 80
       -0.23301329 0.11410408 0.0012337782 -5.249e-42
0000b0 d1 ad 96 3d 49 9a cd be 52 0f 00 80 e4 94 da 3e
       0.073573716 -0.40156773 -5.496e-42 0.4269172
0000c0 f8 44 45 be 90 2b cc 3e d3 10 00 80 59 04 19 bb
       -0.1926459 0.39876986 -6.035e-42 -0.0023348539
0000d0 8b 34 fb 3d 5c 85 60 be 62 f9 f7 3e 6e 13 01 3e
       0.12265881 -0.21925873 0.4843245 0.12605068
0000e0 a6 79 84 be 0d fe 51 3e e2 0e 00 80 85 3d a1 3a
       -0.2587406 0.20507069 -5.339e-42 0.001230166
0000f0 d6 13 bf 3e e6 f5 d2 bd ed 74 a2 3e 18 d7 65 ba
       0.3731982 -0.10300808 0.31729832 -0.0008767708

graph_layers.1.fc.2.weight f4 [64, 64]
000000 e9 33 bd 3b ad 51 9f 3c 9f 6d 66 bd fb 3e e0 3d
       0.0057740104 0.019448126 -0.056256887 0.109495126
000010 97 0e 00 80 04 57 f6 2f d3 9f cf 3a b5 15 65 be
       -5.234e-42 4.4808968e-10 0.0015840478 -0.22371562
000020 ee a5 22 be 8d 10 00 80 ac 18 f7 bd 9f 25 fc 3c
       -0.1588361 -5.937e-42 -0.12065253 0.030779658
000030 3c c4 b9 be 9d 0f 00 80 71 78 70 b9 4b cb 3e 3d
       -0.36282527 -5.601e-42 -0.00022933052 0.046580594
000040 29 08 07 be 5a 45 1b bc 26 da 0d 3c e2 71 63 be
       -0.13186707 -0.009476984 0.008657968 -0.22211412
000050 18 10 00 00 39 0f 00 00 76 1b ed bb a9 73 79 bd
       5.773e-42 5.461e-42 -0.0072359396 -0.060901318
000060 fa 17 00 3e 5b 10 00 00 13 0f 5a 1b e9 10 00 80
       0.12509146 5.867e-42 1.8037408e-22 -6.066e-42
000070 57 5f 77 be d9 c2 95 3a 97 cd a9 be 2f 0f 00 00
       -0.24157463 0.0011425867 -0.33164665 5.447e-42
000080 e9 be 15 be 90 12 d1 3d 3c 59 77 3e 19 ae 6f bc
       -0.14623608 0.10208619 0.24155134 -0.01462891
000090 bb 87 62 3d d6 38 5b bb a7 6d 4b 3e 93 f8 36 bd
       0.055305224 -0.0033450625 0.19866048 -0.044670653
0000a0 5d be 3e be 1d b5 af 3d bd 60 92 bb fe 0e 00 80
       -0.18627305 0.085794665 -0.0044670985 -5.378e-42
0000b0 2d bd e2 3d 65 07 07 3b 94 10 00 00 f6 af 6a be
       0.11071239 0.0020603773 5.947e-42 -0.22918686
0000c0 a9 7e b5 3e 5a c2 76 3e 85 0e 00 80 37 ef 87 b6
       0.35448197 0.24097577 -5.209e-42 -4.051162e-06
0000d0 dd ca 07 3e 2d 36 70 bd 86 35 1d bc d8 c0 25 3e
       0.1326098 -0.058645416 -0.0095952805 0.16186845
0000e0 21 b0 a9 bd 5e 08 02 be 84 11 00 80 29 2c 01 3c
       -0.08285547 -0.12698504 -6.283e-42 0.007884064
0000f0 4f 47 4c 3c 9e 61 66 bd f7 32 c7 be 8a 19 4b 39
       0.012468173 -0.05624544 -0.3890607 0.00019369103
000100 61 0f 00 80 31 0f 00 80 b3 10 00 80 4b 0f 00 80
       -5.517e-42 -5.45e-42 -5.99e-42 -5.486e-42
000110 f7 0c 00 00 af 05 00 80 38 00 00 80 cf 0f 00 80
       4.651e-42 -2.039e-42 -7.8e-44 -5.671e-42
000120 0c 11 00 80 68 0e 00 00 0b 10 00 80 69 10 00 80
       -6.115e-42 5.168e-42 -5.755e-42 -5.887e-42
000130 8a 11 00 80 5e 08 00 00 56 0e 00 80 53 11 00 80
       -6.292e-42 3.002e-42 -5.143e-42 -6.215e-42
000140 d2 0e 00 80 6d 11 00 80 ce 03 00 80 a3 0e 00 80
       -5.317e-42 -6.251e-42 -1.365e-42 -5.25e-42
000150 f2 0a 00 80 56 0a 00 80 73 0f 00 80 58 11 00 80
       -3.926e-42 -3.708e-42 -5.542e-42 -6.222e-42
000160 c8 0e 00 80 2a 3a 00 00 8f 10 00 00 e5 02 00 80
       -5.303e-42 2.0865e-41 5.94e-42 -1.038e-42
000170 9d 0e 00 80 4b 0d 00 00 99 10 00 80 64 04 00 00
       -5.242e-42 4.769e-42 -5.954e-42 1.575e-42
000180 8e 11 00 80 83 0e 00 80 53 11 00 80 1b 11 00 80
       -6.297e-42 -5.206e-42 -6.215e-42 -6.136e-42
000190 ce 10 00 80 82 0a 00 80 cc 10 00 80 ca 0e 00 80
       -6.028e-42 -3.77e-42 -6.026e-42 -5.305e-42
0001a0 d3 0f 00 80 b4 0e 00 80 df 0d 00 00 8a 31 00 80
       -5.677e-42 -5.274e-42 4.976e-42 -1.7771e-41
0001b0 c1 0f 00 80 3a 0f 00 80 49 20 00 80 3a 10 00 80
       -5.651e-42 -5.462e-42 -1.1582e-41 -5.821e-42
0001c0 80 10 00 80 1a 11 00 80 2e 16 00 80 d2 0a 00 80
       -5.919e-42 -6.135e-42 -7.957e-42 -3.882e-42
0001d0 35 10 00 80 aa 10 00 80 c0 10 00 80 22 0f 00 80
       -5.814e-42 -5.978e-42 -6.009e-42 -5.429e-42
0001e0 a3 0f 00 80 9f 0e 00 80 d4 08 00 00 96 0e 00 80
       -5.61e-42 -5.245e-42 3.167e-42 -5.232e-42
0001f0 82 11 00 80 ae 0e 00 80 06 0f 00 80 c9 07 00 80
       -6.28e-42 -5.266e-42 -5.39e-42 -2.793e-42
000200 3c 34 52 3e d2 20 39 3e 45 00 f7 bd ca 58 6b be
       0.20527738 0.18078926 -0.12060598 -0.22983089
000210 8d 0e 00 00 e1 b3 88 b7 6c 87 2d bb ec 41 25 3c
       5.22e-42 -1.6296226e-05 -0.0026478423 0.010086518
000220 56 0d 20 3e 77 11 00 80 e5 c4 fe bc 46 33 71 3c
       0.15630087 -6.265e-42 -0.031099746 0.014721697
000230 00 a0 db be c3 11 00 80 bc 40 b3 3b 24 3f 10 be
       -0.42895508 -6.372e-42 0.0054703634 -0.14086586
000240 a2 a6 92 be 13 5d 28 bd 97 7b 1c 3c ce d1 4b bd
       -0.28642756 -0.041104387 0.0095509505 -0.049760632
000250 a3 11 00 80 a1 0f 00 00 c3 0c 6e bd d9 68 79 be
       -6.327e-42 5.607e-42 -0.05811764 -0.24356402
000260 9d 8c 32 3d ca 0e 00 80 34 10 00 00 66 10 00 00
       0.04359113 -5.305e-42 5.813e-42 5.883e-42
000270 59 17 d7 bc 43 d8 97 bb 9d 39 d9 bd 55 0f 00 80
       -0.02625625 -0.0046339347 -0.10606692 -5.5e-42
000280 c5 45 6c 3c b8 63 48 be b9 86 ad be 37 dc a9 3d
       0.014420931 -0.1956929 -0.33891848 0.08293956
000290 aa d8 47 be 24 d4 66 3d 08 55 d7 be 01 45 14 be
       -0.19516245 0.056354657 -0.4205706 -0.14479448
0002a0 cf 8d 1e be 9f 24 76 3e 2b 0f b3 3b b7 0f 00 00
       -0.15483783 0.24037407 0.0054644546 5.637e-42
0002b0 9b 8f d4 3c 90 f8 15 3d e8 0d 00 80 19 3b 8a bd
       0.025947383 0.036614 -4.989e-42 -0.06749553
0002c0 c0 25 78 be 8c 5f 64 be 90 11 00 80 00 5f eb b4
       -0.2423315 -0.22302073 -6.3e-42 -4.3841283e-07
0002d0 ff 5d 32 be aa 5e 1b 3e 58 f4 d7 be 5c 0f b8 3b
       -0.17418669 0.1517283 -0.42178607 0.0056170654
0002e0 04 35 d7 bd ff f3 ce 3d ad 10 00 80 ba be 24 3a
       -0.10508159 0.10105132 -5.982e-42 0.0006284524
0002f0 d0 b6 6f be 0d 8f 1c 3e 6d 27 a1 3c 6a 81 95 39
       -0.23409581 0.15288945 0.01967212 0.00028515916
000300 c0 95 d8 3d e6 a1 39 be 1f 08 2b 3d ca 73 4c 3c
       0.105754375 -0.18128166 0.04175579 0.012478778
000310 a9 11 00 00 ce 4b 1c 37 b3 a6 45 3a 0e 16 ee 3d
       6.335e-42 9.315974e-06 0.0007539794 0.116253
000320 50 b1 f2 bd 7c 0f 00 00 78 e4 0c bc 54 7f 99 3b
       -0.11850226 5.555e-42 -0.008599393 0.004684368
000330 4b f7 e2 3d 7c 0f 00 80 cc 0a a8 bb af ac 9c 3e
       0.11082324 -5.555e-42 -0.00512824 0.30600497
000340 29 02 07 3e 92 88 17 bc 42 06 57 bc 73 5d 3e 3d
       0.13184418 -0.0092488695 -0.013124051 0.04647584
000350 be 0f 00 80 46 0e 00 80 cb 10 b1 bd 16 70 60 3d
       -5.647e-42 -5.12e-42 -0.08645781 0.054794393
000360 6e ab 61 be c2 0e 00 00 ab a9 90 34 5d 0f 00 80
       -0.22038051 5.294e-42 2.694554e-07 -5.511e-42
000370 d9 47 5c bc 76 83 14 3b b3 a3 81 3e ca 0f 00 00
       -0.013444864 0.0022661365 0.25320205 5.664e-42
000380 3f 19 62 3d f9 4f d5 3d fa 76 39 be 4f 0d ae 3d
       0.055199858 0.10415644 -0.18111792 0.08498632
000390 d2 62 93 bc 21 da 0f bc 86 3f 01 be 85 1e b6 3b
       -0.017991457 -0.008780033 -0.12621889 0.0055578374
0003a0 f0 7d 69 3a dc 51 ec 3d c8 ee b6 bb 03 10 00 80
       0.0008907011 0.11539051 -0.005582664 -5.744e-42
0003b0 69 7a 12 3d 44 d7 d4 3c 3c 0f 00 00 42 6c 4e 3d
       0.03576127 0.025981553 5.465e-42 0.05039621
0003c0 75 e1 0a 3c 14 af 4f be 91 11 00 00 d8 35 8f 38
       0.008476605 -0.20281631 6.302e-42 6.8288005e-05
0003d0 53 20 f3 bd 98 5e ff 3d 2f 32 8f 3d 51 63 ef bd
       -0.118714 0.12469214 0.06991994 -0.11688865
0003e0 11 eb 8d be f0 72 a4 be 46 0f 00 80 d2 a0 17 3c
       -0.27718404 -0.3211894 -5.479e-42 0.009254651
0003f0 db d3 65 bc 2f b3 2d be 2a c8 2b be 8b 6c 7c 38
       -0.014027561 -0.16962884 -0.16775575 6.018257e-05

graph_layers.1.fc.2.bias f4 [64]
000000 c1 18 c9 be b3 0f 00 80 d8 e0 01 3d 93 1a e9 be
       -0.39276698 -5.632e-42 0.03170857 -0.45528087
000010 61 9a 0f 3f 80 85 b8 3e a5 c2 6f 3e 3d b8 e4 3d
       0.5609494 0.36039352 0.23414095 0.11167953
000020 bf d2 50 be 77 be 3d be 59 32 04 bf 4d 27 24 be
       -0.20392893 -0.18529688 -0.51639324 -0.16030617
000030 c8 c6 6c 3e 3d a2 ba 3e 40 7f a6 3e 0b 07 37 3e
       0.23122704 0.36451903 0.3251896 0.1787378
000040 c4 11 00 80 eb 57 ab be 51 56 84 be 0f 2a 1e 3d
       -6.373e-42 -0.33465514 -0.25847104 0.03861433
000050 3c 79 6c 3e e5 b6 5e bf b7 ce 0e 3f dc f6 67 3e
       0.23093122 -0.86997825 0.5578417 0.22652763
000060 c1 d9 69 be 0f c5 e5 3e 60 c0 07 3f eb 69 01 3f
       -0.22836973 0.44876906 0.53027916 0.50552243
000070 d2 9d 57 bf 44 81 62 3e ae 00 98 3e 24 a6 85 3d
       -0.8422519 0.22119623 0.2968802 0.065258294
000080 50 d2 c8 3c 3f e2 05 be e7 91 d4 3e dd bf 4d bd
       0.024514347 -0.13074587 0.41517565 -0.050231803
000090 d6 9e ac 3e 46 76 d4 3d a7 4d bf bc df fd 20 3f
       0.33714932 0.10374121 -0.023352457 0.62887377
0000a0 7b 8e cc 3e c5 78 d8 3e 17 21 c9 3e d9 ce b1 bd
       0.39952454 0.4227964 0.39283058 -0.08682031
0000b0 d1 f4 82 3a ff 1a 1a 3e bf 5f 29 be 86 7a 9c 3e
       0.0009991174 0.1504936 -0.1654043 0.30562228
0000c0 0d af 39 be 80 20 4b 3e 7f c5 bc 3e 6d 56 33 3e
       -0.18133183 0.19836617 0.36869428 0.17513438
0000d0 4b 9d e5 be 79 63 b5 3e 3d d4 bf 3e 61 5a 22 bf
       -0.44846568 0.35427454 0.37466612 -0.6341916
0000e0 09 de b2 3e 02 bc 6a bf 11 2e 00 80 66 32 7f 3e
       0.34935024 -0.9169313 -1.6526e-41 0.24921569
0000f0 52 fc 05 3e bd 23 cf be 47 e1 6c 3e a3 0e 00 80
       0.13084534 -0.40456954 0.23132811 -5.25e-42

graph_layers.2.fc.0.weight f4 [64, 448]
000000 97 af a3 3d 1b 0d 00 00 a7 46 18 bd 5b 2c 04 be
       0.079924755 4.701e-42 -0.037176754 -0.12907545
000010 13 c2 0d 3e 30 62 fb 3d c4 32 b3 3c a7 cc db 3c
       0.13843565 0.12274587 0.021874793 0.026830984
000020 0b 8d f1 ba 9b 33 59 3d cf 6c f7 3a ae c5 e4 bb
       -0.0018428875 0.05302773 0.0018877032 -0.006981573
000030 5d 71 dd bc 64 e5 c7 3b bc 48 c1 bd 55 9c 6d 39
       -0.027031595 0.0061003435 -0.09437701 0.0002266032
000040 e4 32 00 80 61 6f 27 be 94 db b1 bd 69 4f 6e 3d
       -1.8256e-41 -0.16351081 -0.08684459 0.0581812
000050 5b a9 31 bd 3a 77 10 3e 31 d6 bf 3b f1 ae cb ba
       -0.0433744 0.14107981 0.005854391 -0.0015539808
000060 87 7a 43 3d a4 0b 03 3d 6a d9 19 3e a0 82 2a 3e
       0.047724273 0.031993523 0.15024343 0.16651392
000070 4d 12 93 ba 2b c9 92 3a 67 a0 1d bd 8e f5 af 3b
       -0.0011220664 0.0011198869 -0.03848305 0.0053698486
000080 c7 7f 6c bd f1 9d 20 3e 21 ca 00 bd 51 8d 97 3d
       -0.057739045 0.1568525 -0.031442765 0.07400001
000090 df 03 17 3d 97 26 32 bb f1 85 9a bc 69 01 13 3e
       0.036868926 -0.0027183646 -0.018862696 0.14356007
0000a0 bc 1a 66 3d 4f 14 08 3e 64 6f 6f 3d 97 8d 64 3d
       0.05617784 0.13288997 0.05845584 0.055799093
0000b0 20 d9 39 3d e3 e7 89 bc 6b e1 8e 3a c1 a1 0d 3d
       0.045373082 -0.016834205 0.001090092 0.03457809
0000c0 77 f9 84 3c 6c d6 28 3e 25 7f 9f 3d b6 4b f0 bb
       0.016232235 0.16488045 0.07787923 -0.007333244
0000d0 7b aa 6f bd 49 8b e5 bb 80 ae d4 bc 6b 66 47 3d
       -0.058512192 -0.0070051295 -0.025962114 0.048681658
0000e0 f5 e2 01 3d 04 19 9a bc f4 0d 00 00 8c 65 e5 3d
       0.031710584 -0.018810757 5.005e-42 0.11201009
0000f0 36 fa fd 3d 69 72 9f bd ff ef ed 3c 3e 10 00 00
       0.124012396 -0.07785494 0.029045103 5.827e-42
000100 26 2b 2a 3e 30 10 00 00 68 f9 d4 3d 3d 31 fd 3d
       0.16618022 5.807e-42 0.10399133 0.12362907
000110 c4 b0 d5 3d 1c 07 d5 3d c9 a4 94 3a 1e b1 65 3d
       0.10434106 0.10401747 0.0011340614 0.056077115
000120 4b 40 83 3d a3 6b 09 3d b4 2d 7e bc 0f 5c b5 bd
       0.06408747 0.033549916 -0.015513826 -0.088554494
000130 3c f6 d0 3d db 27 41 3e fa bc a4 3d e5 98 6b bd
       0.102032155 0.1886286 0.08043857 -0.05751886
000140 82 12 00 80 1b fe 68 3d 5c 0f 8f 3e b2 14 ad 3c
       -6.64e-42 0.05688296 0.27941406 0.021128032
000150 a9 1b dd 3d 5e ce a6 3e 49 82 b4 bd cb e3 0e 3d
       0.107962914 0.3257932 -0.088139124 0.03488521
000160 f8 fb 5c bc c5 45 14 be 79 7c f6 bd 90 19 87 be
       -0.013487808 -0.1447974 -0.1203546 -0.2638669
000170 a8 d4 d7 3c 85 17 29 3e f3 fd 46 bd 5e bd ae bd
       0.02634652 0.16512878 -0.04858203 -0.08532213
000180 bf 5f 0d bd d9 fb 41 3e 82 29 22 3c c3 de 75 3e
       -0.03451514 0.18943729 0.009897592 0.24010758
000190 18 36 f3 bc 7d b5 b6 3c 64 ec 0d bc b4 64 24 be
       -0.02968888 0.022303337 -0.008662317 -0.1605404
0001a0 d1 70 f7 3d 6c 23 44 be d5 29 80 3e 0a fb fb 3c
       0.12082065 -0.19154137 0.25031915 0.030759353
0001b0 6a 7a a1 bc 4d 05 6b 3c 0d e5 11 3e 8a e0 65 bc
       -0.019711692 0.0143445255 0.14247532 -0.014030585
0001c0 1b 9f 85 bd 17 4f c0 3d 59 fc be 3d 6b 3e 39 3c
       -0.065244876 0.09390085 0.09325475 0.0113063855
0001d0 58 4e 56 bc a8 e3 84 3e 28 af 1f 3e c2 b3 de 3d
       -0.013080202 0.25954938 0.1559416 0.1087413
0001e0 6c 23 1c be ac 95 58 3b 6f 0e 00 00 bb ce ea 3c
       -0.15247887 0.0033048196 5.178e-42 0.02866303
0001f0 d9 2b 5b 3d 28 c7 ab ba 10 ae 80 bd 5a 0e 00 00
       0.053508613 -0.0013105618 -0.062832 5.148e-42
000200 5a 81 eb bd 88 0e 00 80 29 b5 46 bd 30 91 03 3e
       -0.11499281 -5.213e-42 -0.04851261 0.12848353
000210 2b ec 0f 3d 08 c5 6f be 44 cf 81 bd 15 06 91 ba
       0.035137337 -0.23415005 -0.06338361 -0.0011064435
000220 19 d4 80 3d 67 38 d7 bc a1 d1 13 bd fc 88 e0 3d
       0.062904544 -0.026272012 -0.03608859 0.10963628
000230 3a b8 31 be aa 3c 57 be ad 78 79 3d 8b f6 3f 3a
       -0.17355433 -0.21019235 0.0609061 0.00073228095
000240 9c 03 00 80 7e ca 5d 3a 3c f2 44 be a7 3e 3e bd
       -1.295e-42 0.00084606546 -0.1923303 -0.04644647
000250 06 a5 51 be be 3c a4 be 74 ae 03 3e 89 41 a8 3c
       -0.20473108 -0.32077593 0.12859517 0.020539062
000260 98 93 02 3e 7f 14 cd 3d 6a 78 2f 39 97 a2 c5 3d
       0.12751615 0.10013675 0.00016734158 0.09650152
000270 bd 06 c5 bc 70 ac 9e bd 7d 8e 9b 3c d6 65 6f bd
       -0.024051065 -0.077477336 0.018988842 -0.058446728
000280 43 3c 87 3d 01 c0 52 be 6a da dd bb 3a 0b 8a be
       0.06603291 -0.20581056 -0.0067704218 -0.2696169
000290 0a 3a a4 3c 16 d5 cf bb 1a 3a ab bd 6b 3f 4c 3e
       0.020047206 -0.0063425405 -0.08360691 0.19946067
0002a0 06 cc 00 be a3 7a ae 3d 59 c4 a6 bc 90 89 01 bc
       -0.12577829 0.08519485 -0.020357298 -0.007906333
0002b0 99 f9 0c 3e de 87 ae bd 7e a2 ae bd 5d 25 cf bc
       0.13767089 -0.08522008 -0.08527087 -0.02528637
0002c0 ed e8 bb 3c f4 aa 61 be 6f 89 5e 3c d7 6e a4 3c
       0.022938216 -0.2203787 0.013582571 0.020072384
0002d0 92 00 06 3d db fa c9 bb ef 0d 4a bd c8 7b 0c 3d
       0.032715388 -0.0061639375 -0.049329694 0.034297734
0002e0 34 c2 66 3e 85 d3 ae 3d 7f 0d 00 80 2e fa f6 3d
       0.2253502 0.08536438 -4.841e-42 0.12059437
0002f0 d5 ac d8 3d 89 ac 0b be eb 6c 0a 3e 17 0e 00 00
       0.1057984 -0.13640036 0.13518111 5.054e-42
000300 9d 14 9b 3c 16 0f 00 00 0c 81 64 3d 9d 9e ac bb
       0.018930728 5.412e-42 0.05578713 -0.0052679316
000310 51 a7 da bd 0b 9a 8c 3c fd cb c0 bd 51 6e f7 bc
       -0.10676444 0.017163297 -0.09413908 -0.03020397
000320 66 df 43 3d 53 c0 07 bd 6b cd 36 3d a2 2c 57 3d
       0.04782047 -0.0331424 0.044629496 0.0525328
000330 0f 5b 36 3d 6c b9 a1 3d 30 cb 6c 3d 19 b5 11 3d
       0.044520434 0.078966945 0.057810962 0.0355731
000340 91 1f 00 00 39 e3 0a 3e 36 6b 85 bc 64 5a a0 bd
       1.1324e-41 0.13563241 -0.016286474 -0.07829741
000350 a1 a6 6c 3e 9e d1 38 3e 7c b2 11 be 7d f2 2a bd
       0.23110439 0.18048713 -0.14228243 -0.04173516
000360 72 ad f0 bc a0 99 14 3d 09 be 87 3d a9 d9 2f ba
       -0.02937958 0.03627932 0.06628043 -0.0006708154
000370 2b c6 bd 3c 2b d8 55 3d 2b 71 fb bd 86 29 96 3d
       0.023165783 0.052208107 -0.122774445 0.07332139
000380 4a 3a d6 3d f6 e8 88 3e 4a a2 06 bc c5 da 37 3e
       0.104603365 0.26740235 -0.008217404 0.17954548
000390 b9 1e 97 bc cd 6f a8 bc c4 f4 1a 3d da 16 36 bd
       -0.018447267 -0.020561123 0.037831083 -0.044455387
0003a0 d8 1f cb bc a9 9c 72 bd 50 b6 f9 bd ef 49 f8 bc
       -0.024795458 -0.059231434 -0.121929765 -0.030308692
0003b0 f9 66 1f 3e 0c 53 5f 3d 22 ae a3 bd 05 e9 e4 bd
       0.15566625 0.05452256 -0.079921976 -0.111772574
0003c0 a0 8e 39 3c 21 68 4e bd 58 a9 47 bd 57 01 09 3d
       0.011325508 -0.050392274 -0.048745483 0.033448543
0003d0 db 49 03 3e fd 8e 66 3c d2 fc bf 3c 91 c0 51 be
       0.12821142 0.014072177 0.023435984 -0.20483615
0003e0 dc 07 6c be 64 9b 21 3d 74 0f 00 00 80 4b 4c be
       -0.23049873 0.039454833 5.544e-42 -0.19950676
0003f0 b5 0e 97 bd a7 1c e9 bc da 9e fa bd f9 0d 00 00
       -0.07375852 -0.028456045 -0.1223733 5.012e-42

graph_layers.2.fc.0.bias f4 [64]
000000 42 b8 c5 3e 20 91 df b4 e5 99 02 3f a7 95 a1 b7
       0.3861714 -4.164258e-07 0.51016074 -1.9262383e-05
000010 67 47 fd 3e 49 c7 fc bc 26 65 47 3e 1c ac bd b8
       0.49468538 -0.030856745 0.19472179 -9.04428e-05
000020 55 4b 5f b1 67 13 b1 b6 a7 62 55 3d 8d 76 87 96
       -3.2493592e-09 -5.27727e-06 0.052096035 -2.1885242e-25
000030 10 67 d0 bd a0 0f 0a b3 b9 69 d2 b8 99 b6 e2 3e
       -0.101759076 -3.214484e-08 -0.00010033273 0.44279936
000040 9d a4 2c b8 a3 4f c5 bd 7b 00 ce 3e 6e 17 9d 38
       -4.1161304e-05 -0.0963433 0.40234742 7.4907075e-05
000050 cd 60 ca 3d 30 f9 c0 38 d4 0f 00 80 39 cc 8e 39
       0.098817445 9.201688e-05 -5.678e-42 0.00027236508
000060 dc b1 53 3e 4c 4c bb bc 02 d3 ff 3d e0 94 8a b1
       0.20673317 -0.02286353 0.124914184 -4.0332537e-09
000070 0e 1e fd ae e9 a1 12 3f 4c 82 64 3a 24 10 00 80
       -1.1510447e-10 0.57278305 0.00087169255 -5.79e-42
000080 6d 21 b2 3d dd a8 84 9b d4 59 b6 3c 73 37 d6 3e
       0.08697782 -2.1946694e-22 0.02225963 0.4183918
000090 8c 58 ca 3d 25 c4 68 3e 79 13 3c 3e 35 d6 50 3e
       0.0988017 0.22731073 0.18366803 0.20394213
0000a0 aa 07 a8 bd 90 4e 41 b9 20 7f fe 3e f6 24 88 b9
       -0.08204587 -0.00018435181 0.49706364 -0.0002596748
0000b0 a3 74 7e 39 42 cf 9f b5 91 33 81 38 83 33 6f b6
       0.00024266778 -1.1906743e-06 6.160804e-05 -3.564376e-06
0000c0 1a e9 03 39 91 eb 5e 36 d9 99 59 b9 5d cb 0d 3f
       0.0001257997 3.3217696e-06 -0.00020752045 0.5538843
0000d0 20 61 98 3e fe dc 2f 3e a2 d9 46 3f 21 44 78 b8
       0.297616 0.17174146 0.7767583 -5.9191258e-05
0000e0 85 d3 5b b7 26 8e d5 3e 79 ff 2d b9 2f 6e ec 3e
       -1.3102665e-05 0.41710013 -0.00016593737 0.46177813
0000f0 f9 54 7f 3d a1 82 35 3f 83 89 1e b8 0f 6a 6d af
       0.062336896 0.7090245 -3.7798203e-05 -2.1592704e-10
