checkpoints/checkpoint_TU_657452_epoch50_seed0000111.pth.tar (torch_old, 312244 bytes, 27 tensors)

graph_layers.0.fc.0.weight f4 [64, 9]
000000 b5 3c ce 3d f1 8a 19 be 7d da b4 3e 02 d7 22 be
       0.10070173 -0.14994408 0.35322943 -0.15902331
000010 44 41 45 bd 4a e5 3f be b5 74 8d be 62 36 f5 bd
       -0.048157945 -0.1873981 -0.27628103 -0.11973263
000020 22 90 70 be 30 47 98 3e e3 2a 96 3c a3 64 c9 3a
       -0.23492482 0.29741812 0.018330997 0.0015365075
000030 47 c0 a3 3e a1 05 70 be 9e e7 5c 3e 82 12 83 3e
       0.31982633 -0.23439647 0.2157273 0.25600058
000040 c2 ef c2 be 72 a3 d7 3d 26 33 10 be 66 17 50 be
       -0.38073546 0.105292216 -0.14082012 -0.20321426
000050 bd 37 05 be fb fa 1a 3e 06 53 27 3e 42 a2 a3 3c
       -0.13009544 0.15134804 0.16340265 0.019974831
000060 48 fb cd bd 86 5e 83 3e 5c d4 5a 3e a6 20 3f bd
       -0.10057694 0.25658053 0.21370071 -0.046661995
000070 6b 93 9d 3c df 2e 3c 3d 99 65 8d 3e bc cf a8 bd
       0.019235333 0.045943137 0.27616575 -0.08242747
000080 a8 33 52 3c d7 d7 95 3e 8e 22 36 3e b0 d1 68 3a
       0.012829699 0.29266235 0.17786619 0.00088813435
000090 8f 2b 01 3e 94 2c 7c 3e 5f 73 73 be 91 9d ac be
       0.12614273 0.2462638 -0.2377448 -0.33713964
0000a0 5e ab 18 3d 89 4a 30 be cd 3d 10 be 8f 60 6e 3e
       0.037272803 -0.17215933 -0.14086075 0.23279022
0000b0 e9 7b 81 bd f9 de 65 3e 4e 22 28 3e 61 88 8e 3e
       -0.06322462 0.22448339 0.16419336 0.27838424
0000c0 4d 57 1e be ff 8f f4 3c 75 15 34 3e 55 a0 8e 3e
       -0.1546299 0.029853819 0.1758631 0.278567
0000d0 37 1b 40 be d9 ab b9 3e d4 e2 59 3e b1 b6 f9 3d
       -0.18760382 0.36263922 0.21277934 0.12193049
0000e0 30 f0 6a bd 51 78 c8 3e bd 5b f6 bd 2d 0a 89 be
       -0.057357967 0.39154294 -0.120292164 -0.26765576
0000f0 2b b4 42 3e a1 48 ae 3e d5 1b 84 be 5e 8f 0f be
       0.19014041 0.34039786 -0.25802484 -0.14019534
000100 5a f5 bc 3e c8 ff 6d bc b0 37 91 bd a8 7b c7 3d
       0.36905938 -0.014526315 -0.070907 0.097403824
000110 e7 48 88 3d f7 ba dc 3b 0f a4 94 3e 73 cb 67 3e
       0.0665453 0.006736155 0.29031417 0.22636203
000120 66 15 5e 3e c6 b9 3f 3e 61 4d 57 36 6b e9 02 3e
       0.2168785 0.1872321 3.2082537e-06 0.12784354
000130 97 e2 ad be 73 cc 2a bd da b3 84 be 5a 9e 5f be
       -0.33961937 -0.041698884 -0.25918466 -0.2183775
000140 40 f8 5e 3d 71 0d b2 bd 82 b9 8c 3e 67 17 b7 3e
       0.05443597 -0.0869397 0.2748528 0.35760042
000150 64 26 40 bd ec 8b 1e 3e 63 1f 38 bd a7 61 a8 bd
       -0.046911612 0.15483063 -0.044951808 -0.08221751
000160 c5 df a8 3d 8c 02 86 be 91 a5 9f be b1 9c 71 3d
       0.08245806 -0.26173818 -0.31181005 0.058987323
000170 b0 76 9a 3d d2 79 37 be 17 48 37 bd ca 98 a8 3d
       0.07542169 -0.17917565 -0.044746485 0.08232267
000180 ed 57 1b bd 59 2f c7 be fb f2 d1 3c ad 83 6f bd
       -0.03792565 -0.3890331 0.025628557 -0.058475185
000190 3b 17 51 3d ac 00 d2 3d b0 b6 1c be 8f 29 6c be
       0.051047545 0.102540344 -0.15304065 -0.23062728
0001a0 03 6a 5f bc 11 87 62 be 31 b9 42 3e ae ae 51 be
       -0.013636115 -0.22121836 0.19015957 -0.20476791
0001b0 17 47 02 3e fc dc 8c 3e 4b fe 25 3d 9a 79 f2 3d
       0.12722431 0.27512348 0.040525716 0.118396
0001c0 5d f0 16 3e f5 7a a6 be 78 98 70 3e 04 0b 60 be
       0.14740129 -0.32515684 0.23495662 -0.21879202
0001d0 27 1e 91 3e ca e7 73 3d 56 d8 38 be a9 1e ff 3c
       0.28343317 0.059547223 -0.18051276 0.03114255
0001e0 90 2f 68 3e b3 13 a8 3d ef d1 a7 bd d3 99 9d 3e
       0.22674394 0.08206882 -0.081943385 0.3078142
0001f0 53 ab 9c be 2f 78 55 bd 5d 23 e9 3d e3 c8 57 bb
       -0.3059946 -0.05211657 0.11383698 -0.0032926134
000200 92 45 9f 3e 2a 5d a0 be 07 ba 25 3e eb b0 82 be
       0.31107765 -0.3132108 0.16184245 -0.25525603
000210 4a c7 4c be 25 de b6 be f9 00 e8 3e c9 b4 8c bd
       -0.19997898 -0.35716358 0.45313242 -0.068704195
000220 cb 21 b9 bd 30 70 64 bd d1 0e 7f be 5e 9b 05 3e
       -0.090396486 -0.055771053 -0.24907996 0.13047549
000230 6f 44 e2 bb 5e c5 51 be f3 fa d1 bd e9 76 14 3c
       -0.0069051306 -0.20485446 -0.10252943 0.0090615535
000240 2c c9 8a 3d d5 72 0b 3d dd be 1f 3e e9 cf 5d be
       0.06776652 0.03404506 0.15600152 -0.21661343
000250 78 03 8d be 48 d4 a6 bd 41 30 61 bc 7c ad 90 bd
       -0.2754171 -0.08145958 -0.013744415 -0.070643395
000260 97 d9 9c bd 6d 03 b3 3e 94 f9 d3 bc 9d 31 52 3e
       -0.076586895 0.3496355 -0.025875844 0.20526738
000270 61 f5 62 3b 5e bc 17 be 5b 49 a3 be ed 92 5a 3e
       0.003463112 -0.1481795 -0.31891903 0.2134511
000280 ae 21 9a be 4a 75 9c 3c da ba f0 3c f4 36 49 bb
       -0.3010382 0.019098897 0.029385973 -0.003070292
000290 99 02 4e 97 c2 e9 b6 3d bf 4a 15 3d 95 3d 7d 3e
       -6.656547e-25 0.089313045 0.036448237 0.24730523
0002a0 b1 75 78 bd 49 fd f3 bd 67 47 23 3e 36 27 7a 3e
       -0.060659114 -0.11913545 0.15945207 0.2442902
0002b0 b4 02 7f 3c 72 a2 15 bd 68 17 fd bd 89 d3 84 3e
       0.015564609 -0.036531873 -0.1235798 0.2594264
0002c0 54 fd a1 3d 24 57 28 3d ce e0 e6 3d f4 22 b7 3c
       0.07909647 0.04109873 0.11273347 0.022355534
0002d0 70 97 8f be 25 43 ab 3e 98 77 76 3d ff 9e 4a 3d
       -0.28045225 0.33449665 0.060172647 0.049468037
0002e0 0c e7 58 3e cf 74 5e be fd 0f 38 be 9a d7 97 3e
       0.21181887 -0.21724246 -0.17974849 0.29656678
0002f0 4f cb a6 be 64 96 fd bd 6b 2e 33 be ab 9f ff 3d
       -0.32576987 -0.123822 -0.17498176 0.12481626
000300 4c 0b 10 3d 67 8a 82 3e 55 2d 2e 3e 27 60 77 3e
       0.035167024 0.25496218 0.1700948 0.24157773
000310 33 fa 21 be 12 d4 b8 3b c4 a2 bd 3d 00 10 4f bc
       -0.158181 0.005640515 0.09259561 -0.012638092
000320 2e 4d 6d be 79 21 ea bd e5 f8 2b 3e df b6 66 bd
       -0.23173973 -0.11432166 0.16794164 -0.056326743
000330 ea dd f6 3d 52 99 a3 3e c2 ce 96 3e 0d af 94 be
       0.120540455 0.31952912 0.2945462 -0.29039803
000340 44 0f 5f be 3c 99 ac 3d 54 e4 69 be 31 32 00 be
       -0.21783167 0.08427665 -0.22841007 -0.12519147
000350 ad 86 3b 3e 18 17 ca 3d 6c bf bc 3e 7e 88 07 be
       0.18313093 0.09867686 0.36864793 -0.13235661
000360 ad 50 b1 bd f8 0e 82 3e d2 ef ee 3c 2d 23 88 be
       -0.08657966 0.25402045 0.02916709 -0.26589337
000370 2b e9 a8 3e 80 26 94 be cb 49 df 3d 2a 57 e3 be
       0.32990393 -0.28935623 0.10902747 -0.44402438
000380 fe c9 88 3e 00 89 8b 3e 72 f6 dd 3c 94 3a 85 3e
       0.26716608 0.2725296 0.027095053 0.26021254
000390 1c be b5 3e 85 11 9d be ea 1b a0 bd 41 a2 a9 be
       0.35496604 -0.3067743 -0.07817824 -0.33131602
0003a0 be 64 d6 3d ce 15 2c be de e2 73 3e af 93 61 bd
       0.10468434 -0.16805193 0.23817012 -0.055072483
0003b0 6d bf 87 3e fe bb dc bd c4 8d 71 be 46 95 96 3e
       0.26513234 -0.10778044 -0.23589236 0.29410762
0003c0 d7 42 0b bb f2 d4 58 3e fe 36 52 be 4f ef 2c be
       -0.0021249556 0.21174982 -0.2052879 -0.16888164
0003d0 0b 8c 47 3e 81 2a 85 be 63 66 ab bd b0 0b ac bc
       0.19487016 -0.2600899 -0.08369138 -0.021001667
0003e0 a1 70 31 3e 66 18 77 3d de 2f b1 be 58 47 4c be
       0.17328121 0.060326003 -0.34606832 -0.1994909
0003f0 63 37 00 00 a3 9e a1 bc ad 92 3c 3e 78 e4 3c bc
       1.9869e-41 -0.019728964 0.18415327 -0.011529081

graph_layers.0.fc.0.bias f4 [64]
000000 62 83 7b 3d 07 28 eb bd 9b b8 ef 3d 25 3d a0 be
       0.061404593 -0.11482244 0.117051326 -0.3129665
000010 96 a7 11 3e 9e 5b 48 be 00 89 55 3e 3b 16 80 3e
       0.14224085 -0.19566199 0.20853043 0.2501696
000020 ac 6a 52 be 89 ae 06 3c 25 6d 7a 3e 7b ea 6a 3e
       -0.20548505 0.008220323 0.24455698 0.2294101
000030 73 e1 b0 3e 6a 5b 19 3e 7a 45 35 3e 54 dc 0a be
       0.34547004 0.14976278 0.17702284 -0.13560611
000040 aa 62 93 3e 9a 90 5d be 18 84 c4 bd a7 83 83 3e
       0.28786212 -0.21637192 -0.095955074 0.2568638
000050 18 09 5b bd 35 6c 9e 3e 87 51 aa 3e a3 32 a4 bd
       -0.05347547 0.3094193 0.33265325 -0.08017471
000060 14 13 7d be d1 12 46 be a6 63 5c 3e 76 8c 7e 3d
       -0.24714309 -0.19343115 0.21522388 0.062145673
000070 96 78 2a be 87 a5 92 bd 74 50 29 bc 2e b4 75 3d
       -0.16647562 -0.07160478 -0.010334123 0.059986286
000080 be 32 27 be cf 77 6f be 1d 92 c5 bc 9b 09 40 3e
       -0.1632795 -0.23385547 -0.024117524 0.18753664
000090 cc 86 98 bd d8 8a ce 3d c1 d4 90 3c c5 6b b6 3c
       -0.074475855 0.10085076 0.017679574 0.022268185
0000a0 73 5a d4 3d e8 1a 39 be 3f 00 2b be 30 40 11 be
       0.10368814 -0.1807667 -0.16699313 -0.14184642
0000b0 23 8d 2f be 0e 4e 32 3c 03 2f 23 3e 77 78 0e bd
       -0.17143683 0.0108828675 0.15935902 -0.034782853
0000c0 5a c0 da bd 81 7b 51 be 73 73 2a bd 23 65 46 3e
       -0.106812194 -0.20457269 -0.041614007 0.19374518
0000d0 fc be 8c be d4 f5 ad 3e 5f 37 fc bc 74 4e b7 bd
       -0.2748946 0.33976614 -0.030788122 -0.089505106
0000e0 c1 d6 63 be 3a 54 39 3b 0b da 49 3e f4 9b 5b 3e
       -0.22249891 0.0028278963 0.19712083 0.2144621
0000f0 d1 57 46 be 12 ef 41 be 6b fb 09 3c d9 d1 1d bd
       -0.19369437 -0.18938854 0.008421759 -0.038530204

graph_layers.1.fc.0.weight f4 [64, 192]
000000 a9 96 a3 3d bf 84 cc 3d 5d 6d 5c 3d cf 62 fa 3c
       0.079877205 0.09986257 0.053815234 0.030564694
000010 8c 8a 0e bc 21 36 b3 3d 9f e8 31 bc 63 68 47 3d
       -0.008700024 0.08750559 -0.010858684 0.048683535
000020 2b 90 f4 bc a4 9c a7 3c 5b 76 df 3c a5 2d d4 bc
       -0.0298539 0.020460434 0.027278116 -0.025900671
000030 8b c1 61 3d 3f fe e8 3d 88 9d 20 3e b4 99 10 b9
       0.055116218 0.113766186 0.15685093 -0.00013790169
000040 67 3f 34 3d 75 c2 e6 3d 88 43 3a b6 4f 3f 0a bc
       0.044005778 0.112675585 -2.7755468e-06 -0.0084379455
000050 25 96 95 3c 3a a9 b2 3d c3 c3 8f bb ac 2e 8c 3d
       0.018260071 0.08723684 -0.0043873503 0.068448395
000060 a6 38 92 3d 05 df a0 3c 0e 72 f6 3c de 3e 11 bc
       0.07139711 0.019637594 0.030083682 -0.008865086
000070 12 05 8f 37 e7 57 e9 3b a6 1c 4b bc b9 5c f2 3c
       1.704929e-05 0.0071210745 -0.012396967 0.02958523
000080 ff f9 11 3e 27 62 9f bc 4b 55 18 bc 36 e3 55 3d
       0.14255522 -0.019455982 -0.009297679 0.05221864
000090 2e 07 f5 bb dc d4 12 bc 82 2c fc 3b 0a fb 63 3c
       -0.0074776625 -0.008961882 0.0076957354 0.013914833
0000a0 71 28 e6 3d 3d 8e 36 bc e9 fd b2 3d 19 12 93 3d
       0.11238182 -0.011142311 0.08739836 0.07181186
0000b0 c8 d0 e7 ba a7 29 8d 3c 53 48 f0 bc 4d b2 7f 3d
       -0.0017686123 0.017231775 -0.029331362 0.0624259
0000c0 4d b1 3c 3d b6 ad 04 3d 14 22 38 ae 3c b9 b0 3c
       0.046067525 0.032392226 -4.1867024e-11 0.021572702
0000d0 fa 12 d5 3d 11 8e 4a bb 45 67 07 bb e9 4f 0e 3d
       0.1040401 -0.0030907432 -0.0020660919 0.034744177
0000e0 5c 33 09 3d 45 97 99 3d 6c 03 01 bd d1 f0 a1 3d
       0.033496246 0.074995555 -0.031497404 0.0790726
0000f0 69 d0 0c bd bb aa 19 3d c9 f6 98 3d 48 b5 c2 3c
       -0.034378443 0.037516337 0.074689455 0.023768082
000100 de a3 ad 3c 43 35 02 be 73 7b cc bc a3 eb 11 bd
       0.021196302 -0.1271563 -0.024961209 -0.03562511
000110 57 2f 94 3c 3e 53 c1 bc 3a 58 19 bd b3 d5 ca bc
       0.01808898 -0.023599263 -0.037437655 -0.024760103
000120 e2 6c 2a bc 6f 59 83 bb 66 4b b1 3b 9c f5 dd bc
       -0.010401936 -0.004008464 0.0054105995 -0.027094655
000130 82 78 2d bd de 73 e3 bd 3c 3f 11 be d4 32 f3 a3
       -0.042351253 -0.11106084 -0.14184278 -2.636764e-17
000140 04 ab 04 bd 54 5a fb bd 5c 31 b7 33 57 84 9e bd
       -0.032389656 -0.12273088 8.53058e-08 -0.077400856
000150 8b 55 3e bd f6 90 8c bd 03 68 e5 3c 9a 46 18 bd
       -0.0464683 -0.068635866 0.028003698 -0.037176706
000160 ef a8 bb 3c ba d5 aa 3c 9f d8 90 3c cd dd bf 3d
       0.022907702 0.020853866 0.017681418 0.09368477
000170 f8 11 b0 b8 73 81 92 3d 63 bf 94 bc 34 78 6b 3d
       -8.395681e-05 0.07153597 -0.018157667 0.05748768
000180 d6 ec 8b bd d8 31 f2 3c 2a f0 40 3c fe 7c 4d bd
       -0.06832282 0.029564783 0.01177601 -0.05016803
000190 6f 74 c1 3d 5b c5 85 bd c9 87 8c bd ca 3d d5 3a
       0.09446036 -0.06531783 -0.068618365 0.0016269025
0001a0 cd cb 91 bd 28 7b 67 3d 6d 7a a9 bd a5 48 d1 bb
       -0.0711895 0.056513935 -0.08275304 -0.0063868337
0001b0 ba 85 64 3d eb d2 14 3d c5 7f 20 bc 61 86 98 bd
       0.055791594 0.03633396 -0.009796088 -0.07447506
0001c0 1b d6 9c 3c f1 26 5f bd 6c 09 00 00 83 63 82 bd
       0.019145062 -0.054480497 3.38e-42 -0.063666366
0001d0 db 0a c3 bd bc 53 0a bc 70 28 60 3d 3c be cf bc
       -0.09523555 -0.008442815 0.054726064 -0.025359266
0001e0 65 32 19 3d f6 62 33 bd d7 2a a7 bd f8 b2 0e 3c
       0.037401576 -0.04379555 -0.08162468 0.008709662
0001f0 65 fe 1f bd b4 62 20 bd 99 de bd bc eb 3d ea bc
       -0.03906097 -0.03915663 -0.023177432 -0.028593978
000200 7f 83 bc 3c f3 68 9e 3d 79 0a 6d 3d 94 42 05 3d
       0.023011921 0.07734861 0.057871316 0.032534197
000210 00 04 61 3d bf 15 09 3d 4a ed 0f bd 9f 4e 24 bc
       0.054935455 0.033468004 -0.035138406 -0.01002851
000220 38 25 7b 3d ed 93 c9 39 75 08 7b 3d 0e bc 91 3c
       0.06131479 0.0003844792 0.061287362 0.017789867
000230 38 2f 8c bc 58 3d a2 3d 0b 93 fc 3d e7 b1 0a 39
       -0.01711236 0.07921857 0.12332734 0.0001322698
000240 7f c1 19 bc a5 f7 87 3d 29 35 1a 37 de cc 3c 3d
       -0.009384512 0.06639031 9.191493e-06 0.046093814
000250 e3 2d ff 3c 9c fc 62 3c 0e 9c 49 3d b5 a9 ad 3b
       0.03114981 0.013854172 0.04922109 0.0052997717
000260 67 d3 cc bd 63 3d 65 bd e2 3f 43 bd 16 55 62 bd
       -0.10001259 -0.055966746 -0.047668345 -0.055256926
000270 23 df 46 38 b5 09 81 bd dc 6f 40 3d 32 05 13 bd
       4.741469e-05 -0.063006796 0.046981677 -0.035893627
000280 fd 79 86 3d 1c ac 8c bb 2f 39 00 bd e9 43 81 3d
       0.06566236 -0.004292978 -0.031304535 0.06311781
000290 d2 83 7a bd b6 62 4c 3c ce a0 d2 3d 91 f2 e5 ba
       -0.06116087 0.012474706 0.10284577 -0.0017543604
0002a0 b0 2f f4 3d a0 6f bb bd a3 0d 08 3d 91 27 05 bd
       0.11923158 -0.0915215 0.03321613 -0.032508437
0002b0 68 02 e9 bd 32 f7 83 3c a7 a2 be bc 65 39 dd bb
       -0.11377412 0.016109083 -0.023270918 -0.0067512267
0002c0 06 35 17 bd 3e 88 cc 3d 0c 36 00 00 9a 41 f4 3c
       -0.0369158 0.09986924 1.9388e-41 0.029816438
0002d0 85 8b ed 3d 85 7b f2 3b 76 84 2e bd 17 bd a1 3c
       0.11598877 0.0073999786 -0.042606793 0.019743485
0002e0 34 ad c8 3b a7 dd cc 3d 0f 1b 19 3b e5 c2 5d 3c
       0.006124163 0.10003214 0.0023362075 0.013535236
0002f0 d9 8e 5f 3d c7 85 e6 3c cc 16 34 3c c0 c1 20 bd
       0.05457959 0.028139962 0.010991763 -0.039247274
000300 ad 49 6c bd 49 9f f1 3d 5b e9 97 bc 5f da e7 3c
       -0.05768745 0.11797959 -0.01854389 0.02830237
000310 87 07 74 3c 6c ed a1 3d 83 30 10 bd 90 a4 b0 3d
       0.014894373 0.07906613 -0.035202514 0.08625138
000320 78 e9 9b 3d 41 37 1c 3d 60 2b 8c 3b 6e bd 73 3d
       0.0761289 0.03813863 0.0042776316 0.059506826
000330 13 3c a2 3d 79 78 1f 3d 65 5d c5 3d d1 eb da b8
       0.079216145 0.03893325 0.09636954 -0.00010438974
000340 a5 6e 29 3d 94 81 0d 3e af a8 71 b4 3a 56 a1 3b
       0.041365284 0.13818961 -2.2506241e-07 0.004923609
000350 6a 50 1c 3d d2 c8 90 3d fa 90 02 3c fc 42 60 3d
       0.038162626 0.070695534 0.007969135 0.05475138
000360 19 fe 92 3d 44 1e 40 3d d8 fb e5 bc 36 18 aa bb
       0.071773715 0.046903864 -0.02807419 -0.0051908744
000370 30 d9 77 37 bb 57 64 3c c3 84 18 3a 5a d3 46 3d
       1.4772915e-05 0.013936932 0.0005818123 0.048541404
000380 7d 5a 01 3e 5b f7 e0 3d 8e 22 c8 3c 8a 08 2e 3d
       0.12632175 0.10984679 0.02443054 0.042488612
000390 bd 4a 9e 3c bc 96 76 3d 78 33 b8 bb 3c 16 90 3a
       0.019322747 0.060202345 -0.00562137 0.0010992954
0003a0 b4 4a e9 3c e8 2a 8a 3c cd 3a 0c 3d f5 a4 22 bd
       0.028478004 0.016866162 0.034235764 -0.039708097
0003b0 59 fa 81 3d 9e ed ce 39 9d bd 71 3d 57 59 54 3d
       0.06346578 0.0003946842 0.05901872 0.051843014
0003c0 1a d1 32 3d bf 31 8f bc ad 3b f0 a7 98 52 b1 3d
       0.043656446 -0.017479775 -6.667808e-15 0.08658332
0003d0 05 e7 a7 3d 59 5c 32 3d 0c 92 ed 3c 3e ff 03 bc
       0.0819836 0.0435451 0.029000305 -0.00805646
0003e0 b3 77 38 bc 19 0a 5d 3d e6 98 83 3d ad ff a6 3d
       -0.011259007 0.053964708 0.064256474 0.08154235
0003f0 50 82 d4 3d 32 15 34 3b 7f 75 41 3b a8 b1 60 bd
       0.10376418 0.0027478454 0.0029519496 -0.054856926

graph_layers.1.fc.0.bias f4 [64]
000000 52 23 9a 3c 41 54 d3 3c 1c 8b 24 96 4c f1 06 bb
       0.01881567 0.025797011 -1.329171e-25 -0.0020590601
000010 e1 7d 4f 3d 47 8a 38 3d 5f 94 a2 3d e7 30 6f b7
       0.050657157 0.045053747 0.07938456 -1.4256896e-05
000020 4f b4 9f 3d 9f 93 39 3d 51 2b 76 3d d1 05 96 bc
       0.07798063 0.045306798 0.060099903 -0.01831332
000030 ca c4 61 bb 2b 40 fd bc f8 5c 46 3c da 12 b7 bc
       -0.003444957 -0.030914387 0.012107126 -0.022347856
000040 94 e2 40 bd dd dd 98 3d 91 37 2d ba 03 c5 90 bc
       -0.04709108 0.07464192 -0.00066077063 -0.017672068
000050 e7 41 93 bc 7a 01 c1 3b 76 b8 2c 3c 65 c5 62 3d
       -0.01797576 0.0058900686 0.010542026 0.05536403
000060 7b 0f d6 3a 9c a1 fc bc ce 3a 85 3d 16 5d c3 3d
       0.0016331518 -0.03083878 0.06505357 0.09539239
000070 90 c7 23 3d aa 68 bf bc d8 a6 92 ba 7a 2b 3a 3d
       0.03998524 -0.023365337 -0.0011188639 0.04545162
000080 ee 0c 06 bd b6 b7 7d 3d e2 45 31 3d e6 9b a8 3d
       -0.032727174 0.06194278 0.043279536 0.0823286
000090 e6 bb c2 3a e2 67 a5 bc 8a ff 9e bc 27 59 56 af
       0.0014857023 -0.020191137 -0.01940896 -1.949486e-10
0000a0 ab 20 ea bc 3b f9 c0 3a 14 6f c3 bb 6c 45 15 bd
       -0.02858003 0.0014722714 -0.0059641693 -0.03644316
0000b0 eb 1a 1e 3d 9f bb 48 3d 3e 2f 12 3d d6 fe 83 3d
       0.03859989 0.049007054 0.035689585 0.064450905
0000c0 0c fb 8f 3d 1a 0e 1f bb ef 70 90 3b cf 0a 53 bd
       0.07030305 -0.002426988 0.004407994 -0.05152398
0000d0 4f a5 89 bb 65 de 13 3d 75 ec 88 3a 81 68 39 3d
       -0.0042006145 0.036100764 0.0010446446 0.04526568
0000e0 91 08 2f 3d 5f 8b 86 3d a2 49 10 3c a7 4f 23 ba
       0.04273278 0.06569552 0.008806618 -0.00062298257
0000f0 fe b0 a0 bc ca 7a 8a 39 42 74 41 3c 15 e9 f1 3c
       -0.019615646 0.00026412896 0.011807503 0.029530087

graph_layers.2.proj.weight f4 [1, 64]
000000 5e 33 c7 be 7a 46 9a bf 51 31 80 3f 46 24 7e 3f
       -0.38906378 -1.2052758 1.001505 0.992741
000010 2f d3 44 3f a3 ea b8 be ad 68 62 be b9 c9 f6 3d
       0.7688474 -0.36116514 -0.22110243 0.12050194
000020 55 6d 63 bf ae ba 90 bf 17 2e 63 3e 0d 19 5b bf
       -0.888387 -1.130697 0.2218555 -0.855851
000030 fc 60 2c c0 dc 48 fa 3f 93 ea 24 3f f1 b3 f9 be
       -2.6934195 1.9553485 0.6442043 -0.48770097
000040 03 f5 eb 3b 93 ba a5 bd 9f 24 98 3f 8a 4e 09 be
       0.0072008385 -0.08092227 1.1886176 -0.13408867
000050 fc f1 a1 bf 39 3a 74 bf ef 90 79 3f 5e d9 7e 3e
       -1.2651973 -0.9540134 0.97486776 0.24887607
000060 11 2a bb 3f 0d 3b b0 be 5e cc 09 3f 52 4f 26 3f
       1.4622213 -0.34420052 0.53827465 0.64964783
000070 5c 50 dc 3d fd 2e 00 bf c2 c8 3a bf 0b dc e1 be
       0.10757515 -0.500717 -0.7296258 -0.44113192
000080 fc 27 86 3f aa 3b dc 3b a4 4f 24 3f f9 01 24 3d
       1.0480952 0.0067209797 0.6418402 0.040040944
000090 f6 89 b6 3e cd f9 b7 be 8d 58 8e 3d 28 8a f5 3e
       0.3565213 -0.3593277 0.069504835 0.47956967
0000a0 26 19 84 bd b2 58 48 3f 02 2b 9e 3f 6a 29 8d 3f
       -0.06450109 0.7826034 1.2356875 1.1028264
0000b0 97 90 f2 bf 19 7e 8e 3f b7 ab 88 bd 21 13 da bd
       -1.8950375 1.1132232 -0.06673377 -0.1064818
0000c0 e7 84 18 3f 78 c5 c8 3f 27 27 cb bd ed 51 59 3f
       0.5957779 1.5685263 -0.09919577 0.84890634
0000d0 44 34 af be 58 19 c1 bf 38 9f 8d be e4 0f 02 c0
       -0.34219563 -1.5085859 -0.27660537 -2.03222
0000e0 c7 d0 90 bf 50 e0 65 be 7c 1b 79 3f 7a a8 fb 3e
       -1.1313714 -0.2244885 0.9730756 0.49151975
0000f0 d9 88 8a 3f 25 95 4b 3e 91 b6 59 bf de 4f cb 3f
       1.0823013 0.19881113 -0.850442 1.5883749

graph_layers.3.fc.0.weight f4 [64, 192]
000000 84 78 e9 3c e4 a3 a6 3c 5a 22 a2 2f d2 ce 4e bb
       0.02849985 0.020341821 2.9492037e-10 -0.003155638
000010 18 07 dc 3d 4c 84 0a 3c 42 25 a5 3c 6e 5c df ae
       0.107435405 0.008454394 0.020159367 -1.0157285e-10
000020 73 3c 9e 3c 84 50 46 3c 0a ab ab bc 94 4a 49 3d
       0.019315934 0.012104157 -0.020955581 0.04914339
000030 ad a0 f3 3c c1 8b 86 3d 1f dd 0f bd df 44 84 3d
       0.029739702 0.06569625 -0.035122987 0.064584486
000040 8f 0d 3a bd 92 6c b1 3b de bd 25 bb 72 c9 a4 3d
       -0.045423087 0.005414554 -0.0025290172 0.08046235
000050 d6 e4 5f bd b3 6c a0 3d 54 6d 02 bb 54 35 34 3d
       -0.054661594 0.07833233 -0.001990159 0.04399617
000060 58 f8 f5 ae 4b 2d a1 ac a8 3d 29 3d cd 73 d1 bc
       -1.1185425e-10 -4.5809237e-12 0.041318566 -0.025567913
000070 42 5e 14 3c e4 14 31 bd 05 be 82 b3 28 28 30 3d
       0.009055676 -0.043232813 -6.088161e-08 0.043007046
000080 c9 23 9d 3d 73 55 29 bd bb a5 14 bd de 9d 4a 3c
       0.07672841 -0.041341256 -0.036290865 0.01236674
000090 18 27 67 3b f0 5b cc ba 3b 59 bc 3d 88 11 00 00
       0.0035271104 -0.0015591364 0.09196707 6.289e-42
0000a0 de d9 76 bb 5c a8 84 35 36 95 38 3d 39 d8 64 bb
       -0.003766648 9.883765e-07 0.045064174 -0.0034918918
0000b0 c7 e4 5e 3d e6 34 b0 3c 96 63 4e 3b 33 2c 2f 3c
       0.054417398 0.021509599 0.0031492463 0.01069169
0000c0 98 f1 f7 3c 67 ea 2e 17 15 b8 07 3d d6 fa 5f 3c
       0.030266568 5.651829e-25 0.03313454 0.013670644
0000d0 94 af af ba dd ca dc 3b b6 93 4d 3d 64 b7 71 bc
       -0.0013403767 0.0067380504 0.050189696 -0.014753196
0000e0 4c ee 1c 3d 49 70 92 3d 05 5d 46 3b fe 0c 1d 32
       0.038313195 0.07150323 0.0030267846 9.141557e-09
0000f0 20 83 8c bc 1f be 21 b7 fb 00 32 bc 0c fc de bc
       -0.017152369 -9.640614e-06 -0.010864492 -0.027219795
000100 6e 6e 81 bd 0c 28 a1 bd 03 de 58 2c 0f e0 30 bd
       -0.06319891 -0.078689665 3.0818687e-12 -0.04318243
000110 f7 79 e6 bd 72 f9 cb bc 06 3f a2 bd 2c f6 58 af
       -0.11253732 -0.024899218 -0.07922177 -1.9732543e-10
000120 f1 c5 d9 bd 47 2c de bd 96 b0 ef bc 34 98 e7 bd
       -0.106334575 -0.10848289 -0.029259007 -0.11308327
000130 36 ec 85 bb 32 a8 5f bc b8 7d 9b bd ae 8d b2 bb
       -0.0040869964 -0.013650941 -0.07592338 -0.0054490184
000140 3a b0 cd bd 02 97 b8 bc 8d 34 ec 39 c2 8c 99 bd
       -0.10043378 -0.022532944 0.0004505258 -0.074975505
000150 cd fe ea bc f1 bd 8e 3b 5d 9f 88 b9 85 6f 5e bd
       -0.028685952 0.004356139 -0.00026058676 -0.054305572
000160 60 63 6a 34 93 a3 1b 9e 0f 8e e6 bd 5d 16 81 bc
       2.18291e-07 -8.239458e-21 -0.11257564 -0.015757734
000170 d8 d4 c8 3b 4d 8e a3 bd 8d bb 2d b0 8e fc c0 bb
       0.0061288886 -0.07986126 -6.320356e-10 -0.005889482
000180 0b 95 f3 3c c9 46 f4 3b 3b c1 fa bd 64 50 17 bc
       0.029734155 0.0074547273 -0.12243887 -0.009235475
000190 bc fb c2 bc 89 d3 09 3b ab 8d 30 bd d6 22 0c ac
       -0.023801677 0.0021030626 -0.043103855 -1.9914534e-12
0001a0 62 fc 12 bd 8e 0d f2 b5 6a 89 48 bd d0 5b 0a bd
       -0.035885222 -1.803435e-06 -0.048959173 -0.033778965
0001b0 72 be 0e bc 8f ea 55 bd 2c a8 d3 ba 1b 08 ad 3b
       -0.008712398 -0.052225646 -0.0016148142 0.0052805073
0001c0 51 87 92 bd 3c 3e c0 31 4e 91 d4 bd 7e cc 90 bc
       -0.07154716 5.5950107e-09 -0.10379277 -0.017675634
0001d0 e1 7e b7 3b ba ec d0 bc 36 e2 7b bd e8 bc 44 3c
       0.005599842 -0.025503505 -0.06149503 0.012007929
0001e0 c0 12 6b bd 26 79 3d bd 3b af e7 bc 33 b1 20 2e
       -0.05739093 -0.046258114 -0.028281799 3.6537173e-11
0001f0 01 91 93 bd 3e 86 28 37 3b 95 93 ba da c5 22 bc
       -0.07205392 1.0044836e-05 -0.0011259684 -0.009934867
000200 f4 4f 33 3d 64 a0 f2 bc be 4a 1d ad ab af ad 3d
       0.04377742 -0.029617496 -8.941013e-12 0.08480772
000210 15 4a 7e 3d eb 9a 8e 3d 86 26 ab 3d a7 91 40 9e
       0.06208237 0.06963142 0.08356957 -1.01945156e-20
000220 fe 19 b4 bb b0 5d cb 3d f3 64 72 3d 7f 58 51 3d
       -0.0054962626 0.09929979 0.059178304 0.051109787
000230 31 90 a8 bb 0e 8a bc bc da ed f8 3c 7f 8f 05 3d
       -0.005144142 -0.023015048 0.030386854 0.03260755
000240 04 5a 3d 3d 91 78 53 3d a0 fd f8 b9 d0 b4 58 3d
       0.046228424 0.051628653 -0.0004749121 0.05290681
000250 ca 78 2e ba cc 67 ca 3d cd 72 31 bc ec 1a c7 3b
       -0.0006655572 0.09883079 -0.010830593 0.0060762074
000260 cb 53 9d 35 a6 a1 01 38 71 17 3f bc 63 e8 25 3d
       1.1721799e-06 3.0906544e-05 -0.011663304 0.040504824
000270 02 71 33 bc 0c 80 43 bd 65 12 15 2c 74 aa a3 bc
       -0.010952236 -0.047729537 2.1184385e-12 -0.01997874
000280 b1 b0 4b bd 93 b8 97 3c 55 c3 3a 3d f9 10 d4 3d
       -0.049729053 0.018520629 0.04559644 0.103548
000290 96 eb 9a 3c 87 cd f7 bb b5 ca 6e 3c 79 63 80 a9
       0.018911164 -0.0075623426 0.014574696 -5.7015976e-14
0002a0 72 fc ac 3c 08 04 ae b6 5d 21 01 3d ce db c5 3c
       0.021116469 -5.1860734e-06 0.03152596 0.024152663
0002b0 50 08 8e 3d d4 90 c9 3d 5f 94 dd 3a ad 66 2e 3d
       0.06935179 0.09842077 0.001690518 0.042578388
0002c0 cd cb c4 3d 7c a2 03 80 ea 3d fe 3c e4 26 3f 3b
       0.096091844 -3.33795e-40 0.031035382 0.0029167468
0002d0 3a 4b ef bb a8 84 f6 3a e8 c9 4c 3d 66 ba 4e bd
       -0.007302669 0.0018807845 0.04999724 -0.050470732
0002e0 37 78 69 3d 1f 59 0b bd 1f 7b 95 3c 31 83 c6 b1
       0.05699941 -0.03402054 0.018247185 -5.777473e-09
0002f0 ba e7 c5 3d 4d 1b 14 b8 fe ed d4 3b 20 bc 8e 3d
       0.09663339 -3.5311376e-05 0.0064980974 0.06969476
000300 97 56 0f 3d 45 2b df bb 9a a4 e6 ad d6 6f b4 3c
       0.034994688 -0.006810578 -2.622107e-11 0.022025984
000310 6d 24 36 3d 2d bc e1 bc 1a ae c0 3d bf 28 00 00
       0.044468332 -0.02755555 0.09408207 1.4617e-41
000320 b8 66 3c 3c c6 3c 65 3d 8a a8 c0 bc 61 29 ad bb
       0.011499099 0.05596616 -0.023517866 -0.0052844738
000330 41 16 9a 3c 14 61 b4 3c 75 2a 32 3c c4 a0 ea 3c
       0.01880944 0.022018947 0.01087438 0.028641112
000340 98 cc 80 3b fd 9c d6 3d 33 c8 d1 ba 2f 67 dc 3d
       0.0039306395 0.10479162 -0.0016005099 0.10761868
000350 fe fa 94 3d 68 51 10 3d ce 51 6d b9 59 d9 4d 3d
       0.072744355 0.035233885 -0.00022632556 0.050256107
000360 b9 4d e0 35 5f e7 f7 a3 02 e6 a1 3d f6 79 41 3d
       1.6711921e-06 -2.6877783e-17 0.07905199 0.04723545
000370 02 13 bd 3c 5b 01 64 3b 6a 85 c8 b3 16 68 31 bc
       0.023080353 0.0034790847 -9.3374936e-08 -0.010828039
000380 20 47 53 bc 44 78 f0 3c 47 00 0b bd f0 38 df bc
       -0.0128953755 0.029354222 -0.03393581 -0.02724883
000390 20 da 0c 3c 80 26 9a bc 32 ba ac 3d b9 e1 54 01
       0.008596927 -0.018817186 0.084339514 3.9100198e-38
0003a0 13 5a 8d 3c 9b 2c ef 33 20 de a7 3d 07 71 10 3d
       0.017254865 1.11374185e-07 0.08196664 0.03526404
0003b0 16 d2 02 3c fa b8 ae bc e4 42 3b 3b dc b8 34 3c
       0.007984659 -0.021328438 0.0028573805 0.011030402
0003c0 0e 8d 7e 3d 56 f2 aa ae 79 e1 aa 3d 7e f5 a2 bb
       0.06214624 -7.7737525e-11 0.08343787 -0.0049731126
0003d0 06 0c 2d 3b 46 6f d9 bc 6b 35 df 3c ca 19 c5 bd
       0.0026404872 -0.026542317 0.027247151 -0.096240595
0003e0 50 11 95 3d 73 76 c9 3d 59 ee 0b 3c ed 09 7d b4
       0.07278693 0.098370455 0.008540713 -2.3566072e-07
0003f0 6a 04 b2 3d 45 fd f6 b6 2c a9 2e bc ef 89 8d 3c
       0.08692248 -7.3608558e-06 -0.010660451 0.017277686

graph_layers.3.fc.0.bias f4 [64]
000000 99 57 4a bd 5e 22 a7 bd 5f d9 6a bc d5 4b bb 3c
       -0.049399946 -0.08160852 -0.014334052 0.022863308
000010 05 6e bd bd d0 f5 27 3e 65 52 0a bc ce 27 ec bd
       -0.092495 0.16402364 -0.008442496 -0.1153103
000020 06 e5 33 bd 1b 60 e4 bd 71 d0 1e 3e 2b 81 9e bc
       -0.043919586 -0.11151143 0.15509202 -0.019348701
000030 c6 28 df 3d 61 18 43 3e d7 cb 32 3e 80 ab 36 3e
       0.10896449 0.19052269 0.17460571 0.1783886
000040 8b 16 1f 3e a1 05 09 3e 13 55 c9 bd de 33 9d bc
       0.15535943 0.13381054 -0.0983068 -0.019189771
000050 77 12 1d 3e a5 37 30 3e 2b e6 a5 bc 5a 32 9c bc
       0.15339075 0.17208727 -0.020251354 -0.019066978
000060 8f d7 f8 bc ab 50 1c 3e 15 f9 04 bd b7 64 44 bc
       -0.030376224 0.15265147 -0.032464106 -0.011986903
000070 ea 32 82 bc 86 70 cb bc 94 6e a4 bc 70 92 5c b9
       -0.015893418 -0.024833929 -0.020072259 -0.00021035387
000080 51 0d 94 bd f2 e8 d9 bb b9 ed da bd ed c3 bd bc
       -0.072291024 -0.0066500837 -0.10689873 -0.023164714
000090 69 13 07 bd ca 71 a7 bd 7e 42 37 bc 6d 41 20 bd
       -0.032977495 -0.081760004 -0.011185287 -0.039124895
0000a0 9d 58 04 bd 9d aa 4a bd 8d 81 e3 bd 22 ae 33 bd
       -0.03231107 -0.049479116 -0.11108694 -0.043867238
0000b0 b4 81 1e 3e c1 8e 36 bc d7 46 07 be b3 ee c5 bc
       0.15479165 -0.011142434 -0.13210617 -0.024161672
0000c0 43 fe 1b 3e 38 a6 6e bd 14 4a ef bc 97 c3 66 bc
       0.15233712 -0.058263987 -0.029210128 -0.014084718
0000d0 c9 1f f3 3b f6 72 26 3e ed 9e 6b bc 24 91 26 3e
       0.0074195606 0.16254792 -0.014381153 0.16266304
0000e0 61 3b 9b bc 9c 17 26 3e ca 55 a3 b1 80 c7 48 bd
       -0.018949213 0.16219944 -4.7536775e-09 -0.049018383
0000f0 56 3a 05 bc 2f a5 1b 3e fb fe 2f 3e 1d c7 a0 bc
       -0.008131584 0.15199731 0.17187111 -0.019626195

fc.1.weight f4 [2, 64]
000000 d2 74 a9 3b 04 f5 34 be 7c 16 1d 3b ad e9 92 bc
       0.005171397 -0.17671591 0.00239697 -0.01793369
000010 b0 1e 53 be 40 db 71 3e cf b1 fa bc 04 fa 9e bd
       -0.20617175 0.23618793 -0.030602364 -0.077625304
000020 97 69 c3 3b 37 a8 3d be a1 3f 3d 3e 38 71 58 2e
       0.005963515 -0.185212 0.18481304 4.9213272e-11
000030 47 09 66 3e 21 82 01 3e b1 d6 4a 3e d9 c5 b4 3d
       0.22464477 0.12647296 0.19808461 0.08826799
000040 62 6d 83 3e 13 d8 6b 3e 85 ef 49 be 1a b5 73 bd
       0.2566939 0.23031645 -0.19720276 -0.059498884
000050 2f d9 75 3e fe 14 7e 3e 41 46 3c 3b 99 ae e7 bd
       0.2400863 0.24812695 0.0028728398 -0.11312599
000060 43 9b 34 39 d3 1c 92 3e b9 be 99 bd 51 32 ab 38
       0.00017223977 0.28537616 -0.075070806 8.1632876e-05
000070 e6 d0 f7 bd 3f 19 64 bd d4 c9 12 be fa 1b ba 22
       -0.12100391 -0.05568814 -0.14334804 5.0445022e-18
000080 7c 50 86 bd 93 e8 da 38 e4 30 35 be e3 97 95 bd
       -0.0655832 0.000104383704 -0.17694432 -0.07304361
000090 45 6a aa 34 ea c5 37 be 03 30 70 bc 9d f2 fe bd
       3.174229e-07 -0.17946592 -0.014659884 -0.124486186
0000a0 c0 bb 18 bd 26 36 50 bd 93 51 0b be 59 cc f2 bc
       -0.037288427 -0.05083289 -0.13605337 -0.029638456
0000b0 61 b1 d2 3d d3 47 02 3a 48 48 70 bd 46 dd d5 3c
       0.102877386 0.0004969809 -0.058662683 0.026106488
0000c0 ba 30 60 3e 20 6c 17 be 10 3e 72 3d 43 62 df bc
       0.21893588 -0.1478734 0.05914122 -0.027268535
0000d0 95 ee 36 3d 58 64 5c 3e e5 57 1b bb 78 e1 1a 3d
       0.044661123 0.21522653 -0.0023703512 0.03781268
0000e0 5e 2f 36 bd 61 37 09 3e 42 d6 07 36 ea 09 12 be
       -0.044478767 0.13400032 2.0241282e-06 -0.14261594
0000f0 4d 88 83 3d ae b3 8b 3e 28 80 3d 3e fd 32 87 ba
       0.06422482 0.27285522 0.18505919 -0.0010314878
000100 47 20 e5 3d 87 10 72 bc 67 72 e3 3b 09 84 dd bc
       0.11187797 -0.014774448 0.006941128 -0.027040498
000110 20 16 2c 3e 69 0e 5a be 86 02 b4 3d c1 5d a1 3d
       0.16805315 -0.2129456 0.08789544 0.0787921
000120 43 44 d2 3d a0 10 2b 3e cd 0e 96 be 8a 92 91 b6
       0.10266926 0.1670556 -0.29308167 -4.338396e-06
000130 97 ea 1f be 1f 12 81 be 62 3b 51 be 47 99 8b be
       -0.15616833 -0.25209138 -0.20432809 -0.2726538
000140 be 20 35 be 8c 1a 02 be 1f f1 e7 3d d7 9a c7 3d
       -0.17688271 -0.1270544 0.11325287 0.0974633
000150 be 72 7c be 1d c1 75 be 6e 92 be 38 3b fa ef 3d
       -0.24653146 -0.23999448 9.087181e-05 0.117176495
000160 76 bd cd b1 57 f4 44 be 41 bc a6 3d fe c3 11 3a
       -5.9878245e-09 -0.19233833 0.08141375 0.0005560516
000170 15 6d c5 3d e5 83 0d 3c aa 20 ec 3c 9e 84 b3 ad
       0.09639946 0.008637403 0.02882417 -2.0408838e-11
000180 4b 67 64 3d 04 03 a2 2f d3 f9 f1 3d ca b7 a5 3b
       0.05576257 2.946977e-10 0.11815228 0.0050573098
000190 ed 87 9c af 2a a7 00 3e 40 20 23 bc 00 bb fe 3c
       -2.8472816e-10 0.12563768 -0.0099564195 0.031095028
0001a0 6b 1c 8c bd bc 02 d4 3c 99 f4 ba 3d 38 ed f1 3b
       -0.06841358 0.02588021 0.091286846 0.007383015
0001b0 ee c0 82 be 55 36 36 39 4d 27 07 3e b8 2d 83 bd
       -0.2553782 0.00017377113 0.13198586 -0.064052045
0001c0 42 0f 56 be 36 5d 01 bd 5d c4 09 3e 7c 30 b7 3d
       -0.20904258 -0.031583034 0.13453813 0.089447945
0001d0 53 51 35 3d 97 45 fe bd 70 f9 42 3b f2 a5 67 be
       0.04426701 -0.12415617 0.0029750727 -0.22621897
0001e0 a5 62 c2 3d cd a6 60 be a3 35 00 00 f6 1b 03 3e
       0.09491471 -0.2193863 1.9241e-41 0.12803635
0001f0 e5 ce 0c 3e 11 a4 23 be 7c d8 2f be 04 d3 8b bc
       0.13750799 -0.15980555 -0.17172426 -0.017068394

fc.1.bias f4 [2]
000000 85 82 d9 3d e1 d6 30 3d
       0.10620598 0.043173674

exp_avg f4 [64, 9]
000000 8a 6d 1f 3c 89 90 7b b7 00 0e e1 ba 86 ec 18 bc
       0.009730706 -1.4994418e-05 -0.001717031 -0.009333735
000010 da fa c1 ba 77 ed 85 3a 32 6a 0c 3c 10 96 ef 3a
       -0.0014799491 0.0010217865 0.008570241 0.0018278975
000020 f2 f2 a8 b9 52 48 0c 3c 81 e0 6b bd ed fc 24 34
       -0.00032224465 0.008562164 -0.05758715 1.5365704e-07
000030 11 63 07 3d 56 10 6c 3c 98 30 7f 3b a6 c6 67 bd
       0.03305346 0.014408192 0.0038938876 -0.05658593
000040 7a 83 4a 3c ee 56 0b bc 27 00 77 3c b6 97 3d bb
       0.012360448 -0.008504612 0.01507572 -0.0028929538
000050 c2 63 13 3b c4 1a 4e bb 7e df 05 bc ba 62 47 39
       0.002248988 -0.003144906 -0.0081709605 0.00019014897
000060 10 cf 1c b9 c8 6d 22 3c de 7c f2 3a 36 84 a2 38
       -0.00014954456 0.009913869 0.0018500348 7.749388e-05
000070 d8 01 bb b9 20 9c 7a 38 ac dc e3 38 52 fd 85 39
       -0.00035668793 5.9750048e-05 0.00010865307 0.00025556475
000080 e2 ac 0c b8 b6 65 fa b8 a8 ef be b9 1e ff 04 38
       -3.353961e-05 -0.00011939874 -0.00036418182 3.170885e-05
000090 5f d5 99 bc 80 4e 10 3c c0 e0 f5 3a cc bf 3a 3b
       -0.018778501 0.008807778 0.0018758997 0.0028495668
0000a0 d8 ca 08 3c 02 81 16 ba 64 f8 c6 3b e5 e5 8b bc
       0.008349143 -0.00057412696 0.006072091 -0.017077396
0000b0 96 88 a8 3a c0 e4 52 3b 04 35 48 bc 81 e4 49 b8
       0.0012858089 0.0032179803 -0.012219671 -4.8134945e-05
0000c0 6a 15 e5 3b 91 1e cd 3a e0 b7 24 3a 88 2c 3b bc
       0.006991078 0.0015649368 0.0006283503 -0.011424191
0000d0 7f 35 60 3b cd e4 c5 ba 74 d8 3f 39 ef 34 00 bc
       0.0034211574 -0.0015098095 0.00018295815 -0.00782512
0000e0 66 04 1a 39 a0 3d af 3b d2 f8 18 3b 2c 8a 38 ba
       0.00014688223 0.0053479224 0.0023341668 -0.0007039632
0000f0 a5 55 0e bc 26 78 5e 3a d8 53 04 3a ea b3 db bb
       -0.008687411 0.00084865314 0.0005047894 -0.006704797
000100 f5 dd 53 ba ef 30 83 3a bc eb 3a 3b 16 b4 81 3b
       -0.00080820854 0.001000909 0.0028521856 0.0039582355
000110 02 d2 fe b9 29 07 87 ba 6a 6b ae bb 28 20 c3 39
       -0.00048603123 -0.0010301817 -0.0053228633 0.00037217257
000120 75 8b f7 ba 4b 5d 8a 3b ea 64 b0 2f 4d 68 4c bb
       -0.0018886166 0.004222547 3.2085917e-10 -0.0031190098
000130 80 ca 80 37 2c 26 da ba ed 2c ce 3b c0 4d c9 ba
       1.5353085e-05 -0.0016643456 0.0062919767 -0.0015358254
000140 5a 67 90 39 ec 9f dd 3a ac 5b 8f bc ab 01 94 ba
       0.00027542823 0.0016908622 -0.017499767 -0.0011292001
000150 1a 03 d2 3c 80 7c 90 bb 63 62 1f bb da e0 30 bd
       0.025636245 -0.004409373 -0.0024320118 -0.043183185
000160 a7 cf 8d 3c 18 09 9c 3b 9b 73 75 ba 12 14 62 3b
       0.01731093 0.0047618262 -0.0009363235 0.0034496826
000170 8b f4 17 3a ed 9b 8f bb 94 a2 90 38 7e df 2d b8
       0.00057966326 -0.0043826015 6.8967376e-05 -4.1454558e-05
000180 35 5b fa 3b 43 0a 3b bb 30 ba 82 39 85 e7 72 3c
       0.0076402673 -0.0028540052 0.00024934253 0.014825706
000190 b2 3c 90 bc 8f 7b 74 ba 66 d1 85 3b a4 08 0e bb
       -0.017607067 -0.0009326273 0.0040838 -0.002167263
0001a0 84 80 63 ba 26 91 7b bc 10 ff 52 3c 6c d0 3e 39
       -0.0008678513 -0.01535443 0.012878194 0.00018197455
0001b0 a2 8e 12 3d 91 30 43 bd a8 f2 7a bb 14 81 a4 3c
       0.035780556 -0.04765374 -0.0038291607 0.02008108
0001c0 b2 17 9a bb 60 05 36 3a fe 45 5e bd d5 94 19 3d
       -0.0047025317 0.000694355 -0.05426597 0.037495453
0001d0 5c 66 80 bb 99 40 8d bd fa 41 1a 3d 00 4a 40 b7
       -0.003918452 -0.06897087 0.037660576 -1.1461321e-05
0001e0 50 e1 3d 3c 88 57 ad 3c 14 01 c7 b9 54 cb 5c 3c
       0.011589363 0.021159902 -0.0003795704 0.013476212
0001f0 94 24 35 bd 11 50 e9 ba f5 7c 15 bd 20 f6 e0 3b
       -0.044224337 -0.0017800351 -0.03649612 0.006865278
000200 24 d5 1c 3a 88 44 99 3c 64 2b 0e 3c f5 97 5c 3a
       0.0005982688 0.018709436 0.008677337 0.00084149773
000210 82 77 c5 bb 60 f1 a9 bc ae e8 2d ba 2a 78 e6 b6
       -0.0060262093 -0.02074498 -0.0006634098 -6.868523e-06
000220 0d a9 17 b7 3a 23 bb b6 8c f1 d0 b7 24 e7 5a 37
       -9.039662e-06 -5.577135e-06 -2.4908011e-05 1.3047629e-05
000230 e4 5c 39 b5 4a dc ab b7 1c 04 2c b7 f4 3e 73 35
       -6.9053044e-07 -2.0487369e-05 -1.0252956e-05 9.0616163e-07
000240 5a db 9b bb b6 43 6a bb 90 08 84 b7 22 00 9d 3b
       -0.0047563734 -0.0035745925 -1.5739613e-05 0.0047912756
000250 05 66 73 3b c8 c4 6c b8 90 21 9f bb d6 9c 77 bb
       0.0037139666 -5.645005e-05 -0.004856296 -0.003778269
000260 76 e0 21 39 91 96 8c bc c4 8f f5 bb 7b fa 23 ba
       0.00015437775 -0.01716164 -0.007493945 -0.0006255281
000270 da 6a 8e 3c ec 54 06 3c a0 ae 2f 38 25 51 a9 bc
       0.017384935 0.008198958 4.1885884e-05 -0.020668576
000280 9d 54 b1 bb 40 49 8f b7 ca 34 45 36 94 d7 a4 b4
       -0.005411698 -1.7081038e-05 2.9386015e-06 -3.0704234e-07
000290 bf d7 a8 90 f0 d7 15 37 c9 99 74 36 88 74 cf 37
       -6.6596726e-29 8.931369e-06 3.6448348e-06 2.4730587e-05
0002a0 ee 89 cb b6 70 e0 47 b7 1f c2 85 37 4e e1 08 bb
       -6.0659286e-06 -1.191358e-05 1.594523e-05 -0.0020886245
0002b0 fa 26 b9 bb 33 7c 02 ba 06 2f 9f 3b 66 2c 38 3b
       -0.0056503983 -0.00049776136 0.0048579006 0.0028102635
0002c0 43 74 6b 39 d2 e2 cb bb 27 31 bd ba 46 38 a0 b9
       0.00022454657 -0.0062221074 -0.0014434204 -0.00030559505
0002d0 f2 c1 28 3a 84 27 be 3c 7c 35 3e ba 22 bf 9f bb
       0.00064375915 0.023212202 -0.00072558946 -0.0048750797
0002e0 d7 c7 66 bc 5e 6d b1 bb 93 ed fd 3b 88 e2 db 3b
       -0.0140857315 -0.005414649 0.0077492683 0.0067103542
0002f0 eb 30 0a 3c 96 15 57 3c 55 6b 01 bd 5c 8c 2c bb
       0.0084345145 0.013127705 -0.0315965 -0.0026328778
000300 2c 83 86 3c 9e 4b 2b 3b 9e 6a ca 3a c6 44 f5 bc
       0.01641997 0.00261376 0.0015443151 -0.02994002
000310 e6 59 14 3c d0 8f fb b7 92 c5 c2 bc 54 fe 35 3c
       0.009054637 -2.99885e-05 -0.02377585 0.011108
000320 c4 c5 e6 3a 2a 82 8f 3b 36 e1 27 3c e2 78 a1 b9
       0.0017606546 0.0043795304 0.010246566 -0.00030798378
000330 63 da de 3b 5d 2c ae bc 1c 29 b8 3a c1 5e 48 bc
       0.006800936 -0.021261388 0.0014050337 -0.012229622
000340 f3 cc f4 ba f6 43 c5 3a a8 41 15 3c 7f d6 fd 3b
       -0.0018676802 0.0015050161 0.009109892 0.007746517
000350 f4 e6 8c ba b6 f1 d9 bb 43 39 23 bc 35 60 c9 39
       -0.0010749982 -0.0066511286 -0.009962383 0.00038409387
000360 92 df 6d 3b 57 53 32 3d 59 c4 3b b9 13 f1 21 bd
       0.0036296588 0.04353651 -0.00017906855 -0.039536547
000370 f4 4e 5b bc 40 1c 0a b8 86 10 7f 3d 1c 7c 1a bc
       -0.013385523 -3.2928074e-05 0.062271617 -0.009429004
000380 9f 3e 89 3b 61 e5 7a bb 04 c8 cb 3b 0c bb b0 b9
       0.004188373 -0.0038283693 0.006218912 -0.00033708697
000390 6a b4 c2 b9 d4 87 4f bb 3f 57 50 b9 d2 1c 42 3b
       -0.00037136982 -0.0031666653 -0.00019868927 0.002961923
0003a0 80 fe cb 35 d9 50 41 3a e8 b0 4c bc f8 d6 6d 3a
       1.5198748e-06 0.0007374413 -0.01249335 0.00090728654
0003b0 45 c5 93 3a 0c 31 78 3b a6 f4 15 3c 7a 4a 52 3a
       0.0011274001 0.003787103 0.009152567 0.0008021962
0003c0 04 8d 7a 3a 42 22 49 bc 08 42 18 bb fa d2 0d 3b
       0.0009557756 -0.012276234 -0.0023232717 0.0021640644
0003d0 34 73 bc 3c 5f 17 e5 b9 7e b5 dc bc 55 ff 96 bb
       0.023004152 -0.00043695697 -0.026942011 -0.0046080747
0003e0 e9 5e 1d 3b 02 77 1c 3d 4b ce 5c bb a9 7d 81 bb
       0.002401287 0.038199432 -0.0033692296 -0.0039517474
0003f0 00 00 00 00 f6 66 04 b6 61 14 b7 37 97 ba 9a b5
       0.0 -1.9729464e-06 2.182479e-05 -1.1528199e-06

exp_avg_sq f4 [64, 9]
000000 16 3d c9 38 93 7f 43 33 83 55 36 36 f0 f5 4a 38
       9.595805e-05 4.5518004e-08 2.7169888e-06 4.83896e-05
000010 be bd a5 37 dc 3e b7 35 cc 8e 02 38 c9 c0 5a 38
       1.9757888e-05 1.3652857e-06 3.1127405e-05 5.2154795e-05
000020 9b 1e 6c 35 51 14 24 39 e5 26 14 3a bc 59 65 2d
       8.796139e-07 0.00015647827 0.00056515477 1.3037068e-11
000030 c1 14 bd 39 be 05 83 38 3d 58 07 37 20 a6 4b 3a
       0.00036064352 6.247636e-05 8.067172e-06 0.000776859
000040 89 68 96 38 ac 6a c9 37 d0 ed 5e 39 74 bd 18 38
       7.1720286e-05 2.401074e-05 0.00021260162 3.6416066e-05
000050 43 8a 89 36 e0 2d 34 38 f7 2d 22 39 a4 51 f8 36
       4.099014e-06 4.295807e-05 0.00015466647 7.40048e-06
000060 59 4d d2 37 f7 98 bb 39 0d f6 67 37 5e a8 89 32
       2.5069969e-05 0.00035781387 1.3825961e-05 1.6025464e-08
000070 5f ed 0b 38 9c 2a 1e 35 62 a1 b7 35 3a 9c 38 38
       3.336125e-05 5.892159e-07 1.3681531e-06 4.4014516e-05
000080 37 69 6b 33 6b cb b3 36 86 61 39 38 63 60 2e 33
       5.4810894e-08 5.3582967e-06 4.4198263e-05 4.0600195e-08
000090 03 24 cb 39 bd 69 42 39 21 af b6 36 c4 30 9d 38
       0.00038746008 0.00018540672 5.4444104e-06 7.495427e-05
0000a0 3a 8a dd 38 22 2d 45 36 04 94 00 39 3d e1 af 39
       0.00010563848 2.9381558e-06 0.00012262171 0.00033546417
0000b0 00 20 da 36 f6 76 cb 37 3f d7 57 38 b8 b8 ea 34
       6.5006316e-06 2.4254881e-05 5.1460458e-05 4.3720297e-07
0000c0 a8 d7 14 38 e4 a6 f8 36 ee 74 29 35 e9 9d 86 38
       3.5486795e-05 7.4104046e-06 6.312756e-07 6.419031e-05
0000d0 c0 7d 49 37 8e e7 01 36 f6 58 71 37 a0 3a cc 38
       1.2009812e-05 1.935728e-06 1.4385432e-05 9.738398e-05
0000e0 87 7b f6 34 c3 35 00 38 09 f0 0b 38 71 ea 49 35
       4.591095e-07 3.0567648e-05 3.3363733e-05 7.521949e-07
0000f0 43 2d 82 38 4c 16 be 37 9d fb f5 35 4d 56 20 38
       6.207314e-05 2.2660148e-05 1.8327152e-06 3.8227347e-05
000100 78 82 ba 37 c1 0c 87 35 df d2 90 37 37 ea 09 38
       2.2233682e-05 1.0061996e-06 1.7264332e-05 3.2881475e-05
000110 a1 1c 13 35 8d 14 41 37 ef fb 48 38 76 57 de 34
       5.480343e-07 1.1508481e-05 4.7918347e-05 4.1414359e-07
000120 f4 43 cb 38 bb ce f5 38 2b 51 09 2c 0d 9b 8c 36
       9.6924516e-05 0.00011721017 1.9513928e-12 4.1903754e-06
000130 1f b7 b1 38 79 f8 62 36 e0 05 07 38 07 5d 18 39
       8.474127e-05 3.3821254e-06 3.219198e-05 0.00014530505
000140 f5 36 2e 37 e6 50 6b 37 fc a9 3e 3a 9b 31 b8 36
       1.0384004e-05 1.4025927e-05 0.00072732545 5.489402e-06
000150 68 d1 a5 39 97 4b 48 39 4f e2 6d 37 59 48 33 3a
       0.00031627272 0.00019101646 1.4178992e-05 0.0006839089
000160 44 53 24 39 a4 2f 19 38 77 cd c5 36 99 73 ca 37
       0.00015671278 3.652241e-05 5.8949768e-06 2.4134106e-05
000170 f2 83 4f 35 d5 7e 9a 37 6e 61 91 36 2c c1 d4 34
       7.7305515e-07 1.8417291e-05 4.332679e-06 3.9628628e-07
000180 d1 22 fe 37 a9 ef 97 36 84 19 c7 35 ba 42 86 39
       3.0295372e-05 4.528051e-06 1.4834081e-06 0.00025608187
000190 4f a8 07 3a c4 07 84 36 60 fe b5 38 09 39 a4 38
       0.0005174921 3.9348106e-06 8.6781336e-05 7.830753e-05
0001a0 08 27 52 36 12 fb 97 39 f5 81 23 39 3f 16 46 37
       3.1315158e-06 0.00028988026 0.00015593304 1.1806899e-05
0001b0 bf 63 12 3b 57 1e 6f 3b 38 bd 29 38 b4 96 45 3a
       0.0022337285 0.003648659 4.0468964e-05 0.000753741
0001c0 8b 4a 55 3a a2 82 d9 37 5b 6d 01 3b fe 3c e6 3a
       0.0008136413 2.5929246e-05 0.0019749019 0.0017565785
0001d0 a7 2c be 38 a6 1d af 3a e5 4e 92 3a 6c 13 af 37
       9.068223e-05 0.0013360276 0.0011162428 2.087067e-05
0001e0 90 19 47 3a 47 54 03 39 7e 1f f6 37 81 a3 84 3a
       0.00075950567 0.0001252453 2.934015e-05 0.0010119529
0001f0 1a 25 f1 39 9a 48 c0 38 8b f3 23 3a 2f 8b d9 38
       0.00045994745 9.1687965e-05 0.0006254247 0.00010373291
000200 d1 ef 12 37 bd 47 9b 39 8e ce 94 38 80 e3 a5 36
       8.758115e-06 0.00029617353 7.095664e-05 4.9438677e-06
000210 a1 5a 6d 39 94 87 61 39 f8 07 db 36 e8 1b 9d 32
       0.00022635843 0.00021508179 6.5276363e-06 1.8289896e-08
000220 43 d1 3d 32 ba 3e 4f 30 d0 01 9b 33 b3 6e 1d 30
       1.10488285e-08 7.53953e-10 7.21808e-08 5.727358e-10
000230 c4 36 17 2e c0 c1 a1 32 29 7c 56 32 94 18 f3 2f
       3.4382067e-11 1.8830974e-08 1.248467e-08 4.4218906e-10
000240 34 71 9c 37 f4 b2 ca 37 45 1e 55 34 ac 40 92 37
       1.8649363e-05 2.4163608e-05 1.9848183e-07 1.7434671e-05
000250 07 fb e1 37 7f 31 89 34 fd da 88 37 3e 58 fc 37
       2.6938984e-05 2.5554252e-07 1.6314438e-05 3.0081832e-05
000260 45 75 b6 34 e2 64 57 39 f5 35 3f 38 1b 09 c6 35
       3.3985467e-07 0.0002054158 4.55882e-05 1.47548e-06
000270 ef 82 72 39 84 4b e9 37 04 f4 27 36 c6 bc 87 39
       0.00023127695 2.781093e-05 2.5026975e-06 0.00025889854
000280 47 a1 8f 37 28 1b 84 36 0b 79 2c 32 97 cd 52 2d
       1.7122029e-05 3.937068e-06 1.003924e-08 1.1982768e-11
000290 c7 f0 d2 29 ab fa e1 2f bd 80 27 31 a1 d7 57 31
       9.3676416e-14 4.1105372e-10 2.4374878e-09 3.1409189e-09
0002a0 3b 4c 37 31 81 2c 24 31 2f 15 2c 32 21 b3 35 37
       2.6673337e-09 2.3890439e-09 1.0016534e-08 1.0830147e-05
0002b0 e8 b1 5c 38 56 f1 8a 34 41 8a 8e 37 06 a5 ee 37
       5.2617776e-05 2.5880098e-07 1.6992099e-05 2.8448656e-05
0002c0 b9 eb 7e 34 b9 20 e5 37 19 e4 be 37 27 3d 14 35
       2.3741349e-07 2.7314165e-05 2.2755981e-05 5.5223285e-07
0002d0 0c 95 0b 38 b3 c5 4a 3a 3e 79 42 36 34 ef 0f 39
       3.3278993e-05 0.0007735148 2.8978825e-06 0.00013726653
0002e0 21 f6 ae 39 8d b1 34 37 87 79 95 39 9b 91 72 39
       0.00033371247 1.0770175e-05 0.0002851004 0.0002313316
0002f0 fe f2 a9 37 fc 60 13 39 e4 af c6 39 5c 1e 98 36
       2.0259522e-05 0.00014055142 0.00037896552 4.5334873e-06
000300 27 f5 64 39 ef 4f f0 37 c5 c6 0a 37 0a b8 e4 39
       0.00021835101 2.8647451e-05 8.271721e-06 0.0004362467
000310 8c 9a a0 38 dc 26 ec 37 f1 e3 19 3a af 69 9f 39
       7.658181e-05 2.8151488e-05 0.0005870453 0.00030405584
000320 6f 8a f1 36 60 12 f0 38 20 f2 16 39 58 56 8b 36
       7.1984755e-06 0.000114475144 0.00014395313 4.1525745e-06
000330 a1 de 50 39 94 c0 fa 39 23 12 2b 37 02 af 51 39
       0.00019919362 0.00047827198 1.0196617e-05 0.00019996989
000340 80 50 87 38 02 93 74 36 5b 44 d9 38 50 be 16 39
       6.452296e-05 3.6444403e-06 0.000103600985 0.00014376012
000350 ef 9a 30 35 75 37 82 38 ad 8c 86 39 9a bb 30 34
       6.579057e-07 6.209213e-05 0.00025663283 1.6459526e-07
000360 d3 65 c4 38 04 75 65 3a 24 2e ab 36 3f 72 39 3a
       9.3649745e-05 0.00087530934 5.1015686e-06 0.0007074214
000370 06 cd 85 38 f5 63 a0 37 c0 80 ad 3a 22 dd a5 38
       6.380123e-05 1.9120032e-05 0.0013237223 7.909002e-05
000380 ea ae 5f 38 b0 51 4d 37 58 26 48 37 ca bc 2f 35
       5.3330245e-05 1.22379715e-05 1.1929857e-05 6.5467304e-07
000390 71 11 e7 35 58 29 30 37 45 3d be 34 f4 42 3d 36
       1.7215917e-06 1.0500044e-05 3.5434837e-07 2.8202167e-06
0003a0 3b 43 6f 37 58 6a b1 34 c6 09 55 39 7d a9 a8 38
       1.4261163e-05 3.3046194e-07 0.00020316904 8.042434e-05
0003b0 50 54 1b 36 14 d0 4e 38 b1 86 8a 38 b6 78 fa 35
       2.3145876e-06 4.9308015e-05 6.605441e-05 1.8661583e-06
0003c0 63 9d 7f 38 dc 42 42 39 b5 05 41 36 bd a1 0f 38
       6.0943315e-05 0.00018526189 2.8762563e-06 3.4244487e-05
0003d0 87 66 06 3a 1b c0 3a 34 79 73 87 39 df da e7 38
       0.0005126972 1.7392487e-07 0.0002583524 0.00011055706
0003e0 e4 a5 dc 36 18 e4 04 3a 16 9f 5f 38 5b 7c ab 37
       6.575823e-06 0.0005069389 5.3315503e-05 2.0442696e-05
0003f0 cc 93 83 23 29 1d 17 2e 5e d6 81 31 13 0f 4b 31
       1.4265643e-17 3.4359324e-11 3.778765e-09 2.9548957e-09

exp_avg f4 [64]
000000 27 a7 02 3c 92 fb 48 bd 26 6b 6d 3c 63 6e 84 b9
       0.007974423 -0.04906804 0.014490878 -0.00025259246
000010 f8 9c 04 bc 91 af 15 bc b2 d4 f5 bb 5e 45 d5 bb
       -0.008094065 -0.009136097 -0.007502162 -0.0065085134
000020 11 f6 14 3b 74 32 8b bc 3e 78 4d 3b 10 85 72 bb
       0.0022729675 -0.016991831 0.0031352188 -0.003700558
000030 a2 b6 80 bc 19 32 00 bd 02 09 ee bc 42 7a 63 b7
       -0.015712086 -0.031297777 -0.02905703 -1.355872e-05
000040 04 b4 08 bc a7 b6 cf bc 74 fc 20 b7 82 e5 06 bc
       -0.0083437 -0.02535565 -9.595522e-06 -0.00823343
000050 b9 58 bd 3c 08 78 ac bc e3 e8 31 bc af bf 4d bc
       0.023113595 -0.02105333 -0.010858747 -0.012557908
000060 06 47 40 3d 87 a3 01 3b 8e bc 2b bc 56 d7 ca 3c
       0.046942733 0.0019781308 -0.010481967 0.024760883
000070 92 19 5e b7 84 7f 7f bb d6 89 87 3b 74 09 1f bc
       -1.3238185e-05 -0.0038985917 0.0041363044 -0.009706844
000080 e4 fb 8f 3b 72 d3 83 bb a4 8d 25 bc d3 ec 46 bc
       0.0043940414 -0.004023009 -0.010104571 -0.012141424
000090 40 9b e8 3c 1a 29 1e bb 47 8e 13 bc 34 a5 c2 bb
       0.028394341 -0.0024133385 -0.0090060895 -0.005940104
0000a0 4e 0b 83 bc 55 88 51 3c 77 46 65 bc 24 3d f8 3b
       -0.015996601 0.012788852 -0.013993851 0.007575648
0000b0 f6 0f 21 bd f8 b6 4a 3c 21 3f fa bb b0 90 0a bc
       -0.039321862 0.012372725 -0.00763692 -0.008457348
0000c0 71 3d 3e bc 6a 7b d0 3b d3 a2 8b b6 7b 67 ca 3b
       -0.011611328 0.0063623684 -4.161478e-06 0.0061768866
0000d0 97 a2 8b bc 66 67 79 bc 6b 02 3c ba 23 2d 2f bd
       -0.017045302 -0.015222406 -0.0007171991 -0.042767655
0000e0 26 24 81 3b 92 d2 5b bc 5e f9 7a bc 04 52 6e bc
       0.003941077 -0.013416903 -0.015318243 -0.014545921
0000f0 80 f3 df 38 a2 1e a5 ba 04 81 91 3c ae dd c3 bc
       0.00010678824 -0.001259763 0.017761715 -0.023909416
